chapter2/test_train/best_model.pth (torch_old, 391077 bytes, 17 tensors)

weight f4 [32, 3, 3, 3]
1.1349803 0.3333035 -0.21771258 1.3792868 0.16398484 0.93114215 0.21118753 1.9672568
-0.6765476 0.102797374 0.21167465 0.3079598 -0.05637806 -0.31470236 0.13215621 1.1371498
-0.50748694 -0.36710578 0.4276129 0.46010014 -1.3375801 0.15309311 -1.7707418 1.3959589
0.29168376 -1.721803 0.20575969 -0.42820197 0.80589384 0.8557948 -2.0842245 -0.6431434
0.15288626 1.8067214 -1.4887128 0.5557203 0.30564013 -0.09438841 0.54693526 -1.1322818
-1.6992908 -1.1237973 0.01506015 -1.6122347 -0.8567673 -0.80406606 -0.16804755 1.074318
-0.056844056 -0.053390432 0.05062171 0.081999876 -0.0814084 -2.0638564 -0.67153144 0.27738643
1.0410876 1.5391876 1.046189 1.8407426 0.20538813 0.42888677 -0.22911893 -0.5429236
0.74103206 -1.3780632 0.4338298 1.0663217 -0.14560394 0.12587905 0.84174794 -0.42863876
0.041094303 -1.2473589 1.5801313 -0.7156134 -0.49373603 0.86077946 -0.21102498 -0.65774417
0.91427207 -0.77525723 0.4695874 0.44120684 0.8746403 1.0294534 -1.6559082 1.1613524
0.04285688 1.0933089 -0.05751123 1.7448056 0.8018906 1.1098317 0.46353808 2.3908732
0.8239292 1.4941986 1.0834768 -0.30952975 0.589976 -0.19190006 -0.27344564 -1.6557028
1.4729553 -0.20311058 1.7099875 -0.9468652 -0.21594334 -1.1422328 0.4412705 0.11194167
0.82509995 -1.1867092 -1.2166548 -1.6955876 1.6520305 0.09696987 0.79795796 -2.1842835
-0.3694845 2.049316 1.7445949 -0.13665801 -0.47824627 0.5027168 -0.5220601 -0.3768103
1.9932507 -0.64845943 1.5067436 3.7367098 0.6987119 0.82191575 0.56088305 -1.9603982
1.0731517 -0.7734901 -1.2572131 -0.27888548 -1.3832644 0.34496856 1.2448155 -0.24705608
-0.7704169 -0.20720197 0.5258236 0.05994548 -1.7508242 1.2138914 -1.3865703 -0.33891517
-0.7662254 -3.0084033 0.22752091 -0.18470594 -0.67278415 -1.420063 -0.028398333 1.3577665
-1.4591682 0.5230685 -1.2264028 -0.7467315 0.07154655 0.79231554 0.15752727 0.40359274
-1.867376 -1.149613 0.6163159 -0.25573638 0.0065754307 -1.4722725 1.4392442 -1.6036366
-0.9118044 -0.7290754 -0.005596397 1.5035466 -2.127702 0.4271843 -1.0922118 -0.768548
-0.35598275 -1.8964576 0.43130714 -0.7769431 -1.3798164 -2.1873093 -0.41247287 1.9363536
0.76098055 0.2864145 -0.5167293 0.39219734 -0.58536416 0.61128014 1.3048865 -1.6127518
-0.97468764 -2.8374188 1.3252778 -0.65224975 -1.3512664 0.19422506 0.22517535 -0.74280196
1.4743165 -2.2104478 -0.16539358 0.40577346 -2.4575853 -0.49726406 -0.42364958 -0.8957003
-0.3025111 -0.4109695 -0.8681154 0.059192628 0.9267491 0.7858585 -0.012409074 -0.812685
0.23560733 0.12873445 0.9585046 -0.4648425 -1.3700273 0.4201072 -1.2474267 -0.24034029
0.1290666 -1.9729513 -1.0673261 0.29067874 -0.15945753 0.61718994 -2.7879734 -0.9637773
-0.7158039 -1.2746142 -1.4845855 1.8666744 0.5297656 -0.6913202 0.8308047 1.7378856
0.0023113394 -1.4617068 -1.3382807 2.0666018 -0.17122827 -0.567757 0.69626975 1.0865895
00000000: 0947 913f c2a6 aa3e 0cf0 5ebe 788c b03f
00000010: a4eb 273e 555f 6e3f 8b41 583e 12cf fb3f
00000020: 3932 2dbf 6e87 d23d 3dc1 583e e8ac 9d3e
00000030: aeec 66bd ab20 a1be f553 073e 208e 913f
00000040: aaea 01bf 4af5 bbbe 14f0 da3e 3f92 eb3e
00000050: d335 abbf 71c4 1c3e aba7 e2bf c8ae b23f
00000060: 9357 953e 0a64 dcbf abb2 523e 4a3d dbbe
00000070: 0f4f 4e3f 5e15 5b3f ef63 05c0 0ca5 24bf
00000080: 378e 1c3e a642 e73f 248e bebf b043 0e3f
00000090: dd7c 9c3e b64e c1bd f303 0c3f 9cee 90bf
000000a0: 5c82 d9bf 97d8 8fbf d9be 763c b55d cebf
000000b0: 1a55 5bbf 46d7 4dbf a814 2cbe 4183 893f
000000c0: 50d5 68bd edaf 5abd b658 4f3d 8def a73d
000000d0: 72b9 a6bd 3916 04c0 7ce9 2bbf 9805 8e3e
000000e0: 5c42 853f 1904 c53f 85e9 853f 749d eb3f
000000f0: 4451 523e 0c97 db3e 279e 6abe 0bfd 0abf
00000100: 47b4 3d3f 6064 b0bf f11e de3e 3b7d 883f
00000110: 3319 15be 70e6 003e cb7c 573f 8a76 dbbe
00000120: 8052 283d 75a9 9fbf be41 ca3f 7132 37bf
00000130: f8ca fcbe 0b5c 5c3f ef16 58be ec61 28bf
00000140: bc0d 6a3f 4277 46bf c26d f03e dde5 e13e
00000150: 6de8 5f3f 21c5 833f cdf4 d3bf 32a7 943f
00000160: b28a 2f3d 8cf1 8b3f e590 6bbd ca55 df3f
00000170: b448 4d3f f70e 8e3f dd54 ed3e 1104 1940
00000180: 06ed 523f e641 bf3f 5eaf 8a3f af7a 9ebe
00000190: ab08 173f 7381 44be 1101 8cbe 12ee d3bf
000001a0: cd89 bc3f 38fc 4fbe dfe0 da3f c265 72bf
000001b0: 4020 5dbe af34 92bf 35ee e13e ad41 e53d
000001c0: c039 533f 16e6 97bf 58bb 9bbf 0409 d9bf
000001d0: bc75 d33f 2498 c63d f946 4c3f 4dcb 0bc0
000001e0: 132d bdbe fe27 0340 e34e df3f 14f0 0bbe
000001f0: b2dc f4be 0cb2 003f bba5 05bf 48ed c0be
00000200: d722 ff3f 7001 26bf f9dc c03f 4126 6f40
00000210: c8de 323f 1269 523f 0896 0f3f 54ee fabf
00000220: 095d 893f 7203 46bf 5cec a0bf 14ca 8ebe
00000230: cf0e b1bf b89f b03e 1d56 9f3f 45fc 7cbe
00000240: 0b3a 45bf c12c 54be 609c 063f 6489 753d
00000250: 021b e0bf cb60 9b3f 237b b1bf 4a86 adbe
00000260: 5927 44bf ae89 40c0 3efb 683e 8e23 3dbe
00000270: 953b 2cbf a0c4 b5bf 9fa3 e8bc 4bcb ad3f
00000280: 06c6 babf d1e7 053f c4fa 9cbf cc29 3fbf
00000290: ff86 923d 31d5 4a3f d44e 213e b5a3 ce3e
000002a0: 2d06 efbf 8526 93bf e1c6 1d3f e1ef 82be
000002b0: b676 d73b 6d73 bcbf 2739 b83f f743 cdbf
000002c0: 036c 69bf afa4 3abf fb61 b7bb 3774 c03f
000002d0: 452c 08c0 e7b7 da3e 99cd 8bbf 90bf 44bf
000002e0: 5f43 b6be 1fbf f2bf 4ad4 dc3e bee5 46bf
000002f0: d39d b0bf e0fc 0bc0 a52f d3be 6fda f73f
00000300: 9fcf 423f eca4 923e 5f48 04bf 17ce c83e
00000310: 6dda 15bf db7c 1c3f 8506 a73f a76e cebf
00000320: 2185 79bf 4598 35c0 b4a2 a93f d7f9 26bf
00000330: 4cf6 acbf efe2 463e 5e94 663e 4528 3ebf
00000340: 67b6 bc3f fa77 0dc0 ef5c 29be 8ac1 cf3e
00000350: 1449 1dc0 6599 febe 99e8 d8be 9d4c 65bf
00000360: bce2 9abe 986a d2be d03c 5ebf f873 723d
00000370: 6e3f 6d3f 062e 493f 6e4f 4bbc 200c 50bf
00000380: 0c43 713e f7d2 033e 8f60 753f d6ff edbe
00000390: 0e5d afbf 4a18 d73e aeab 9fbf c41b 76be
000003a0: 092a 043e ab89 fcbf 249e 88bf d8d3 943e
000003b0: d648 23be 2900 1e3f 286e 32c0 1cba 76bf
000003c0: ed3e 37bf 8f26 a3bf e606 bebf 30ef ee3f
000003d0: b89e 073f 5cfa 30bf 9eaf 543f 0973 de3f
000003e0: d779 173b 3519 bbbf c84c abbf 3443 0440
000003f0: 7756 2fbe 8658 11bf bc3e 323f 5d15 8b3f

gamma f4 [32]
1.3869323 0.6085088 0.36428475 1.1970309 0.11014163 2.0032053 2.0454977 1.0378952
1.4969594 1.3398409 0.7194193 1.2724499 0.7909538 1.0621675 0.94102526 1.1570406
1.281945 1.2806281 0.606477 0.6080338 0.72741586 1.292582 0.7635972 0.97920245
1.4710312 1.619696 1.1994362 1.4698288 0.8088291 1.2624562 0.24024592 1.1643878
00000000: ff86 b13f 3cc7 1b3f 8883 ba3e 4f38 993f
00000010: ef91 e13d 8434 0040 6fe9 0240 c0d9 843f
00000020: 5e9c bf3f e87f ab3f dd2b 383f a3df a23f
00000030: f37b 4a3f 1bf5 873f 08e7 703f e819 943f
00000040: c616 a43f 9feb a33f 1442 1b3f 1aa8 1b3f
00000050: ed37 3a3f 5473 a53f 1b7b 433f 03ad 7a3f
00000060: c04a bc3f 3352 cf3f 2087 993f 5a23 bc3f
00000070: 6d0f 4f3f 2a98 a13f 0703 763e a90a 953f

beta f4 [32]
0.47162881 -0.36427364 -0.20808007 0.42708594 0.57174456 0.11250928 0.13846134 0.2484482
-0.15637504 0.8552859 0.009021181 -0.0905253 -0.11925324 0.46487388 -0.37510622 0.21018389
0.56022483 -0.37419936 -0.3799608 -0.15620266 0.9134952 0.5125542 0.6589123 0.60546315
0.07120053 -0.15170766 0.0832271 0.193791 0.28712198 -0.22064382 -0.7344255 0.05532617
00000000: 5579 f13e 1382 babe f112 55be 02ab da3e
00000010: da5d 123f 446b e63d cfc8 0d3e 3469 7e3e
00000020: c720 20be 04f4 5a3f 93cd 133c 5465 b9bd
00000030: 0b3b f4bd f303 ee3e ec0d c0be 723a 573e
00000040: e56a 0f3f 0f97 bfbe 398a c2be 97f3 1fbe
00000050: d2da 693f c136 033f 7aae 283f a2ff 1a3f
00000060: 95d1 913d 4159 1bbe f872 aa3d 2671 463e
00000070: a701 933e 74f0 61be 4f03 3cbf b29d 623d

running_mean f4 [1, 32, 1, 1]
1.3881776 -3.2102995 2.3248138 4.8884206 3.0454044 -4.386442 -4.878432 -3.785454
-4.5811796 5.9910755 4.3419476 -4.71345 -2.6568797 4.723587 -3.8129356 4.452163
5.8821745 -4.644475 -3.469126 2.993266 -2.3322988 5.9846516 3.5132236 5.535729
-3.031058 -4.267879 3.1208768 4.5968504 4.615124 -3.680998 -2.080478 -5.3040705
00000000: ceaf b13f 8c75 4dc0 c0c9 1440 f16d 9c40
00000010: e8e7 4240 bc5d 8cc0 1d1c 9cc0 e144 72c0
00000020: 0699 92c0 e4b6 bf40 3cf1 8a40 95d4 96c0
00000030: 510a 2ac0 a027 9740 2307 74c0 1f78 8e40
00000040: c63a bc40 8a9f 94c0 2906 5ec0 ac91 3f40
00000050: 6244 15c0 4482 bf40 a8d8 6040 b124 b140
00000060: dbfc 41c0 7792 88c0 72bc 4740 6619 9340
00000070: 19af 9340 7995 6bc0 8d26 05c0 f2ba a9c0

running_var f4 [1, 32, 1, 1]
0.6404007 2.7818787 1.5209504 6.3057747 2.8223124 5.282255 6.523355 3.9628444
5.808029 9.742956 5.1661344 6.15006 2.0350642 5.9583707 4.008719 5.254361
9.774896 5.818627 3.4722104 2.463923 1.6132392 9.823856 3.5401552 8.454468
2.5772045 5.01369 2.7135642 5.901003 5.848989 3.9355946 1.2516468 7.5759573
00000000: 4df1 233f 4d0a 3240 81ae c23f e8c8 c940
00000010: c4a0 3440 3c08 a940 53bf d040 3e9f 7d40
00000020: 60db b940 26e3 1b41 f950 a540 4bcd c440
00000030: 7e3e 0240 f9aa be40 6d47 8040 ba23 a840
00000040: f965 1c41 3132 ba40 b238 5e40 eab0 1d40
00000050: 9f7e ce3f 842e 1d41 e791 6240 8045 0741
00000060: ebf0 2440 2670 a040 09ab 2d40 04d5 bc40
00000070: eb2a bb40 c8e0 7b40 f635 a03f 3e6e f240

weight f4 [64, 32, 3, 3]
-0.2475678 0.51233906 -0.79369736 -0.70929146 0.6002741 1.1590693 1.4094541 -0.11893795
1.776033 0.070179366 1.4780747 0.3382761 -0.6125885 0.26768255 -0.4571638 -0.15966439
0.59994745 1.0300634 0.87280977 -0.5371139 -0.09115036 -0.25952286 -0.8688758 0.51829153
1.0540884 0.022446536 -0.7011512 1.2427387 1.6493597 -0.982148 0.54531527 -2.6768022
0.6002854 -0.79967636 -0.0824885 -1.2251793 0.6662419 -1.5577058 -0.1151621 -0.45105383
1.4506261 1.0005016 -1.679899 0.85550344 1.6978161 1.4926186 0.7940232 1.3134749
-0.42784005 1.043284 0.46703508 1.5180403 1.4961418 -0.35179007 -0.6520005 -0.33831775
1.0737214 0.31302533 1.8190844 0.908297 1.4648451 2.5786424 -0.022324806 -0.4034512
0.40881652 0.023997873 -0.6593076 0.9347975 -0.20756677 1.3809594 -0.51968646 2.0380416
0.37506407 -0.3673898 0.5603929 -0.18428376 2.1173115 0.30142766 1.8023407 0.9737102
2.1954443 0.74398166 -1.5645001 0.16102262 1.2393311 1.8118384 -0.75448054 -1.4877781
0.31850818 -0.2657286 0.52504975 -0.047604967 0.8946475 -0.51281893 0.6852112 1.0291606
1.4156637 -0.3889934 0.23352282 1.4441702 1.6374438 0.42527923 0.4820901 1.6831741
2.1774478 -0.3890384 2.1601555 1.7584667 -0.7912824 1.0176224 0.37977085 0.03511564
-0.41728595 1.114649 1.0621864 1.3214154 1.4685392 0.28851965 -0.4927528 -0.3769085
0.5895871 -0.013484686 -0.16186072 0.42953902 -0.10767084 0.3698832 -0.24695492 0.35092476
0.3532478 -0.6866536 0.050468594 0.17605029 -0.3606588 -1.1346645 -0.79607433 -1.064223
-1.9356626 -0.6322656 -1.4501153 0.057407856 0.33791146 2.667352 -0.07239852 -1.1885748
-0.20743424 -0.3909802 0.20225203 -0.09465656 2.481103 0.00519423 -0.09444658 -0.4295602
1.383707 1.7204047 0.46099928 1.514353 -0.5378182 -0.44720677 0.64433473 -1.1210938
0.53534627 1.3865734 1.2881439 -0.27096337 0.46045837 -1.9670669 1.2286208 0.66380507
-0.1382797 -0.4815028 -0.44862378 -0.6521568 0.85553277 0.28065878 2.2822826 -0.38291237
0.64465773 -0.115346 0.62713635 1.1093057 0.4915494 0.84516186 -0.6236212 0.8922993
0.12369769 -0.7605698 -2.594957 -0.9717168 -1.2599432 -1.4122351 -0.06468943 0.45958856
-0.32378715 -0.9702644 -0.9296352 -0.37470272 -0.6038876 0.9193978 -0.41278398 -0.36649305
2.2616782 1.9016231 1.6508628 0.10295427 0.47939008 2.8405805 2.0425317 0.594325
1.6484135 1.377022 0.19221246 0.72517675 0.7116037 -0.9337756 0.15629359 -0.12939285
1.7256824 -2.1154966 0.5393598 -0.0549655 -0.47394663 1.489071 2.072909 -0.7153386
0.103717655 -0.44796383 0.26514345 -0.41998062 -0.40394908 0.31655696 1.3074223 0.053683642
-0.24347086 1.3683782 -0.51540834 0.25595373 1.6895893 -2.0852625 -0.29577854 0.68139094
-1.1320405 1.1412238 0.068930954 -0.51869625 -1.669795 -0.16489968 3.0588367 -0.2600172
0.7291479 -0.11422923 -1.0279483 -0.48681873 1.6416916 1.8499771 -0.008933646 0.45120242
00000000: 6a82 7dbe a728 033f c02f 4bbf 2094 35bf
00000010: 90ab 193f 625c 943f fe68 b43f bd95 f3bd
00000020: 0d55 e33f 33ba 8f3d 8d31 bd3f 8632 ad3e
00000030: 9ad2 1cbf b00d 893e 6011 eabe 107f 23be
00000040: 2896 193f 1ed9 833f 7670 5f3f 4c80 09bf
00000050: 0aad babd 2ee0 84be a56e 5ebf c1ae 043f
00000060: 5eec 863f cce1 b73c a57e 33bf 1012 9f3f
00000070: 381e d33f 0d6e 7bbf c899 0b3f ba50 2bc0
00000080: 4eac 193f 97b7 4cbf bbef a8bd add2 9cbf
00000090: d48e 2a3f e762 c7bf 1bda ebbd 87f0 e6be
000000a0: 1eae b93f 7010 803f ee06 d7bf 4602 5b3f
000000b0: 0a52 d93f 200e bf3f 1b45 4b3f f21f a83f
000000c0: da0d dbbe 558a 853f 391f ef3e 254f c23f
000000d0: 9381 bf3f d41d b4be 81e9 26bf fc37 adbe
000000e0: b46f 893f db44 a03e c2d7 e83f 2786 683f
000000f0: 0b80 bb3f 7a08 2540 83e2 b6bc 2891 cebe
00000100: 6650 d13e 3097 c43c 62c8 28bf e44e 6f3f
00000110: 628c 54be 47c3 b03f 2c0a 05bf 466f 0240
00000120: 6608 c03e 841a bcbe e975 0f3f e2b4 3cbe
00000130: 0882 0740 ba54 9a3e 1ab3 e63f 1245 793f
00000140: 2982 0c40 9575 3e3f 8a41 c8bf 1de3 243e
00000150: 67a2 9e3f 52ea e73f a325 41bf 836f bebf
00000160: 8113 a33e 940d 88be a969 063f 6dfd 42bd
00000170: 9e07 653f 1a48 03bf 006a 2f3f 89bb 833f
00000180: 7834 b53f 252a c7be 9b20 6f3e 92da b83f
00000190: c297 d13f 33be d93e 83d4 f63e 4072 d73f
000001a0: 4e5b 0b40 0b30 c7be fd3f 0a40 7015 e13f
000001b0: 7c91 4abf 7341 823f 5371 c23e 6bd5 0f3d
000001c0: 81a6 d5be d2ac 8e3f b9f5 873f 2424 a93f
000001d0: 18f9 bb3f d9b8 933e 184a fcbe 27fa c0be
000001e0: 2eef 163f dfee 5cbc d1be 25be 8aec db3e
000001f0: 8882 dcbd 5561 bd3e c0e1 7cbe 69ac b33e
00000200: e5dc b43e 88c8 2fbf 28b8 4e3d 8746 343e
00000210: 45a8 b8be b03c 91bf 87cb 4bbf 7638 88bf
00000220: cbc3 f7bf 29dc 21bf 619d b9bf 8024 6b3d
00000230: bb02 ad3e e5b5 2a40 ad45 94bd 3823 98bf
00000240: a469 54be 8f2e c8be 281b 4f3e 4cdb c1bd
00000250: 64ca 1e40 5c34 aa3b 356d c1bd 51ef dbbe
00000260: 501d b13f 3936 dc3f 1908 ec3e 52d6 c13f
00000270: 74ae 09bf 49f8 e4be 1ff3 243f 0080 8fbf
00000280: 740c 093f 3d7b b13f e6e1 a43f b6bb 8abe
00000290: 33c1 eb3e d9c8 fbbf 7243 9d3f 21ef 293f
000002a0: 3299 0dbe 8987 f6be 04b2 e5be bff3 26bf
000002b0: 3204 5b3f 82b2 8f3e eb10 1240 170d c4be
000002c0: 4a08 253f 863a ecbd 028c 203f bbfd 8d3f
000002d0: 5dac fb3e 875c 583f a4a5 1fbf ba6d 643f
000002e0: 3755 fd3d b4b4 42bf c713 26c0 6fc2 78bf
000002f0: d245 a1bf 1fc4 b4bf e47b 84bd 314f eb3e
00000300: 6ec7 a5be 3f63 78bf 93fc 6dbf 09d9 bfbe
00000310: 6198 1abf a75d 6b3f 6c58 d3be faa4 bbbe
00000320: 56bf 1040 6368 f33f 794f d33f b0d9 d23d
00000330: 9e72 f53e 12cc 3540 d7b8 0240 af25 183f
00000340: 37ff d23f 4242 b03f 58d3 443e 2fa5 393f
00000350: a92b 363f eb0b 6fbf 6d0b 203e 8f7f 04be
00000360: 29e3 dc3f 4c64 07c0 7c13 0a3f 8123 61bd
00000370: 22a9 f2be e199 be3f 8baa 0440 6e20 37bf
00000380: ec69 d43d 845b e5be e2c0 873e b307 d7be
00000390: 6ad2 cebe c113 a23e 9d59 a73f 61e3 5b3d
000003a0: 6d50 79be 0427 af3f cdf1 03bf 5e0c 833e
000003b0: 7644 d83f f174 05c0 4970 97be a36f 2e3f
000003c0: b4e6 90bf 9f13 923f ac2b 8d3d 47c9 04bf
000003d0: d8bb d5bf 76db 28be fbc3 4340 f920 85be
000003e0: 70a9 3a3f 04f1 e9bd cf93 83bf 4e40 f9be
000003f0: f322 d23f 0dcc ec3f 6d5e 12bc 0104 e73e

gamma f4 [64]
1.3984882 1.2578478 0.94816685 0.89064527 1.5076156 0.29495236 0.93633157 0.67040527
0.50789016 1.3844972 0.7895258 0.6376307 1.9308238 0.6411929 1.2201194 0.7541024
1.3283021 0.61469465 1.1091207 0.35314345 1.5818434 0.88399625 1.3915267 0.53762496
1.4293518 0.8156706 0.73535264 0.7389962 1.515032 0.93877405 0.9403647 0.96585345
1.3462769 0.6105821 1.2670575 1.6814926 1.5292673 1.5607414 0.53223544 1.5962471
1.650041 1.4505656 1.8820674 0.7424875 1.0777018 1.1950176 0.92252916 1.2135901
1.5706588 1.4708695 1.0009493 0.9558752 1.5528316 1.5282556 1.4593767 1.4607681
0.7327609 1.1454362 0.681166 1.0050474 0.5524113 0.82604736 1.3424267 1.032014
00000000: a901 b33f 2801 a13f 10bb 723f 5401 643f
00000010: 8cf9 c03f ff03 973e 6db3 6f3f ae9f 2b3f
00000020: 1705 023f 3437 b13f 5d1e 4a3f c43b 233f
00000030: 3c25 f73f 3825 243f df2c 9c3f db0c 413f
00000040: ce05 aa3f a15c 1d3f abf7 8d3f 38cf b43e
00000050: d879 ca3f 944d 623f 8c1d b23f caa1 093f
00000060: 00f5 b63f cacf 503f 1240 3c3f db2e 3d3f
00000070: 92ec c13f 7f53 703f bebb 703f 2c42 773f
00000080: cd52 ac3f 1c4f 1c3f f12e a23f 263b d73f
00000090: 08bf c33f 60c6 c73f 9540 083f d351 cc3f
000000a0: 8b34 d33f 22ac b93f 96e7 f03f a913 3e3f
000000b0: 22f2 893f 56f6 983f df2a 6c3f ec56 9b3f
000000c0: 590b c93f 7445 bc3f 1b1f 803f 3db4 743f
000000d0: 30c3 c63f e19d c33f dbcc ba3f 73fa ba3f
000000e0: 3896 3b3f a79d 923f e560 2e3f 65a5 803f
000000f0: d46a 0d3f d777 533f a3d4 ab3f 0919 843f

beta f4 [64]
0.0064527695 -0.014385619 0.7050427 -0.88239485 0.21069963 -0.6981058 -0.09773653 -0.81689465
-0.7234449 -0.056949485 -1.1549876 0.1859951 0.18657666 -0.9571708 -0.12612058 -0.034028362
0.105532914 -0.3646019 -0.36233327 -0.45261732 0.101709865 -0.28071365 0.20422632 -0.628977
0.010814227 0.20823777 0.30151898 -0.697525 0.6357237 -0.16714793 -0.23163217 0.008303958
-0.025535205 -0.39419553 0.24330099 0.36040673 0.5610006 -0.33749658 0.56759083 0.65917754
-0.032063235 0.32610616 0.9664923 0.5711752 -0.24257827 -0.28418022 -0.50305617 -0.20615436
0.08399375 0.16164757 0.15558726 -0.10850982 -0.11547554 -0.30463395 0.64587796 0.5167484
-0.6412099 0.11147778 -0.69272786 -0.31864834 -0.5281849 -0.69101983 0.010457693 0.48403403
00000000: c171 d33b a9b1 6bbc ae7d 343f a1e4 61bf
00000010: a5c1 573e 10b7 32bf 172a c8bd 0220 51bf
00000020: af33 39bf dd43 69bd a2d6 93bf 8075 3e3e
00000030: f40d 3f3e 2509 75bf c125 01be 5361 0bbd
00000040: a421 d83d 1aad babe bf83 b9be 75bd e7be
00000050: 434d d03d b3b9 8fbe b420 513e a304 21bf
00000060: 282e 313c 483c 553e b260 9a3e 0091 32bf
00000070: cabe 223f d428 2bbe fc30 6dbe 530d 083c
00000080: 352f d1bc ffd3 c9be e523 793e 3b87 b83e
00000090: bc9d 0f3f 5acc acbe a24d 113f dcbf 283f
000000a0: bd54 03bd 63f7 a63e 0a6c 773f 8a38 123f
000000b0: 7066 78be 1280 91be 4ac8 00bf 211a 53be
000000c0: ea04 ac3d f186 253e 4452 1f3e 663a debd
000000d0: 717e ecbd fbf8 9bbe 4258 253f a049 043f
000000e0: 5526 24bf 764e e43d 9d56 31bf e025 a3be
000000f0: 2037 07bf ade6 30bf be56 2b3c 4fd3 f73e

running_mean f4 [1, 64, 1, 1]
55.02198 -8.2990465 -40.762352 9.205882 1.379303 -13.209225 9.480547 -36.90069
-48.06301 8.508232 -33.34291 -4.3971777 9.419557 15.668689 31.991869 -0.16292882
-6.2325983 -12.365147 42.26021 -11.494408 35.45816 24.317528 18.0868 -49.499496
-17.997364 -60.73333 -27.145496 -67.20178 3.0484061 27.27689 -10.371958 -14.86645
21.562866 -62.332283 26.373362 -8.6901245 -61.314285 32.770485 -59.10695 -0.95143735
54.33097 45.599304 -5.0847645 18.795847 9.454847 29.563509 31.40632 28.355225
-12.076023 43.696175 -49.081985 -23.194057 6.5631647 -55.341393 -16.341993 34.6946
-21.858402 27.224829 -19.0285 25.404978 -46.594936 -16.305439 11.977943 8.620165
00000000: 8216 5c42 e5c8 04c1 a60c 23c2 4b4b 1341
00000010: 008d b03f fc58 53c1 52b0 1741 4e9a 13c2
00000020: 8640 40c2 b821 0841 245f 05c2 aeb5 8cc0
00000030: 81b6 1641 f3b2 7a41 59ef ff41 d0d6 26be
00000040: 7271 c7c0 a4d7 45c1 740a 2942 18e9 37c1
00000050: 28d5 0d42 4c8a c241 c4b1 9041 7cff 45c2
00000060: 9afa 8fc1 eeee 72c2 fa29 d9c1 5067 86c2
00000070: 1619 4340 1237 da41 8af3 25c1 fbdc 6dc1
00000080: c080 ac41 4254 79c2 a5fc d241 c00a 0bc1
00000090: d441 75c2 fa14 0342 846d 6cc2 6691 73bf
000000a0: ea52 5942 b065 3642 64b6 a2c0 e55d 9641
000000b0: 0e47 1741 1182 ec41 2540 fb41 80d7 e241
000000c0: 6437 41c1 e2c8 2e42 f453 44c2 6e8d b9c1
000000d0: 7205 d240 965d 5dc2 67bc 82c1 45c7 0a42
000000e0: 02de aec1 73cc d941 5e3a 98c1 653d cb41
000000f0: 3761 3ac2 8a71 82c1 a8a5 3f41 32ec 0941

running_var f4 [1, 64, 1, 1]
756.3361 2091.6868 1241.2659 1282.0695 3021.3267 6304.24 2751.8162 1549.3044
928.4315 5209.405 1011.0191 1824.2347 947.91376 1775.1793 596.53735 2920.1807
2463.987 1704.6338 1553.6975 2850.6228 959.0609 880.26227 992.1011 1992.9126
3212.9875 1182.0255 3029.5046 4711.8 2166.8318 433.13132 4310.0347 914.54706
1221.48 2087.968 1293.8755 5621.229 1967.2649 464.54236 1453.156 2913.8877
1040.6552 2202.349 2269.345 5688.528 1267.084 254.39897 1208.4734 683.3342
2534.9 1280.193 2846.6697 1939.9194 2775.65 6297.395 620.68085 2817.8855
979.49414 2205.3435 1886.4423 4593.6577 1348.6318 576.2716 546.2987 2392.3691
00000000: 8315 3d44 fdba 0245 8228 9b44 3942 a044
00000010: 3ad5 3c45 ec01 c545 0ffd 2b45 bea9 c144
00000020: 9e1b 6844 3dcb a245 39c1 7c44 8307 e444
00000030: 7bfa 6c44 bde5 dd44 6422 1544 e482 3645
00000040: cbff 1945 4814 d544 5236 c244 f729 3245
00000050: e6c3 6f44 c910 5c44 7806 7844 341d f944
00000060: cdcf 4845 d1c0 9344 1358 3d45 663e 9345
00000070: 4f6d 0745 cf90 d843 47b0 8645 03a3 6444
00000080: 5caf 9844 7d7f 0245 04bc a144 d5a9 af45
00000090: 7ae8 f544 6c45 e843 fea4 b544 341e 3645
000000a0: f714 8244 96a5 0945 85d5 0d45 39c4 b145
000000b0: b062 9e44 2366 7e43 260f 9744 64d5 2a44
000000c0: 666e 1e45 2d06 a044 b7ea 3145 6c7d f244
000000d0: 667a 2d45 29cb c445 932b 1b44 2b1e 3045
000000e0: a0df 7444 7fd5 0945 27ce eb44 438d 8f45
000000f0: 3894 a844 6211 1044 1e93 0844 e885 1545

weight f4 [128, 64, 3, 3]
0.83023554 1.8098445 -0.38093626 -0.47783956 -0.107899874 -1.5072304 0.31795114 -0.71923304
-1.0030379 -0.84410363 -0.025697606 0.29208127 -0.98071826 0.12319813 0.37321272 2.0596833
-1.6253302 -2.1076097 -0.17318258 -0.48605135 -0.6690064 -0.36163178 0.35518736 -0.21258135
-1.2211009 0.7826271 -0.7075678 0.6929351 1.8170816 -0.93725544 -0.6628001 -0.846842
-0.6331872 2.1871514 -1.0743245 1.1330117 0.7077503 -0.70819247 1.3010515 -0.0065506995
0.25864574 0.43955913 0.11223369 0.36819082 2.999187 0.85158473 -0.20715033 -0.0701442
0.97809017 -0.5862464 -1.2346857 0.14676687 -1.243284 1.5530014 -0.14642902 -1.6385475
-2.3402054 -0.9201818 0.26369137 0.70388913 1.2137839 -0.7206409 -0.9817002 -0.8719133
-1.4381007 0.9730173 -0.45142892 -0.34655604 -1.4179595 -0.8903191 -1.2022141 -1.2379935
-0.71292406 -0.124339856 -1.1989373 0.7975019 -0.58042836 -0.87249184 -0.19231735 1.0559775
-0.6674927 -1.0168543 -0.317745 1.9003791 -0.56573594 -1.7285686 -0.0032268362 0.13124485
-0.29785913 -0.2444617 -0.9299557 -0.94970113 0.29052442 -1.147105 0.13795425 0.6595986
0.35817474 -1.8522857 1.0316223 -1.2227385 0.14200734 0.18765889 -1.3929088 -0.2445129
1.220745 1.2800491 -0.09312486 0.83493227 -0.2672883 -1.0864868 -0.1127181 1.170669
-0.9046608 -0.9063339 0.26094958 2.4545033 0.3419758 -1.5318652 -0.13624823 1.9199562
-0.032048225 0.26310033 0.038633324 -0.4938577 0.9566593 2.3472433 0.7547931 0.66611856
0.61964476 -0.9175389 -0.87314427 1.2876831 1.5287893 0.17543726 -0.99550277 -0.52965915
-0.70685756 0.48302907 -0.90152365 -0.6924874 0.12932691 -0.10376761 -0.34012878 0.6231803
2.0011795 0.94668454 -0.4929922 1.794806 -0.44196013 1.1791624 1.0975047 0.51940477
-0.022173485 -0.19108337 -1.1587768 -1.458266 -0.78549546 0.4740517 0.7445204 0.9870807
-0.9309219 -0.51234967 0.25867963 -0.5260948 2.2424858 -2.0387688 -0.3400917 2.4645364
1.7230581 -0.057409715 -0.0030970846 0.34087494 -0.4971856 -0.4474047 -0.3059186 -0.6648833
-1.6313831 1.4315835 0.4949565 -0.065136485 1.0397965 1.5117606 -1.4822735 -0.7455853
2.2252579 -1.5347058 1.0561444 0.60648155 0.90415883 0.17467405 1.3738621 0.7801572
1.763038 0.33250535 1.2359471 1.2801775 1.6623167 1.7233863 0.27245095 0.2674831
-1.064038 2.2769835 0.80955213 1.2009993 -0.3896148 -0.72144663 -0.97666913 0.32406637
-1.3317058 0.51236284 -0.43220127 -0.9304908 -0.7799125 0.9897435 1.4597312 -0.02531364
0.5092795 -0.72913134 -1.2449776 1.5054079 -0.2975379 1.0739505 0.6663134 -0.18136178
0.8016861 1.0398245 1.1409364 -0.7008452 1.4397212 -1.2103909 1.2867985 0.10991525
-0.19189261 0.72928184 -0.6158207 -0.810838 1.6189038 -1.3537816 -1.3201059 -0.049342953
-1.0686998 -1.3770237 1.8784363 -0.31158292 -0.24702571 -0.9555655 0.52064013 0.27983367
-0.09533009 0.2732285 0.27543464 -0.33046192 0.94195485 -0.5145702 1.4475812 -1.3063992
00000000: 518a 543f fca8 e73f 140a c3be 63a7 f4be
00000010: 9cfa dcbd edec c0bf 7eca a23e a81f 38bf
00000020: 8c63 80bf 2d17 58bf c983 d2bc ad8b 953e
00000030: 5a10 7bbf 4d4f fc3d bd15 bf3e dad1 0340
00000040: d20a d0bf 14e3 06c0 c656 31be b9db f8be
00000050: 0144 2bbf cd27 b9be 1edb b53e edae 59be
00000060: 094d 9cbf 405a 483f 2a23 35bf 3264 313f
00000070: 2196 e83f f9ef 6fbf 44ad 29bf a3ca 58bf
00000080: 8e18 22bf 4afa 0b40 7783 89bf 8706 913f
00000090: 202f 353f 1a4c 35bf db88 a63f 40a7 d6bb
000000a0: 376d 843e e50d e13e c7da e53d 8283 bc3e
000000b0: aef2 3f40 7501 5a3f 371f 54be c3a7 8fbd
000000c0: 1e64 7a3f 3e14 16bf 2e0a 9ebf 0e4a 163e
000000d0: ee23 9fbf c0c8 c63f 7df1 15be edbb d1bf
000000e0: edc5 15c0 0991 6bbf 8e02 873e 1432 343f
000000f0: 455d 9b3f ec7b 38bf b450 7bbf b635 5fbf
00000100: af13 b8bf a917 793f b121 e7be cb6f b1be
00000110: b27f b5bf f4eb 63bf 27e2 99bf 9276 9ebf
00000120: 3182 36bf e5a5 febd c776 99bf 1629 4c3f
00000130: f496 14bf a05b 5fbf d7ee 44be 452a 873f
00000140: cde0 2abf 4828 82bf 79af a2be 9f3f f33f
00000150: 12d4 10bf bc41 ddbf 5479 53bb 0d65 063e
00000160: fe80 98be 2b54 7abe 9411 6ebf 9d1f 73bf
00000170: 9ebf 943e 56d4 92bf e143 0d3e 74db 283f
00000180: ae62 b73e b317 edbf 330c 843f b282 9cbf
00000190: 5f6a 113e a729 403e d64a b2bf 9761 7abe
000001a0: 5f41 9c3f a6d8 a33f 3fb8 bebd 1fbe 553f
000001b0: 03da 88be 0012 8bbf bfd8 e6bd 7bd8 953f
000001c0: da97 67bf 8005 68bf 2f9b 853e 9516 1d40
000001d0: 7417 af3e 2914 c4bf a884 0bbe 20c1 f53f
000001e0: 0045 03bd 16b5 863e fa3d 1e3d ebda fcbe
000001f0: a0e7 743f 3c39 1640 1f3a 413f bf86 2a3f
00000200: 0aa1 1e3f d4e3 6abf 6286 5fbf cdd2 a43f
00000210: 5eaf c33f d3a5 333e 45d9 7ebf be97 07bf
00000220: 9ef4 34bf 964f f73e 41ca 66bf db46 31bf
00000230: 466e 043e 1d84 d4bd 5c25 aebe bf88 1f3f
00000240: 5313 0040 eb59 723f 7969 fcbe 34bc e53f
00000250: 9948 e2be cbee 963f 097b 8c3f b6f7 043f
00000260: 2ba5 b5bc 5cab 43be cc52 94bf 76a8 babf
00000270: 3b16 49bf e8b6 f23e e498 3e3f 52b1 7c3f
00000280: e650 6ebf 5929 03bf a871 843e 26ae 06bf
00000290: e384 0f40 307b 02c0 8020 aebe f7ba 1d40
000002a0: 2b8d dc3f 7326 6bbd 75f8 4abb 2987 ae3e
000002b0: 1c8f febe 3b12 e5be 5da1 9cbe cb35 2abf
000002c0: 29d1 d0bf 213e b73f f06a fd3e 4766 85bd
000002d0: 0d18 853f 5f81 c13f 23bb bdbf aede 3ebf
000002e0: a06a 0e40 3d71 c4bf bd2f 873f 6042 1b3f
000002f0: f476 673f c1dd 323e b7da af3f 62b8 473f
00000300: 3bab e13f 243e aa3e 8433 9e3f dbdc a33f
00000310: cbc6 d43f ec97 dc3f b17e 8b3e 8bf3 883e
00000320: 6632 88bf 19ba 1140 cf3e 4f3f 58ba 993f
00000330: 977b c7be bab0 38bf fd06 7abf 07ec a53e
00000340: 5675 aabf 362a 033f 7c49 ddbe a534 6ebf
00000350: 58a8 47bf d45f 7d3f 79d8 ba3f 8d5e cfbc
00000360: 2460 023f 5aa8 3abf 6d5b 9fbf 35b1 c03f
00000370: e356 98be 3677 893f 8493 2a3f e7b6 39be
00000380: 4d3b 4d3f f818 853f 340a 923f 976a 33bf
00000390: c948 b83f 17ee 9abf d0b5 a43f 3f1b e13d
000003a0: 7f7f 44be 37b2 3a3f 6da6 1dbf 1493 4fbf
000003b0: 3d38 cf3f b748 adbf 3bf9 a8bf d61b 4abd
000003c0: 28cb 88bf 5042 b0bf 9a70 f03f cc87 9fbe
000003d0: 4ff4 7cbe f19f 74bf ac48 053f 5c46 8f3e
000003e0: 6c3c c3bd 9be4 8b3e c505 8d3e 4e32 a9be
000003f0: f423 713f dfba 03bf 574a b93f 1738 a7bf

gamma f4 [128]
0.4546205 1.1714813 0.63217837 0.47032985 2.0782628 0.53687596 0.540567 0.6009684
0.62359816 0.5210219 1.6184263 0.4917286 0.4943844 -0.07307691 0.41360125 0.63187724
0.25817704 1.3642296 0.2835592 1.3395813 0.25117952 1.3476602 0.40949968 0.5457161
0.49478328 1.0303526 0.6333216 0.53452533 1.1922038 1.1256417 0.5142037 0.70545685
0.6828881 0.5764972 0.99289215 1.3249215 0.505046 1.3027972 0.51109433 0.6373232
1.1440965 0.48973268 0.4572143 0.8339193 0.651756 0.5033296 0.531477 0.9818576
1.1073151 0.29633614 0.39308634 1.1684499 1.93883 0.52679 0.5716833 1.2006248
1.3581607 0.5309066 0.7297354 0.28331888 1.1723098 1.1742886 0.47860014 0.66492605
0.57642746 1.4215763 1.0196856 1.261456 0.37217084 1.3197035 0.61075103 1.5568509
0.45210537 0.47340742 0.49436677 0.5237104 1.0317634 0.55319405 0.57505196 0.5871775
1.2688482 1.2710646 0.7355847 1.1756268 1.221747 0.3452188 1.3054152 0.6386992
1.1933283 0.6142341 1.2779477 0.23699747 1.5007243 1.3610121 1.3089553 0.3487631
0.21427879 1.0227076 1.1695144 0.73236746 1.2100093 1.28429 0.4614874 0.6546398
0.23713253 0.25954235 0.58601636 1.3605499 1.0814171 0.62255836 0.5548405 0.25037557
0.4701092 0.5968517 0.27790463 1.1731906 0.95090806 0.5655194 0.68305117 1.4106213
0.95401216 0.59111917 0.5524408 0.9863561 0.61145675 1.2035296 0.62903315 1.2043741
00000000: 05c4 e83e 19f3 953f 71d6 213f 13cf f03e
00000010: 4202 0540 b470 093f 9962 0a3f 11d9 193f
00000020: 21a4 1f3f b161 053f 9828 cf3f dac3 fb3e
00000030: f41f fd3e 59a9 95bd 8bc3 d33e b5c2 213f
00000040: c82f 843e 139f ae3f ac2e 913e 6677 ab3f
00000050: 9a9a 803e 2180 ac3f f1a9 d13e 0db4 0b3f
00000060: 3c54 fd3e 98e2 833f 5d21 223f a7d6 083f
00000070: 229a 983f 0715 903f dba2 033f d298 343f
00000080: c1d1 2e3f 5295 133f 2e2e 7e3f 0797 a93f
00000090: b24a 013f 0fc2 a63f 14d7 023f 9d27 233f
000000a0: c171 923f 3ebe fa3e fe17 ea3e bc7b 553f
000000b0: 7bd9 263f 35da 003f e00e 083f 055b 7b3f
000000c0: 80bc 8d3f 5fb9 973e 9d42 c93e c48f 953f
000000d0: 952b f83f b6db 063f d659 123f 13ae 993f
000000e0: 36d8 ad3f 7fe9 073f f0cf 3a3f 2c0f 913e
000000f0: 3f0e 963f 174f 963f 140b f53e 9838 2a3f
00000100: c090 133f 36f6 b53f 0f85 823f 6477 a13f
00000110: 2d8d be3e 0bec a83f 2e5a 1c3f e446 c73f
00000120: 5b7a e73e 7562 f23e a41d fd3e e311 063f
00000130: d310 843f 209e 0d3f 9b36 133f 4451 163f
00000140: 9e69 a23f 3fb2 a23f 474f 3c3f f07a 963f
00000150: 3562 9c3f 85c0 b03e d817 a73f ca81 233f
00000160: fbbe 983f 723e 1d3f ca93 a33f 77af 723e
00000170: bc17 c03f a535 ae3f d98b a73f 1491 b23e
00000180: e66b 5b3e 15e8 823f a6b2 953f 6f7c 3b3f
00000190: 96e1 9a3f 9d63 a43f 1448 ec3e 7996 273f
000001a0: dfd2 723e bce2 843e 2b05 163f 8026 ae3f
000001b0: e06b 8a3f fc5f 1f3f 070a 0e3f 3a31 803e
000001c0: 27b2 f03e 46cb 183f 8449 8e3e 1c2b 963f
000001d0: b66e 733f e1c5 103f 71dc 2e3f 3d8f b43f
000001e0: 243a 743f 9653 173f c36c 0d3f d581 7c3f
000001f0: 6e88 1c3f 420d 9a3f 5108 213f ee28 9a3f

beta f4 [128]
-0.64737314 0.2102754 -0.3505396 -0.31941843 0.23696768 -0.47047484 -0.62691367 -0.47312602
-0.37530202 -0.55871046 0.59058374 -0.67738754 -0.449031 -0.7943013 -0.6729887 -0.31122473
-0.6074687 0.23270231 -0.5414489 0.24618225 -0.57425493 0.34730738 -0.46335667 -0.45713004
-0.5413503 0.20589313 -0.424837 -0.49609572 0.33444503 0.06633812 -0.51458985 -0.34122106
-0.18500252 -0.46764582 -0.07424302 0.2928242 -0.3519014 0.39091182 -0.40046853 -0.31183052
0.123695835 -0.48733822 -0.44297457 -0.18822673 -0.323882 -0.4045441 -0.387782 -0.07065318
-0.25663057 -0.730676 -0.5229285 0.22699277 0.9632554 -0.42248636 -0.4508053 0.3215372
0.3435707 -0.4918449 -0.3572624 -0.83406705 0.16907896 0.19548625 -0.44934013 -0.41457957
-0.36496276 0.67059505 -0.07983692 0.33912846 -0.7121353 0.31127068 -0.38250953 0.6834579
-0.44689694 -0.43499437 -0.5128989 -0.3877063 0.56274194 -0.4872034 -0.41677448 -0.39839008
0.31800446 0.28379995 -0.39699522 0.38931978 0.2228722 -0.71537703 0.027334733 -0.38871494
0.19043358 -0.37780473 0.40187013 -0.65236175 0.45968068 0.35429528 0.16855736 -0.7989759
-0.56164294 0.3761696 0.38273695 -0.43426338 0.24843764 0.39026037 -0.5015176 -0.35420123
-0.51288104 -0.94945884 -0.4110838 0.3970522 0.32129532 -0.41057852 -0.40613374 -0.48843846
-0.44720727 -0.44412094 -0.7282366 0.16318114 0.35034892 -0.4460885 -0.35365868 0.13758618
0.107163414 -0.42169294 -0.37401694 0.21138863 -0.227564 0.04830348 -0.29475266 0.21153834
00000000: 3fba 25bf 6f52 573e ed79 b3be d08a a3be
00000010: a8a7 723e 14e2 f0be 6a7d 20bf 933d f2be
00000020: 9627 c0be a607 0fbf 7f30 173f 4569 2dbf
00000030: 64e7 e5be 5457 4bbf fd48 2cbf d958 9fbe
00000040: 1283 1bbf 8449 6e3e 659c 0abf 3317 7c3e
00000050: 5f02 13bf 46d2 b13e 163d edbe f30c eabe
00000060: ef95 0abf a6d5 523e 3c84 d9be 4200 febe
00000070: 613c ab3e 48dc 873d 29bc 03bf 87b4 aebe
00000080: 4d71 3dbe 466f efbe b90c 98bd 0eed 953e
00000090: 6c2c b4be 9825 c83e 360a cdbe 40a8 9fbe
000000a0: 3e54 fd3d 6584 f9be 90cd e2be 82be 40be
000000b0: ddd3 a5be 6720 cfbe 5d8b c6be 9db2 90bd
000000c0: 1565 83be 950d 3bbf a4de 05bf cb70 683e
000000d0: e897 763f 2250 d8be f4cf e6be 86a0 a43e
000000e0: 80e8 af3e 18d3 fbbe 19eb b6be 6b85 55bf
000000f0: 0923 2d3e 8c2d 483e e90f e6be c643 d4be
00000100: 66dc babe 1eac 2b3f 8a81 a3bd 3fa2 ad3e
00000110: 804e 36bf df5e 9f3e 4ad8 c3be 19f7 2e3f
00000120: adcf e4be 95b7 debe 584d 03bf 7181 c6be
00000130: db0f 103f b972 f9be 7763 d5be c9f9 cbbe
00000140: 7bd1 a23e 3a4e 913e f542 cbbe ec54 c73e
00000150: 9c38 643e f322 37bf 17ed df3c a505 c7be
00000160: 0501 433e 9f6f c1be ecc1 cd3e 2e01 27bf
00000170: 445b eb3e 3166 b53e 4d9a 2c3e af89 4cbf
00000180: d5c7 0fbf 4d99 c03e 19f6 c33e c557 debe
00000190: 7066 7e3e 35d0 c73e 7563 00bf dd59 b5be
000001a0: 2c4c 03bf bc0f 73bf 9379 d2be 6d4a cb3e
000001b0: d280 a43e 5937 d2be c3f0 cfbe 9b14 fabe
000001c0: 5af8 e4be d263 e3be b76d 3abf f518 273e
000001d0: ef60 b33e b665 e4be c012 b5be 64e3 0c3e
000001e0: 7e78 db3d 23e8 d7be 267f bfbe 4376 583e
000001f0: 8a06 69be dfd9 453d d2e9 96be 829d 583e

running_mean f4 [1, 128, 1, 1]
23.613066 -38.037952 -45.001793 -7.061409 36.935368 -34.748726 8.630528 -58.309055
7.4978566 88.17765 19.449356 23.274591 -26.1003 -4.10085 24.890839 39.339573
8.011806 -2.348973 28.781103 -31.699814 3.65041 -24.824997 12.766594 -8.915552
-67.63753 -34.011574 -10.965118 -46.008636 -26.284939 -10.875751 28.958847 -19.134953
8.9729185 -67.67614 13.302546 18.324856 -2.1196506 -20.877453 -24.60285 -8.363353
9.099078 -43.85063 -65.44791 8.932209 21.37029 -57.599434 37.922256 25.171978
16.620825 29.337341 20.69798 5.1490555 14.608592 -4.3593197 -30.620972 -16.50371
56.340134 -49.737774 -0.012648642 35.239235 18.961681 21.652931 -41.76644 -67.58822
-23.007309 21.713188 -66.63131 -52.987156 18.312262 -4.0328336 22.456898 17.890976
-83.125175 -59.61403 8.788803 -13.389587 -9.53651 -47.497566 -3.4411106 9.5395155
-52.89257 25.31954 -10.175887 -14.59142 -49.80609 63.192924 -58.140797 -8.451777
-68.00487 -23.251375 -16.708244 8.907932 -28.21442 43.923225 -0.45440945 14.603643
3.762621 -33.056026 -70.033905 -16.404032 -20.208258 -38.65423 -74.75882 -22.825104
25.409054 44.936123 -88.70021 -43.62809 -20.169348 -13.983172 2.1019826 11.024767
-79.28762 -58.177216 49.690422 8.497958 8.158799 -76.112656 1.9907756 11.716135
35.89871 -80.211205 31.909788 -17.816545 -17.523605 22.846983 -75.26511 -32.076515
00000000: 8fe7 bc41 dd26 18c2 d601 34c2 10f7 e1c0
00000010: d1bd 1342 b2fe 0ac2 a516 0a41 793c 69c2
00000020: 71ee ef40 f55a b042 4898 9b41 5d32 ba41
00000030: 6acd d0c1 2a3a 83c0 7020 c741 b95b 1d42
00000040: 5b30 0041 9355 16c0 b33f e641 3899 fdc1
00000050: 51a0 6940 9899 c6c1 f843 4c41 1aa6 0ec1
00000060: 6a46 87c2 da0b 08c2 2071 2fc1 d808 38c2
00000070: 8e47 d2c1 1303 2ec1 b8ab e741 6214 99c1
00000080: 1391 0f41 2f5a 87c2 3ad7 5441 4e99 9241
00000090: 5ba8 07c0 0605 a7c1 a3d2 c4c1 4bd0 05c1
000000a0: d395 1141 0c67 2fc2 54e5 82c2 54ea 0e41
000000b0: 5bf6 aa41 d265 66c2 64b0 1742 3660 c941
000000c0: 73f7 8441 e0b2 ea41 7795 a541 10c5 a440
000000d0: cbbc 6941 8c7f 8bc0 c0f7 f4c1 9907 84c1
000000e0: 4c5c 6142 7bf3 46c2 403c 4fbc faf4 0c42
000000f0: 86b1 9741 3439 ad41 d610 27c2 2b2d 87c2
00000100: f80e b8c1 9cb4 ad41 3b43 85c2 d9f2 53c2
00000110: 837f 9241 f90c 81c0 baa7 b341 b820 8f41
00000120: 1740 a6c2 c474 6ec2 f09e 0c41 c03b 56c1
00000130: 8c95 18c1 82fd 3dc2 283b 5cc0 dba1 1841
00000140: fe91 53c2 6b8e ca41 6fd0 22c1 7576 69c1
00000150: 7039 47c2 8ec5 7c42 2d90 68c2 7b3a 07c1
00000160: 7e02 88c2 d102 bac1 7caa 85c1 e486 0e41
00000170: 22b7 e1c1 62b1 2f42 5ba8 e8be 86a8 6941
00000180: c8ce 7040 5f39 04c2 5c11 8cc2 753b 83c1
00000190: 83aa a1c1 ee9d 1ac2 8484 95c2 d099 b6c1
000001a0: be45 cb41 97be 3342 8266 b1c2 2a83 2ec2
000001b0: d35a a1c1 13bb 5fc1 e286 0640 7265 3041
000001c0: 4393 9ec2 78b5 68c2 fec2 4642 a3f7 0741
000001d0: 718a 0241 ae39 98c2 bcd1 fe3f 4a75 3b41
000001e0: 4798 0f42 236c a0c2 3f47 ff41 4988 8ec1
000001f0: 5830 8cc1 9fc6 b641 bc87 96c2 5a4e 00c2

running_var f4 [1, 128, 1, 1]
1246.1555 6991.1235 5225.5103 7054.603 8458.104 3486.6812 1135.8048 2609.582
5072.685 3125.6394 19577.94 1152.3417 3191.173 3983.3696 7132.4316 6078.124
721.7312 6563.982 2913.1843 4142.9053 222.48584 1496.2682 4854.0747 381.06583
4579.76 13242.328 11631.745 3015.3252 2538.2083 1677.2339 1898.6166 9207.374
9544.169 3758.7043 2208.387 7171.687 5426.4756 1824.2114 6236.2583 6473.4507
1426.4594 3090.7922 4149.2944 3101.8628 5806.774 9426.237 6517.631 5443.0586
7131.3774 2393.7307 1191.7369 4537.803 16770.299 7978.341 4160.6084 4038.1104
13107.28 5666.6587 5891.835 1799.6239 3040.7917 5861.778 3116.6714 21593.129
7785.2227 18076.67 798.7825 2791.041 3680.5588 3406.2603 6472.2607 12423.331
4338.8975 4839.2007 1340.3342 7804.1665 2410.5483 2870.6252 7472.4805 6930.678
9675.179 288.99454 10684.684 4604.4946 7565.8784 2414.3552 8736.809 11745.9795
9230.305 6171.2007 2516.0842 640.9301 2118.538 731.5564 8533.599 3287.2463
652.84216 3822.6572 7414.0366 13228.523 4656.57 6045.974 6455.8306 8093.494
1036.6947 1929.5104 21968.31 4079.9033 5872.557 4511.156 9655.752 1467.5411
4466.684 5316.1074 2050.9043 2359.544 6695.6533 14524.947 7814.91 3410.4119
4927.5 11077.934 2898.5364 7867.3833 9424.065 1103.3599 3736.861 6453.8965
00000000: fac4 9b44 fd78 da45 154c a345 d374 dc45
00000010: 6a28 0446 e6ea 5945 c1f9 8d44 5019 2345
00000020: 7b85 9e45 3b5a 4345 e1f3 9846 ef0a 9044
00000030: c572 4745 eaf5 7845 74e3 de45 fef0 bd45
00000040: cc6e 3444 db1f cd45 f312 3645 3e77 8145
00000050: 607c 5e43 9508 bb44 99b0 9745 6d88 be43
00000060: 141e 8f45 50e9 4e46 fbbe 3546 3475 3c45
00000070: 55a3 1e45 7ca7 d144 bb53 ed44 7fdd 0f46
00000080: ad20 1546 45eb 6a45 3106 0a45 7f1d e045
00000090: ce93 a945 c406 e444 11e2 c245 9b4b ca45
000000a0: b34e b244 ad2c 4145 5baa 8145 cedd 4145
000000b0: 3176 b545 f348 1346 0cad cb45 7818 aa45
000000c0: 05db de45 b19b 1545 95f7 9444 6dce 8d45
000000d0: 9904 8346 ba52 f945 de04 8245 c461 7c45
000000e0: 1fcd 4c46 4515 b145 ae1e b845 f7f3 e044
000000f0: ab0c 3e45 392e b745 beca 4245 42b2 a846
00000100: c849 f345 5739 8d46 14b2 4744 a870 2e45
00000110: f108 6645 2ae4 5445 1642 ca45 531d 4246
00000120: 2e97 8745 9b39 9745 b28a a744 55e1 f345
00000130: c6a8 1645 016a 3345 d883 e945 6d95 d845
00000140: b72c 1746 4d7f 9043 bcf2 2646 f5e3 8f45
00000150: 076f ec45 afe5 1645 3c83 0846 eb87 3746
00000160: 3839 1046 9bd9 c045 5941 1d45 873b 2044
00000170: 9c68 0445 9ce3 3644 6556 0546 f173 4d45
00000180: e635 2344 84ea 6e45 4bb0 e745 18b2 4e46
00000190: 8f84 9145 cbef bc45 a5be c945 f4eb fc45
000001a0: 3b96 8144 5530 f144 9fa0 ab46 74fe 7e45
000001b0: 7584 b745 3ff9 8c45 02df 1646 5171 b744
000001c0: 7995 8b45 dc20 a645 782e 0045 b478 1345
000001d0: 3a3d d145 caf3 6246 4837 f445 9726 5545
000001e0: 00fc 9945 bc17 2d46 9528 3545 11db f545
000001f0: 4340 1346 84eb 8944 c78d 6945 2caf c945

weight f4 [2, 128]
0.46910703 0.51578116 -0.07088111 -0.81210566 -1.2805698 -1.2664465 -0.8256174 -0.8257532
-1.0138841 0.13207546 -2.0145957 0.81004536 -1.2613591 0.1138337 0.3378181 -0.6145089
0.8622079 0.5909384 0.045478817 -0.06076236 0.7818169 -1.0197244 0.3405577 0.25441593
-2.7785504 1.5299786 -2.6817763 -1.2716129 -0.29702547 -0.2099792 1.1344389 -0.8415112
-0.15279272 -0.82805693 -0.7676809 0.461744 -0.46365458 -1.4080108 -0.16109417 -0.7289481
-0.44202462 -0.2023735 0.6860613 -0.59070504 -2.0617867 -0.13581635 -0.32481033 -0.6316918
-0.6645928 -0.19148909 1.5428442 0.2594857 -0.9578103 0.20239623 -0.6097435 0.5392374
-1.3384681 -1.5256053 -1.7927796 1.9362801 -0.1817524 -0.42393652 0.34614283 0.73752326
-0.26762995 -2.0919654 -0.07062606 0.9717302 2.4814067 -0.5471369 -0.53485084 -1.4603876
-0.4705351 0.33868122 -0.10128569 -0.99027485 1.2144499 -1.052411 -1.101787 -0.8028519
1.395259 -1.1138773 -1.2627805 -0.27876732 0.3469358 1.7874398 -0.22841454 -1.6542224
0.3733421 -0.8505801 0.5453319 -0.0016703046 -0.37721246 -1.2832985 0.24646594 1.0290512
0.14098664 0.077999935 0.74964625 0.9206956 -0.12693368 0.9337515 -1.6274498 -0.37465274
0.6384447 0.50161034 0.35234845 0.3628504 0.8752517 -0.9194931 -0.9108354 0.2517577
-0.5225607 -0.33677796 0.43505874 -0.48804215 0.977308 0.15706478 -1.4003782 -0.8332897
-0.44926578 -0.54860806 -0.43065467 0.24519992 -0.7203889 -0.75829947 -0.122650966 0.601436
-0.16452906 -0.578881 -0.08411897 -1.1486526 -0.66346437 1.2884436 -1.1707809 0.3586295
-0.14234814 0.286703 -1.4142673 0.036649756 0.78049 -0.051532876 0.13752079 0.04801217
0.5570028 -0.93874353 0.19518849 -1.5590248 0.69820476 -1.2967734 0.81643015 0.15675017
1.2229756 -1.8702934 0.552284 0.25309187 -1.6279671 -0.8321288 0.84677756 -0.22130977
-0.23910594 0.12688592 -0.35396704 -1.0409875 0.20435488 -1.4863647 0.015116532 -0.22549681
-0.8866575 2.4086378 1.4991357 -0.3888115 0.61278355 0.08919642 1.5412481 -0.3463685
-0.38853696 -0.89865726 0.9985983 -2.570386 -0.6970182 0.97557974 0.17348611 -0.784331
-0.95618767 0.09495481 -0.011695066 -0.14250733 -1.1616329 -2.020116 1.7988056 1.0357102
-0.030104829 -1.5620321 -0.37422088 -1.5331652 1.2470032 -0.7100099 0.9980463 -1.4564135
0.063074544 0.7081683 -0.25858727 0.7213478 -1.62139 0.6679725 0.5552266 0.03800961
-1.4642586 -1.0109948 -0.197354 -1.7022116 -1.6495754 -0.030588653 -0.45213106 0.12189853
-0.70902777 0.015712343 -1.4303842 -0.106318414 -0.8266809 -1.2427858 -0.8329883 1.0420223
0.23603804 -0.5829672 -0.3129726 2.398876 -1.0579535 -0.8605055 0.36654705 -1.190398
0.6198953 -0.19346401 0.5185963 -1.2432989 -1.6904889 0.3775634 0.9567446 0.4594861
0.07775043 0.9080854 -0.01698467 -1.6381748 -0.54754704 1.74995 -0.15283555 -0.5285547
-1.9126594 0.2147767 1.6509187 -0.84514415 -1.065738 -0.4085763 -0.24156922 -1.094824
00000000: cc2e f03e 3c0a 043f 1e2a 91bd 28e6 4fbf
00000010: b6e9 a3bf eb1a a2bf a95b 53bf 9064 53bf
00000020: f4c6 81bf ca3e 073e 23ef 00c0 225f 4f3f
00000030: 3774 a1bf a521 e93d 7ef6 ac3e 7550 1dbf
00000040: a8b9 5c3f bd47 173f ff47 3a3d f4e1 78bd
00000050: 2725 483f 5486 82bf 945d ae3e ce42 823e
00000060: c5d3 31c0 57d6 c33f 39a2 2bc0 36c4 a2bf
00000070: b913 98be ca04 57be 4b35 913f 476d 57bf
00000080: b275 1cbe 8afb 53bf bc86 44bf b669 ec3e
00000090: 2264 edbe b339 b4bf dff5 24be 589c 3abf
000000a0: 0d51 e2be 003b 4fbe b7a1 2f3f 7238 17bf
000000b0: 50f4 03c0 7113 0bbe 8a4d a6be 8eb6 21bf
000000c0: c122 2abf b715 44be eb7b c53f 4fdb 843e
000000d0: 0e33 75bf f540 4f3e 2618 1cbf 760b 0a3f
000000e0: ec52 abbf 0947 c3bf cd79 e5bf 07d8 f73f
000000f0: 4d1d 3abe 350e d9be a239 b13e 53ce 3c3f
00000100: cb06 89be c3e2 05c0 65a4 90bd 4fc3 783f
00000110: 5ecf 1e40 2a11 0cbf fceb 08bf fbed babf
00000120: fae9 f0be a067 ad3e df6e cfbd a782 7dbf
00000130: 1873 9b3f 67b5 86bf 5b07 8dbf b487 4dbf
00000140: d997 b23f 8893 8ebf cba2 a1bf 97ba 8ebe
00000150: 92a1 b13e d4ca e43f 80e5 69be 8fbd d3bf
00000160: b226 bf3e 9ebf 59bf df9a 0b3f 1fee daba
00000170: fe21 c1be 2043 a4bf 9161 7c3e f3b7 833f
00000180: cd5e 103e 6ebe 9f3d d1e8 3f3f b5b2 6b3f
00000190: e7fa 01be 570a 6f3f 4650 d0bf 7cd2 bfbe
000001a0: 1d71 233f 8969 003f 0467 b43e 87c7 b93e
000001b0: 7f10 603f e663 6bbf 822c 69bf 63e6 803e
000001c0: 8ac6 05bf 296e acbe 05c0 de3e a9e0 f9be
000001d0: db30 7a3f 97d5 203e 983f b3bf 7952 55bf
000001e0: 2a06 e6be 9471 0cbf c57e dcbe b015 7b3e
000001f0: 686b 38bf ea1f 42bf 6e30 fbbd b6f7 193f
00000200: 4e7a 28be 8c31 14bf 9146 acbd 0c07 93bf
00000210: cdd8 29bf b8eb a43f 26dc 95bf 499e b73e
00000220: b6c3 11be bcca 923e b606 b5bf 0e1e 163d
00000230: 31ce 473f 2314 53bd 40d2 0c3e 69a8 443d
00000240: bc97 0e3f 7f51 70bf 7edf 473e 208e c7bf
00000250: 8cbd 323f acfc a5bf 9101 513f 1e83 203e
00000260: 778a 9c3f c665 efbf 7c62 0d3f 4295 813e
00000270: 3a61 d0bf 6506 55bf 6ac6 583f 079f 62be
00000280: 30d8 74be 62ee 013e 2b3b b5be 143f 85bf
00000290: 6842 513e 3341 bebf 55ab 773c a3e8 66be
000002a0: fcfb 62bf 1f27 1a40 aee3 bf3f 4d12 c7be
000002b0: 62df 1c3f 9dac b63d 9e47 c53f 3657 b1be
000002c0: 51ee c6be 670e 66bf 23a4 7f3f 3481 24c0
000002d0: c96f 32bf 98bf 793f 58a6 313e ebc9 48bf
000002e0: b7c8 74bf ab77 c23d a99c 3fbc 71ed 11be
000002f0: 63b0 94bf 9549 01c0 433f e63f 2792 843f
00000300: 679e f6bc abf0 c7bf e199 bfbe c23e c4bf
00000310: cd9d 9f3f 35c3 35bf f67f 7f3f c26b babf
00000320: 3a2d 813d 854a 353f 8d65 84be 40aa 383f
00000330: b589 cfbf 3f00 2b3f 5523 0e3f f7af 1b3d
00000340: d36c bbbf 4768 81bf 2b17 4abe 12e2 d9bf
00000350: 4925 d3bf 0e95 fabc b97d e7be f0a5 f93d
00000360: d882 35bf 2cb7 803c d416 b7bf 78bd d9bd
00000370: 5ca1 53bf 9b13 9fbf b93e 55bf fd60 853f
00000380: f5b3 713e 573d 15bf f23d a0be 2f87 1940
00000390: 056b 87bf 174a 5cbf 0eac bb3e f65e 98bf
000003a0: 75b1 1e3f 6e1b 46be bac2 043f 6b24 9fbf
000003b0: f161 d8bf fd4f c13e 37ed 743f c341 eb3e
000003c0: 9e3b 9f3d 4978 683f 6f23 8bbc b6af d1bf
000003d0: 0b2c 0cbf 5dfe df3f ec80 1cbe 5c4f 07bf
000003e0: 06d2 f4bf 6cee 5b3e 4e51 d33f 5e5b 58bf
000003f0: 1a6a 88bf ea30 d1be ec5d 77be 3123 8cbf

bias f4 [2]
1.0973667 -1.1787055
00000000: 8376 8c3f d2df 96bf
