chapter2/test_train/model_1.pth (torch_old, 391077 bytes, 17 tensors)

weight f4 [32, 3, 3, 3]
0	0x3f683f68	0.9072175
1	0x3decb78a	0.11558445
2	0xbeb4db4d	-0.35323563
3	0x3f8d8fd7	1.1059521
4	0xbe42b3b8	-0.1901387
5	0x3f39537b	0.72393006
6	0x39e6be9d	0.00044011037
7	0x3fc84fcf	1.5649356
8	0xbf6ea818	-0.9322524
9	0xbe08a26d	-0.1334321
10	0xbd37fdcc	-0.044919774
11	0x3e4c36c9	0.19942774
12	0xbebde9d4	-0.3709246
13	0xbf51b02e	-0.81909454
14	0xbd6e8fd4	-0.058242634
15	0x3f771343	0.96513766
16	0xbf5a6021	-0.8530293
17	0xbef1bf63	-0.4721633
18	0xbeedccd1	-0.46445325
19	0xbf20167f	-0.62534326
20	0xc004d148	-2.0752735
21	0xbf5c7454	-0.86115
22	0xc038d312	-2.8878827
23	0x3ef46ab9	0.47737673
24	0xbebf0cf7	-0.3731458
25	0xc0104f01	-2.254822
26	0xbe40c534	-0.18825227
27	0xbee98709	-0.45610836
28	0x3f4cc167	0.7998261
29	0x3f579b99	0.842218
30	0xc006ec51	-2.1081736
31	0xbf24e669	-0.6441408
32	0x3e16d27b	0.1472873
33	0x3fe6fab9	1.8045264
34	0xbfbe8647	-1.4884728
35	0x3f0e3981	0.55556494
36	0x3e942f37	0.28942272
37	0xbdca24ab	-0.09870275
38	0x3f099337	0.5374026
39	0xbf927820	-1.1442909
40	0xbfd98506	-1.699372
41	0xbf904cdf	-1.1273459
42	0x3c5a1c61	0.01331243
43	0xbfce4d4a	-1.6117337
44	0xbf5b4a22	-0.8565999
45	0xbf5260fd	-0.8217924
46	0xbe331c71	-0.17491318
47	0x3f882943	1.0637592
48	0xbd97353f	-0.07383203
49	0xbd7213ce	-0.05910092
50	0x3d2e509a	0.042557336
51	0x3d9e959d	0.0774338
52	0xbdab2b86	-0.08357911
53	0xc0043b8f	-2.0661352
54	0xbf4e4764	-0.80577683
55	0x3e5e25a9	0.21694054
56	0x3f800892	1.0002615
57	0x3fc27479	1.5191795
58	0x3f85e549	1.0460597
59	0x3feb7aa7	1.8396806
60	0x3e4564ae	0.19276688
61	0x3ec99f98	0.39379573
62	0xbe8f7fb6	-0.28027123
63	0xbfa5055b	-1.2892259
64	0x3f320172	0.69533455
65	0xbfb4978f	-1.4108752
66	0x3ea9725d	0.33095065
67	0x3f880196	1.0625484
68	0xbe19e630	-0.15029216
69	0x3dc84416	0.09778611
70	0x3f516521	0.81794935
71	0xbef57709	-0.4794238
72	0xbe3a3b5e	-0.1818671
73	0xbfa436dc	-1.2829242
74	0x3fc69c2d	1.5516411
75	0xbf40b054	-0.75269055
76	0xbefb69ab	-0.49104056
77	0x3f5ca6d4	0.8619206
78	0xbe6bf9ab	-0.2304446
79	0xbf2b10bb	-0.66822404
80	0x3f629f03	0.8852388
81	0xbf46d793	-0.7767269
82	0x3ef4eab9	0.4783533
83	0x3ee2d94e	0.44306415
84	0x3f747200	0.9548645
85	0x3f8f45c0	1.1193161
86	0xbfc95262	-1.5728266
87	0x3f97e1eb	1.186582
88	0x3dae9d1d	0.08526061
89	0x3f8d96ca	1.1061642
90	0xbdd4aa38	-0.10384029
91	0x3fd4f7ab	1.6638082
92	0x3f2c2ef2	0.6725913
93	0x3f8f8f21	1.1215554
94	0x3f20f652	0.62875855
95	0x4019fb78	2.4059734
96	0x3f506169	0.81398636
97	0x3fbd6e9a	1.4799378
98	0x3f72d105	0.9485019
99	0xbea3fea3	-0.3203021
100	0x3f16391e	0.58680904
101	0xbe6f2371	-0.23353364
102	0xbe7a13a2	-0.24421552
103	0xbfc6fc6e	-1.5545785
104	0x3fc1257d	1.5089566
105	0xbe48396d	-0.19553156
106	0x3fdf7684	1.7458043
107	0xbf716586	-0.9429554
108	0xbe61c81e	-0.22048995
109	0xbf929a16	-1.1453273
110	0x3ee0b37a	0.4388693
111	0x3de58f45	0.11208967
112	0x3f543676	0.828956
113	0xbf974ef3	-1.1820968
114	0xbf9bae0c	-1.216249
115	0xbfd8c1fe	-1.6934202
116	0x3fd398e2	1.6531031
117	0x3db4d727	0.088300996
118	0x3f4a3093	0.7898037
119	0xc00c4179	-2.1914961
120	0xbec11264	-0.37709343
121	0x4002e58e	2.045261
122	0x3fdec762	1.7404597
123	0xbe10a1a2	-0.14124158
124	0xbef5d32f	-0.48012683
125	0x3eff5839	0.49871996
126	0xbf076e5c	-0.5290277
127	0xbec408c8	-0.3828795
128	0x3ffe680f	1.9875506
129	0xbf26eebe	-0.6520804
130	0x3fc11a46	1.5086143
131	0x406f3763	3.7377555
132	0x3f326669	0.69687515
133	0x3f529e75	0.82273036
134	0x3f0f2255	0.5591176
135	0xbff0d8cb	-1.881616
136	0x3f92874e	1.1447542
137	0xbf3c485e	-0.73547924
138	0xbf994db8	-1.1976843
139	0xbe73dcbc	-0.23814672
140	0xbfaa1e3e	-1.3290479
141	0x3ea88b8a	0.3291896
142	0x3f9e6b8a	1.2376568
143	0xbe89eb87	-0.26937506
144	0xbf0c3e99	-0.54783016
145	0xbd82d94e	-0.06389104
146	0x3f1820a9	0.59424835
147	0x3e4ab49e	0.19795462
148	0xbfd7bb4a	-1.6854031
149	0x3fa9b3a8	1.3257952
150	0xbfb1a89c	-1.387958
151	0xbeac9eef	-0.33715007
152	0xbf466e31	-0.7751189
153	0xc04eefac	-3.2333784
154	0x3e05f77e	0.13082692
155	0xbec1f160	-0.37879467
156	0xbf451870	-0.76990414
157	0xbfbbfc99	-1.4686462
158	0xbe7e4fa0	-0.24835062
159	0x3fa129fe	1.259094
160	0xbfc1df9f	-1.5146369
161	0x3edf46c5	0.4360868
162	0xbf945763	-1.1589168
163	0xbf1c1a9e	-0.60978115
164	0x3e27a620	0.16371965
165	0x3f591d48	0.84810305
166	0x3ec85f12	0.39135033
167	0x3eec2b80	0.46126938
168	0xbff091ce	-1.8794496
169	0xbf81fe65	-1.015576
170	0x3f314ccb	0.692578
171	0xbe038a25	-0.12845667
172	0x3eb01a9c	0.343953
173	0xbfa20e4a	-1.2660611
174	0x3fc4eba4	1.5384412
175	0xbfa72e40	-1.3060989
176	0xbf50032e	-0.8125485
177	0xbf30f627	-0.691256
178	0x3de155fe	0.1100273
179	0x3fcfa80a	1.6223156
180	0xc01b1a51	-2.4234812
181	0x3e983104	0.29724896
182	0xbf9e5fae	-1.2372949
183	0xbf684835	-0.9073518
184	0xbeea4c9d	-0.45761576
185	0xbffcfa29	-1.9763843
186	0x3e259992	0.16171864
187	0xbf6d701e	-0.927492
188	0xbfc0666b	-1.5031255
189	0xc00b0eb4	-2.1727724
190	0xbebf00c1	-0.37305263
191	0x3ffd8402	1.980591
192	0x3f4a785f	0.7908992
193	0x3ef225b5	0.47294393
194	0xbedf4bd0	-0.43612528
195	0x3ec5a840	0.38604927
196	0xbef12d7e	-0.4710502
197	0x3f27f751	0.6561175
198	0x3fb23308	1.3921824
199	0xbfad103c	-1.3520579
200	0xbf643182	-0.8913804
201	0xc0235695	-2.5521595
202	0x3fb4b89b	1.4118837
203	0xbf1300b7	-0.57422966
204	0xbfa55221	-1.2915689
205	0x3e6ab12a	0.22919145
206	0x3e86e08e	0.26343197
207	0xbf55d2f3	-0.8352501
208	0x3fb9fcb8	1.4530249
209	0xc00ec295	-2.2306263
210	0xbe4d143f	-0.20027255
211	0x3ed040e6	0.40674514
212	0xc01df6df	-2.4681928
213	0xbf100793	-0.5626156
214	0xbee42888	-0.44562173
215	0xbf6b991a	-0.9203049
216	0xbe9f2322	-0.31081492
217	0xbed7a1f3	-0.42115745
218	0xbf64176c	-0.8909824
219	0x3dc05a1e	0.093921885
220	0x3f78387c	0.9696119
221	0x3f51b095	0.8191007
222	0x3c7dcf45	0.015491311
223	0xbf461573	-0.7737648
224	0x3e854315	0.26027742
225	0x3e01a1a4	0.12659317
226	0x3f744a64	0.9542601
227	0xbef3281b	-0.47491536
228	0xbfa966a2	-1.3234446
229	0x3eeffcea	0.46872646
230	0xbf9adaff	-1.2098082
231	0xbe472bcd	-0.19450302
232	0x3e34c0c1	0.17651655
233	0xbff8993b	-1.9421762
234	0xbf8d8d87	-1.1058816
235	0x3e6e37f6	0.23263535
236	0xbea001d0	-0.31251383
237	0x3f1a76b2	0.60337365
238	0xc032b994	-2.7925768
239	0xbf773bf5	-0.9657586
240	0xbf468546	-0.7754711
241	0xbfa84c86	-1.3148353
242	0xbfc12276	-1.5088642
243	0x3fed93ec	1.8560767
244	0x3f0fb269	0.5613161
245	0xbf376c15	-0.71649295
246	0x3f7388ec	0.951308
247	0x3ff7f301	1.9371034
248	0x3de6c0e2	0.11267258
249	0xbfb679bf	-1.4255904
250	0xbf9e6685	-1.2375036
251	0x40050475	2.078397
252	0xbe6b453f	-0.22975634
253	0xbf182089	-0.59424645
254	0x3f1fe9dc	0.62466216
255	0x3f88ff5c	1.070293

gamma f4 [32]
0	0x3fb1cdd1	1.3890935
1	0x3f194c28	0.5988183
2	0x3ec57cdb	0.3857182
3	0x3f9f2106	1.2431953
4	0x3e801625	0.25016895
5	0x3ff9898a	1.9495099
6	0x3ffee546	1.9913719
7	0x3f82cf94	1.0219598
8	0x3fb6b2a8	1.4273272
9	0x3fafc7ad	1.3732811
10	0x3f3a636a	0.72807944
11	0x3f9f0ff4	1.2426744
12	0x3f4320b8	0.762218
13	0x3f8d7932	1.1052611
14	0x3f6610de	0.8986949
15	0x3fa4ef8a	1.2885602
16	0x3fabc788	1.3420267
17	0x3f9ab5a8	1.2086687
18	0x3f1dd730	0.61656475
19	0x3f2149df	0.63003343
20	0x3f38f4ef	0.7224874
21	0x3fa9b3ed	1.3258034
22	0x3f4dcbb2	0.8038894
23	0x3f812212	1.0088522
24	0x3fbc201a	1.4697297
25	0x3fcb9b4a	1.5906765
26	0x3f97d0e0	1.1860619
27	0x3fdcfaec	1.7264075
28	0x3f4b0846	0.793095
29	0x3f9bda94	1.217608
30	0x3e75de78	0.24010646
31	0x3f873fdc	1.0566363

beta f4 [32]
0	0x3eed1e85	0.46312347
1	0xbec0b494	-0.3763777
2	0xbe65aaad	-0.22428389
3	0x3ed23877	0.41058704
4	0x3f12231e	0.57084835
5	0x3e1da4a3	0.15394835
6	0x3e3dd3ec	0.18537873
7	0x3e9c0c02	0.3047791
8	0xbe509dba	-0.20372668
9	0x3f59ad36	0.85029924
10	0x3becd7f7	0.0072278935
11	0xbdcb0530	-0.09913099
12	0xbe078e45	-0.13237865
13	0x3ee6e862	0.4509917
14	0xbecabaf8	-0.3959577
15	0x3e5157fc	0.2044372
16	0x3f0c1386	0.5471729
17	0xbed4e3cd	-0.41580048
18	0xbebeb7c1	-0.37249568
19	0xbdfe3e71	-0.124142535
20	0x3f658a71	0.8966437
21	0x3f0196ef	0.5062093
22	0x3f26ceec	0.6515949
23	0x3f1806aa	0.5938517
24	0x3da60296	0.08105962
25	0xbe25331a	-0.16132775
26	0x3db26d0a	0.08712204
27	0x3e33a93c	0.17545027
28	0x3e9492fc	0.2901839
29	0xbe84b7a4	-0.25921357
30	0xbf3c0fd5	-0.7346166
31	0x3da29630	0.07938802

running_mean f4 [1, 32, 1, 1]
0	0xc0568a34	-3.3521852
1	0xc0553448	-3.331316
2	0x3fd52f10	1.6654987
3	0x40a18aa7	5.0481753
4	0x40457770	3.085415
5	0xc0908e21	-4.5173497
6	0xc095b93f	-4.678863
7	0xc0577ff6	-3.367185
8	0xc0959ac6	-4.6751432
9	0x40ce9324	6.4554615
10	0x408dc198	4.429882
11	0xc0987861	-4.7646947
12	0xc016d8a5	-2.356973
13	0x40b7a419	5.7387815
14	0xc07a42fc	-3.9103384
15	0x40978a64	4.7356434
16	0x40c87876	6.2647047
17	0xc09e0578	-4.9381676
18	0xc0627876	-3.5386024
19	0x4037fe4e	2.8748965
20	0xc0102920	-2.25251
21	0x40bc3e43	5.8826003
22	0x4054a016	3.3222709
23	0x40b2b7d2	5.584939
24	0xc044ee41	-3.0770419
25	0xc08f0083	-4.4688125
26	0x404890e6	3.133844
27	0x40933cc7	4.601169
28	0x4098f026	4.779315
29	0xc0719bb2	-3.775128
30	0xc006b1ac	-2.1045942
31	0xc0ac8c07	-5.392093

running_var f4 [1, 32, 1, 1]
0	0x40367974	2.851163
1	0x4031e544	2.7796183
2	0x3f4dbde6	0.8036789
3	0x40c86018	6.26173
4	0x40285d15	2.6306813
5	0x40a232d9	5.068707
6	0x40ac9727	5.393451
7	0x40379b57	2.8688562
8	0x40ad9f47	5.425693
9	0x41239a3d	10.225156
10	0x409b3e43	4.8513503
11	0x40b738ce	5.725684
12	0x3fb814b3	1.4381317
13	0x40ff7aca	7.983739
14	0x40752377	3.8302896
15	0x40ae95e1	5.455796
16	0x41220281	10.125611
17	0x40c1a7a8	6.051716
18	0x404e0167	3.2188356
19	0x4008ea1f	2.1392896
20	0x3fad8ab9	1.355796
21	0x41081d3e	8.507139
22	0x40362ae1	2.8463671
23	0x40fa5d9a	7.823926
24	0x4018eb9b	2.3893802
25	0x409d3efb	4.913938
26	0x4020f7b6	2.515119
27	0x40ad307d	5.412169
28	0x40b5dd48	5.683262
29	0x407110f8	3.7666607
30	0x3f9cb4e0	1.2242699
31	0x40e33394	7.100046

weight f4 [64, 32, 3, 3]
0	0x3cf68c1a	0.030096103
1	0x3f449e35	0.76803905
2	0xbf0f8073	-0.5605537
3	0xbf1c0348	-0.60942507
4	0x3f1e153b	0.61751145
5	0x3f916aa1	1.1360666
6	0x3fc709f6	1.5549915
7	0xbda26274	-0.07928935
8	0x3fe47fe1	1.7851526
9	0x3d9faaee	0.07796274
10	0x3fbda19c	1.4814944
11	0x3eaffa33	0.34370574
12	0xbf1b7606	-0.60726964
13	0x3e8baeb2	0.2728172
14	0xbee7763a	-0.45207387
15	0xbe227a1e	-0.15866897
16	0x3f1a3767	0.6024079
17	0x3f8433d3	1.0328315
18	0x3f62c4be	0.88581455
19	0xbf086e5a	-0.53293383
20	0xbdb12659	-0.08649892
21	0xbe8a57d2	-0.27020127
22	0xbf616316	-0.8804182
23	0x3f02a9a5	0.51040107
24	0x3f864ffa	1.0493157
25	0x3c8fe63c	0.017565839
26	0xbf334a9b	-0.70035714
27	0x3fa2c6c9	1.2716914
28	0x3fd339c5	1.6502005
29	0xbf7b1c97	-0.980905
30	0x3f03d652	0.514989
31	0xc02d0bc5	-2.7038434
32	0x3f102de0	0.5632
33	0xbf501ad4	-0.81290936
34	0xbdcb0224	-0.09912518
35	0xbf9f1df2	-1.2431014
36	0x3f29b59f	0.66292757
37	0xbfc7b9a6	-1.560353
38	0xbdf485d5	-0.11939589
39	0xbeeb3cb0	-0.45944738
40	0x3fb8f9b3	1.4451202
41	0x3f7e8fe3	0.99438304
42	0xbfd7d208	-1.6860971
43	0x3f59b2ea	0.85038626
44	0x3fd85369	1.6900455
45	0x3fbbf1d4	1.4683175
46	0x3f499171	0.7873755
47	0x3fa69b7d	1.3016201
48	0xbec8a3f3	-0.39187583
49	0x3f90d2b4	1.1314301
50	0x3efe8c3a	0.4971636
51	0x3fc19ef4	1.5126634
52	0x3fc44a04	1.5335088
53	0xbea840b3	-0.32861862
54	0xbf2ee254	-0.683141
55	0xbeaf7e48	-0.34276032
56	0x3f88c5d6	1.0685375
57	0x3eb8d3b6	0.36099023
58	0x3ff2f11e	1.8979833
59	0x3f7db227	0.99099964
60	0x3fb97374	1.4488358
61	0x40270546	2.6096969
62	0xba15144a	-0.0005686922
63	0xbed77c3b	-0.42086968
64	0x3ed2fdca	0.4120925
65	0x3d04bdbd	0.03240751
66	0xbf20cb98	-0.6281066
67	0x3f7f28ea	0.99671805
68	0xbe1256e8	-0.14290965
69	0x3fb07541	1.3785783
70	0xbefdc823	-0.49566755
71	0x4004194c	2.064044
72	0x3ebd5389	0.36977795
73	0xbeac2916	-0.33625096
74	0x3f16247d	0.58649427
75	0xbe2db3f5	-0.1696318
76	0x4009b544	2.1516886
77	0x3eab822a	0.33497745
78	0x3fe588b0	1.7932339
79	0x3f7f1425	0.99640113
80	0x400ed568	2.2317753
81	0x3f47264a	0.777928
82	0xbfc6e710	-1.5539265
83	0x3e2b4906	0.16727075
84	0x3f9c2c65	1.2201048
85	0x3fe36f21	1.7768289
86	0xbf48bc48	-0.78412294
87	0xbfbf0ae3	-1.4925197
88	0x3e99a04b	0.30005106
89	0xbe929133	-0.28626403
90	0x3f13dd6c	0.5775974
91	0xbcf4a6af	-0.029864637
92	0x3f6acff8	0.91723585
93	0xbf069984	-0.52577996
94	0x3f2bb594	0.6707394
95	0x3f81d413	1.0142845
96	0x3fb41b06	1.4070747
97	0xbeccf31f	-0.40029237
98	0x3e618983	0.22025113
99	0x3fb7e16e	1.4365671
100	0x3fd2a1d2	1.6455634
101	0x3edbbaa7	0.42915842
102	0x3f01dee1	0.5073071
103	0x3fdcd439	1.7252265
104	0x400cd079	2.2002242
105	0xbec64652	-0.38725525
106	0x400b9aac	2.1813154
107	0x3fe2aa2c	1.7708182
108	0xbf4d65e2	-0.80233586
109	0x3f81580f	1.0104998
110	0x3ebc6868	0.36798406
111	0x3c91fa98	0.017819688
112	0xbed082c1	-0.40724757
113	0x3f8dc8f4	1.1076951
114	0x3f845cdc	1.0340838
115	0x3fa87b98	1.3162718
116	0x3fbac481	1.4591218
117	0x3eaac148	0.33350587
118	0xbef496b5	-0.4777123
119	0xbeb89085	-0.3604776
120	0x3f0fb7dd	0.5613993
121	0xbd432142	-0.04763914
122	0xbe4e787b	-0.20163147
123	0x3ed1cfbb	0.40978798
124	0xbe0a522f	-0.13507913
125	0x3eae3167	0.34022066
126	0xbe7e7150	-0.24847913
127	0x3eb5546e	0.35415977
128	0x3eb716c5	0.3575956
129	0xbf2e03bc	-0.6797445
130	0x3d7d2601	0.06180382
131	0x3e3e60e1	0.18591644
132	0xbeb8d953	-0.36103305
133	0xbf907b42	-1.1287615
134	0xbf4a1978	-0.7894511
135	0xbf8363eb	-1.0264868
136	0xbff59f6f	-1.918928
137	0xbf1de0fe	-0.61671436
138	0xbfbb7ef7	-1.4648122
139	0x3d1218c2	0.035668142
140	0x3ea04733	0.3130432
141	0x402a49fa	2.6607652
142	0xbdb72bc6	-0.08943896
143	0xbf9a6253	-1.2061256
144	0xbdf1a72d	-0.117994644
145	0xbead982d	-0.33905163
146	0x3e901a3e	0.2814502
147	0xbdf8b597	-0.121440105
148	0x401d07f2	2.45361
149	0xbcb2cc62	-0.021825973
150	0xbdf578e2	-0.11985947
151	0xbeeb1119	-0.45911482
152	0x3facafeb	1.3491186
153	0x3fdc248c	1.7198653
154	0x3ef1a942	0.47199446
155	0x3fc31064	1.5239377
156	0xbef744e9	-0.48294762
157	0xbed1cdf6	-0.40977448
158	0x3f2f4c8b	0.6847617
159	0xbf8cfd0a	-1.1014721
160	0x3f1113ec	0.56671023
161	0x3fb39d57	1.4032391
162	0x3fa42d95	1.282641
163	0xbe8b5940	-0.2721653
164	0x3eea3047	0.45739958
165	0xbffc1a81	-1.9695588
166	0x3f9d72e0	1.2300682
167	0x3f2a1ac0	0.6644707
168	0xbe12d46f	-0.1433885
169	0xbef67822	-0.4813853
170	0xbee62186	-0.4494745
171	0xbf202e29	-0.62570435
172	0x3f5ea72e	0.86973846
173	0x3e95aaf4	0.2923199
174	0x4011e6bb	2.2797077
175	0xbec8c4c6	-0.39212626
176	0x3f231779	0.6370769
177	0xbdd4da50	-0.10393202
178	0x3f1fbec0	0.62400436
179	0x3f8d53be	1.1041181
180	0x3ec3d2c0	0.38246727
181	0x3f3c892f	0.73646826
182	0xbf4176fe	-0.7557219
183	0x3f50b70b	0.815293
184	0x3e0f2c32	0.13981703
185	0xbf3d7c5e	-0.74017894
186	0xc02d5eb6	-2.7089057
187	0xbf78622c	-0.970248
188	0xbfa53b3a	-1.29087
189	0xbfab5040	-1.3383865
190	0xbcd9c9ff	-0.026585577
191	0x3efe0ced	0.49619237
192	0xbeab4a06	-0.33454913
193	0xbf7e3ac7	-0.9930844
194	0xbf750b68	-0.9572053
195	0xbec63e62	-0.3871947
196	0xbf207f46	-0.62694204
197	0x3f63a8d8	0.8892951
198	0xbebe6722	-0.3718806
199	0xbeb1ab8a	-0.34701186
200	0x40122067	2.2832277
201	0x3ff23e3b	1.8925241
202	0x3fd138ec	1.6345496
203	0x3db44e3b	0.08803984
204	0x3ef27716	0.4735648
205	0x40352a9a	2.8307252
206	0x4001e7a3	2.029763
207	0x3f1a44d3	0.6026127
208	0x3fd1c507	1.6388253
209	0x3fae92bf	1.3638533
210	0x3e2af7df	0.16696118
211	0x3f31e9cf	0.6949739
212	0x3f2c6d36	0.6735414
213	0xbf6f1d74	-0.93404317
214	0x3e16f1d8	0.14740694
215	0xbe0f3a2b	-0.13987033
216	0x3fdb4d95	1.7133051
217	0xc007516f	-2.1143453
218	0x3f09cf19	0.5383163
219	0xbd3661fc	-0.04452704
220	0xbeec5ba1	-0.46163657
221	0x3fc040e3	1.5019802
222	0x4004931c	2.0714788
223	0xbf35087a	-0.7071606
224	0x3de74ac6	0.11293559
225	0xbeea7238	-0.45790267
226	0x3e8bcde6	0.27305526
227	0xbecbff0a	-0.39843017
228	0xbebccf48	-0.36876893
229	0x3ebf9325	0.3741695
230	0x3fae92fb	1.3638605
231	0x3da1dc8c	0.07903394
232	0xbe456c36	-0.1927956
233	0x3fb520a8	1.4150591
234	0xbeb06f52	-0.3445993
235	0x3ea7d6ee	0.32781166
236	0x3fe73582	1.8063204
237	0xc0064a61	-2.0982897
238	0xbeb3eefd	-0.3514327
239	0x3f1c1bb1	0.60979754
240	0xbf96b8f8	-1.1775198
241	0x3f869a0d	1.0515763
242	0x3c22594d	0.009908986
243	0xbf078428	-0.5293603
244	0xbfd82e7d	-1.6889187
245	0xbe3d5746	-0.18490323
246	0x40419e15	3.0252736
247	0xbe9708df	-0.29498956
248	0x3f2c857d	0.67391187
249	0xbdee4afd	-0.11635397
250	0xbf8520c9	-1.040063
251	0xbefc934c	-0.4933113
252	0x3fd2b415	1.6461207
253	0x3fec926a	1.8482182
254	0xbc3024c3	-0.010750952
255	0x3ede0e20	0.43370152

gamma f4 [64]
0	0x3faf2797	1.3683957
1	0x3fa6e122	1.3037455
2	0x3f68aabb	0.90885514
3	0x3f871830	1.0554256
4	0x3fc59ede	1.5439107
5	0x3e96ea4d	0.29475632
6	0x3f7d0865	0.98840934
7	0x3f2b9987	0.6703114
8	0x3f01e68a	0.507424
9	0x3fb8de47	1.4442834
10	0x3f4a1ceb	0.78950375
11	0x3f22b43a	0.63556254
12	0x400100c4	2.0156717
13	0x3f4ede60	0.8080807
14	0x3f95edcf	1.1713198
15	0x3f519c35	0.8187898
16	0x3fbe24e6	1.485501
17	0x3f15f952	0.5858356
18	0x3f8bb717	1.091525
19	0x3eb49328	0.3526852
20	0x3fbb217b	1.4619592
21	0x3f5d7973	0.8651344
22	0x3faffe04	1.3749394
23	0x3f099ed4	0.5375798
24	0x3fbbeaf2	1.4681075
25	0x3f52ee51	0.8239489
26	0x3f374506	0.71589696
27	0x3f3d2b62	0.7389432
28	0x3fbc661f	1.4718665
29	0x3f80a6e8	1.0050936
30	0x3f77191e	0.965227
31	0x3f7b3676	0.98129976
32	0x3fab1e6f	1.3368663
33	0x3f209fcf	0.6274385
34	0x3f9ffeb1	1.2499601
35	0x3fe21ef3	1.7665695
36	0x3fc6bdbd	1.5526654
37	0x3fa1c13d	1.2637097
38	0x3f0fcaf5	0.5616906
39	0x3fd33478	1.6500387
40	0x3fbfe746	1.4992454
41	0x3fb05ba8	1.3777971
42	0x3ffcccbc	1.974998
43	0x3f3bdfc6	0.73388326
44	0x3f5cf8df	0.8631725
45	0x3f87c61f	1.0607337
46	0x3f63e14c	0.8901565
47	0x3f9393fa	1.1529534
48	0x3fd4c757	1.6623334
49	0x3fb5bae9	1.4197665
50	0x3f88064a	1.0626919
51	0x3f72a9ce	0.9479035
52	0x3fd4a22e	1.6611993
53	0x3fb479bf	1.4099654
54	0x3fbc46e3	1.4709133
55	0x3fc1f44c	1.5152678
56	0x3f3a9f3e	0.72899234
57	0x3f91e48d	1.1397873
58	0x3f2e1e1a	0.6801468
59	0x3f751cf2	0.9574729
60	0x3f0d80b2	0.552745
61	0x3f53a845	0.82678634
62	0x3fa0ef4b	1.2573026
63	0x3f87b807	1.0603036

beta f4 [64]
0	0xbd752949	-0.059853826
1	0xbc15595b	-0.009115542
2	0x3f3045bc	0.68856406
3	0xbf535165	-0.82546073
4	0x3e768038	0.24072349
5	0xbf32c68f	-0.69834226
6	0xbd62e434	-0.055393413
7	0xbf5131ec	-0.817168
8	0xbf395f12	-0.7241069
9	0xbd1c9099	-0.038223837
10	0xbf93deb0	-1.1552334
11	0x3e3a02e0	0.18165159
12	0x3e6b08a9	0.22952522
13	0xbf612b13	-0.8795635
14	0xbe311e2a	-0.17296663
15	0xbd6189ec	-0.055063173
16	0x3e096e87	0.13421069
17	0xbed39952	-0.41327912
18	0xbecae0bb	-0.3962458
19	0xbee7ff1e	-0.45311826
20	0x3d57908e	0.052628092
21	0xbe9f2d65	-0.3108932
22	0x3e5f14fb	0.21785347
23	0xbf210ce5	-0.629103
24	0x3cb522a7	0.02211125
25	0x3e5e79b2	0.2172611
26	0x3e7bd9db	0.24594824
27	0xbf32a174	-0.6977761
28	0x3f2dd28a	0.6789938
29	0xbe2407cf	-0.16018604
30	0xbe67ec52	-0.22648743
31	0xba763659	-0.00093922537
32	0xbd03c351	-0.03216869
33	0xbeba4127	-0.36377832
34	0x3e6a06b3	0.22854118
35	0x3eccefd1	0.40026715
36	0x3f149af5	0.58048946
37	0xbee43ee9	-0.44579247
38	0x3f15a753	0.5845844
39	0x3f20ccc1	0.6281243
40	0xbd9d8075	-0.07690517
41	0x3e8ebc6e	0.27878135
42	0x3f636482	0.8882524
43	0x3f10a906	0.5650791
44	0xbeeb09bb	-0.4590586
45	0xbefa2f0b	-0.48864016
46	0xbf08089c	-0.53138137
47	0xbe726f3b	-0.23675244
48	0x3dae1910	0.08500874
49	0x3dfe1c71	0.124077685
50	0x3e1e60f8	0.15466678
51	0xbe198432	-0.14991835
52	0x3d242f28	0.040084034
53	0xbee987e9	-0.45611504
54	0x3f1c8230	0.6113615
55	0x3f0858cf	0.5326051
56	0xbf27105f	-0.65259355
57	0x3de8ae0c	0.11361322
58	0xbf31d284	-0.69461846
59	0xbec9d079	-0.39416865
60	0xbf0711b0	-0.52761364
61	0xbf3043d7	-0.68853515
62	0xbbdc65e8	-0.0067260154
63	0x3ef4bf70	0.47802305

running_mean f4 [1, 64, 1, 1]
0	0x426a77ea	58.617104
1	0x40db0a54	6.8450108
2	0xc2273b97	-41.808193
3	0x4135c6d9	11.361047
4	0x40a8f171	5.279473
5	0xc187fc69	-16.998247
6	0x4140cee9	12.050515
7	0xc2243c1c	-41.0587
8	0xc250c664	-52.19374
9	0x41741035	15.253957
10	0xc210850c	-36.12993
11	0xc04f59fc	-3.2398672
12	0x41830f74	16.382545
13	0x4199c4ac	19.221031
14	0x4202e8bc	32.72728
15	0x4121ba5c	10.107998
16	0xc05a4dd0	-3.4109993
17	0xc17303d7	-15.188437
18	0x4230255b	44.03648
19	0xc15d0cd2	-13.81563
20	0x42103cd1	36.05939
21	0x41c86257	25.048018
22	0x415d3257	13.82479
23	0xc2589252	-54.14289
24	0xc15c5edc	-13.773159
25	0xc2864783	-67.13967
26	0xc1a70d21	-20.88141
27	0xc292b670	-73.35632
28	0xc1a0aaf8	-20.08348
29	0x4210e73a	36.225807
30	0xc06d8f96	-3.7118888
31	0xc1495421	-12.583039
32	0x41add70e	21.730007
33	0xc28681f0	-67.253784
34	0x41d50a54	26.630043
35	0x401eb5e7	2.4798524
36	0xc285ff73	-66.998924
37	0x421fc25c	39.939804
38	0xc2813f40	-64.623535
39	0x41956ec4	18.679085
40	0x425a5886	54.58645
41	0x4235471e	45.31945
42	0x40f4173c	7.627836
43	0x41b26a88	22.302017
44	0x40ad25fe	5.4108877
45	0x42074e90	33.82672
46	0x420190c0	32.391357
47	0x41ebd7c5	29.480356
48	0xc0d471de	-6.6389
49	0x42304714	44.069412
50	0xc25a6157	-54.59506
51	0xc1a24abb	-20.28649
52	0x413e6e8c	11.901989
53	0xc2723ec5	-60.5613
54	0xc093402f	-4.601585
55	0x423f1a52	47.775703
56	0xc1c6a6cc	-24.831444
57	0x41cd184c	25.636864
58	0xc1aebe26	-21.842846
59	0x41c87b22	25.060123
60	0xc24d0ec9	-51.26444
61	0xc18e5bb1	-17.794771
62	0x412deac5	10.869817
63	0x412ec454	10.922932

running_var f4 [1, 64, 1, 1]
0	0x44700580	960.08594
1	0x451eb0b4	2539.044
2	0x44e16614	1803.19
3	0x44ef5420	1914.6289
4	0x45a80b72	5377.4307
5	0x46014b46	8274.818
6	0x451ec2bb	2540.1707
7	0x44c2e5b9	1559.1788
8	0x4475829c	982.0408
9	0x4587c2f9	4344.3716
10	0x44acad42	1381.4143
11	0x451fc62e	2556.3862
12	0x45035b17	2101.693
13	0x450a482e	2212.5112
14	0x443c9f03	754.48456
15	0x451e10e7	2529.0564
16	0x4582abda	4181.4814
17	0x45001c7d	2049.7805
18	0x44a25ec5	1298.9615
19	0x45717d27	3863.822
20	0x45010c60	2064.7734
21	0x44919c6f	1164.8885
22	0x44fcfc26	2023.8796
23	0x450e5bf6	2277.7476
24	0x456e26ec	3810.4326
25	0x448c946f	1124.6385
26	0x4582c8cb	4185.099
27	0x45935359	4714.4185
28	0x45b726af	5860.8354
29	0x439d07aa	314.05988
30	0x45cc6663	6540.7983
31	0x44d2ede9	1687.4347
32	0x44ecd31a	1894.5969
33	0x44d7a09c	1725.019
34	0x44dcd3b8	1766.6162
35	0x45f87dd8	7951.7305
36	0x450b77ea	2231.4946
37	0x4403e71b	527.611
38	0x4499be73	1229.9515
39	0x458a7dc6	4431.7217
40	0x450d4bfb	2260.7488
41	0x453f4107	3060.0642
42	0x4584b45f	4246.5464
43	0x45cc9a9b	6547.3257
44	0x44a540df	1322.0272
45	0x43aeba29	349.45438
46	0x44bf5f16	1530.9714
47	0x44baa843	1493.2582
48	0x4574d632	3917.3872
49	0x44e93032	1865.5061
50	0x45269771	2665.465
51	0x4575f4bb	3935.2957
52	0x458b2bd6	4453.4795
53	0x45edf181	7614.188
54	0x450217af	2081.4802
55	0x453c1170	3009.0898
56	0x44c01546	1536.6648
57	0x452b5a18	2741.6309
58	0x4511a438	2330.2637
59	0x45b71c22	5859.5166
60	0x4484ba00	1061.8125
61	0x44886f0d	1091.4703
62	0x4496c946	1206.2898
63	0x4554534a	3397.2056

weight f4 [128, 64, 3, 3]
0	0x3f55458f	0.83309263
1	0x3fe8275e	1.8137014
2	0xbec15d02	-0.37766272
3	0xbef4e3ab	-0.47829947
4	0xbddca112	-0.10772909
5	0xbfc0b62a	-1.5055592
6	0x3ea21f4e	0.3166451
7	0xbf384383	-0.71978015
8	0xbf801d41	-1.0008928
9	0xbf574226	-0.8408531
10	0xbcd07445	-0.025446067
11	0x3e94a133	0.29029235
12	0xbf7a3b0d	-0.97746354
13	0x3dfd35d2	0.12363781
14	0x3ebe4200	0.3715973
15	0x4003e0b7	2.0605905
16	0xbfd033d2	-1.6265814
17	0xc0070008	-2.109377
18	0xbe31c568	-0.17360461
19	0xbefac00e	-0.4897465
20	0xbf2cbdbf	-0.6747703
21	0xbeb7282b	-0.35772833
22	0x3eb5f71f	0.355401
23	0xbe5bdfca	-0.21472088
24	0xbf9cb168	-1.224164
25	0x3f4810a7	0.7815041
26	0xbf358716	-0.7090925
27	0x3f31d16b	0.6946017
28	0x3fe8d585	1.8190161
29	0xbf6fbc64	-0.93646836
30	0xbf29372d	-0.66099817
31	0xbf586c3d	-0.8454016
32	0xbf21ffd8	-0.6328101
33	0x400c0ca1	2.1882708
34	0xbf896e98	-1.0736876
35	0x3f91083c	1.1330638
36	0x3f35b4d7	0.70979065
37	0xbf356993	-0.7086422
38	0x3fa62c77	1.298232
39	0xbb4cca3d	-0.0031248473
40	0x3e84d3a0	0.25942707
41	0x3ee0559e	0.4381532
42	0x3de831a4	0.11337593
43	0x3ebbfbde	0.36715597
44	0x403fd961	2.9976428
45	0x3f5a019d	0.8515871
46	0xbe541ef6	-0.20714936
47	0xbd8fa7a9	-0.070144005
48	0x3f7a645c	0.97809386
49	0xbf16141c	-0.58624434
50	0xbf9e0a2e	-1.2346857
51	0x3e164ac3	0.14676957
52	0xbf9f23de	-1.2432821
53	0x3fc6c8c0	1.5530014
54	0xbe139fc9	-0.14416422
55	0xbfd19922	-1.6374857
56	0xc015d32f	-2.3410146
57	0xbf6a9b24	-0.91642976
58	0x3e87b02a	0.2650159
59	0x3f33f974	0.7030251
60	0x3f9b91ab	1.2153829
61	0xbf388804	-0.72082543
62	0xbf7b8ec8	-0.9826474
63	0xbf5f35b0	-0.87191296
64	0xbfb813af	-1.4381007
65	0x3f7917a9	0.9730173
66	0xbee72182	-0.45142752
67	0xbeb16fa5	-0.3465549
68	0xbfb57fb2	-1.4179595
69	0xbf63ebd2	-0.8903171
70	0xbf99e21e	-1.202213
71	0xbf9e7692	-1.2379935
72	0xbf368231	-0.71292406
73	0xbdfea5e5	-0.124339856
74	0xbf9976c7	-1.1989373
75	0x3f4c2920	0.7975025
76	0xbf1496f4	-0.58042836
77	0xbf5f5ba0	-0.87249184
78	0xbe44eead	-0.19231673
79	0x3f872a45	1.0559775
80	0xbf2ae0cd	-0.6674927
81	0xbf81e589	-1.0148174
82	0xbea238bf	-0.3168392
83	0x3ff2f7ce	1.8981874
84	0xbf100323	-0.56254786
85	0xbfdd14a0	-1.7271919
86	0xbb948de9	-0.0045335186
87	0x3e08dbec	0.13365144
88	0xbe997455	-0.29971567
89	0xbe7e03c6	-0.24806127
90	0xbf6e117c	-0.9299543
91	0xbf731f95	-0.94970065
92	0x3e94bfae	0.2905249
93	0xbf92d446	-1.1471031
94	0x3e0d4426	0.13795528
95	0x3f28db80	0.6595993
96	0x3eb762fe	0.35817713
97	0xbfed17ab	-1.8522848
98	0x3f840c38	1.0316229
99	0xbf9c62d6	-1.2217662
100	0x3e10ba10	0.14133477
101	0x3e3eb649	0.18624224
102	0xbfb22372	-1.3917067
103	0xbe7aa6e9	-0.24477734
104	0x3f9c20fa	1.2197564
105	0x3fa3bec8	1.2792597
106	0xbdc138de	-0.09434675
107	0x3f554fc8	0.8332486
108	0xbe87dad4	-0.2653414
109	0xbf8b468b	-1.0880903
110	0xbdef3a55	-0.11681048
111	0x3f966664	1.1749997
112	0xbf67301d	-0.9030779
113	0xbf684dbd	-0.9074362
114	0x3e8669e6	0.2625267
115	0x401d0266	2.4532714
116	0x3eae0ff4	0.33996546
117	0xbfc3fb63	-1.5311092
118	0xbe0ab5f4	-0.13545972
119	0x3ff5cbb7	1.9202794
120	0xbcfeeeaf	-0.031119673
121	0x3e870bcc	0.26376188
122	0x3d1f7e86	0.03893902
123	0xbefc7945	-0.4931127
124	0x3f750212	0.95706284
125	0x40163bac	2.347392
126	0x3f4144c9	0.7549558
127	0x3f2af795	0.6678403
128	0x3f1f9437	0.6233553
129	0xbf6b3570	-0.91878414
130	0xbf5f673e	-0.8726691
131	0x3fa53462	1.2906611
132	0x3fc39479	1.5279685
133	0x3e33419e	0.175055
134	0xbf7e68fe	-0.99378955
135	0xbf06e30b	-0.5269019
136	0xbf34a842	-0.7056924
137	0x3ef73c55	0.48288217
138	0xbf65df19	-0.89793545
139	0xbf312a63	-0.692053
140	0x3e032f0a	0.12810913
141	0xbdd12504	-0.10212138
142	0xbeae66a4	-0.34062684
143	0x3f1f4016	0.6220716
144	0x40002d6c	2.0027723
145	0x3f7251b3	0.94655913
146	0xbefd2c4c	-0.49447858
147	0x3fe5fa4b	1.7967008
148	0xbee21df7	-0.44163486
149	0x3f96d1e7	1.1782807
150	0x3f8c907b	1.0981592
151	0x3f04e12a	0.51906073
152	0xbcbc8294	-0.023011483
153	0xbe42e8ef	-0.1903417
154	0xbf93b8dd	-1.1540791
155	0xbfba1492	-1.4537528
156	0xbf48e75e	-0.7847804
157	0x3ef3d652	0.4762445
158	0x3f3f9f56	0.748525
159	0x3f7d3849	0.9891401
160	0xbf6e0d8c	-0.9298942
161	0xbf029ece	-0.51023567
162	0x3e8442db	0.25832257
163	0xbf066cac	-0.5250957
164	0x400fa188	2.244234
165	0xc0027f29	-2.0390112
166	0xbeadf074	-0.33972514
167	0x401dd4af	2.4661062
168	0x3fdc835c	1.7227588
169	0xbd6d5a98	-0.057947725
170	0xbb3865ca	-0.0028136843
171	0x3eae980f	0.34100387
172	0xbefe829e	-0.49709028
173	0xbee5090e	-0.4473347
174	0xbe9c8fb2	-0.3057838
175	0xbf2a2e29	-0.66476685
176	0xbfd0ceb5	-1.6313082
177	0x3fb742d6	1.4317272
178	0x3efd7317	0.4950187
179	0xbd854dd6	-0.06508987
180	0x3f859c20	1.043827
181	0x3fc2162c	1.5163016
182	0xbfbd2be8	-1.4779024
183	0xbf3e1f93	-0.7426693
184	0x400e95fd	2.2279046
185	0xbfc3f70f	-1.5309771
186	0x3f8765cd	1.0577942
187	0x3f1b7c88	0.60736895
188	0x3f683b99	0.9071594
189	0x3e337970	0.17526793
190	0x3fb00c83	1.3753818
191	0x3f484ec9	0.78245217
192	0x3fe1c34f	1.7637728
193	0x3eaabdb0	0.33347845
194	0x3f9e69e0	1.237606
195	0x3fa40b3f	1.2815932
196	0x3fd4eabd	1.6634136
197	0x3fdcc1ed	1.7246681
198	0x3e8cb6e9	0.274833
199	0x3e8a44f6	0.27005738
200	0xbf87d162	-1.0610774
201	0x4011d230	2.2784538
202	0x3f4f9ccc	0.8109863
203	0x3f9a183b	1.2038645
204	0xbec6e501	-0.3884659
205	0xbf385532	-0.72005
206	0xbf79383f	-0.9735145
207	0x3ea5ec4d	0.32406846
208	0xbfaa7556	-1.3317058
209	0x3f032a39	0.512363
210	0xbedd494d	-0.43219987
211	0xbf6e349a	-0.93049014
212	0xbf47a851	-0.77991205
213	0x3f7d5ff6	0.9897455
214	0x3fbad879	1.4597312
215	0xbccf5dbf	-0.025313256
216	0x3f02f939	0.51161534
217	0xbf3a4bc3	-0.72771853
218	0xbf9f7d6b	-1.246015
219	0x3fc0fe49	1.5077602
220	0xbe97ddad	-0.29661313
221	0x3f895f9a	1.07323
222	0x3f2ac65d	0.6670893
223	0xbe3a3c7a	-0.18187132
224	0x3f4cef3c	0.8005254
225	0x3f84f3ab	1.0386862
226	0x3f921286	1.1411903
227	0xbf3337b9	-0.700069
228	0x3fb82ee3	1.4389309
229	0xbf9ade43	-1.2099079
230	0x3fa4c5d9	1.2872878
231	0x3de2f366	0.11081581
232	0xbe432d46	-0.19060239
233	0x3f3adfd3	0.7299778
234	0xbf1d68e4	-0.61488175
235	0xbf4feade	-0.81217754
236	0x3fcecfe8	1.6157198
237	0xbfacde31	-1.3505307
238	0xbfa8eb55	-1.3196818
239	0xbd4d5993	-0.050134253
240	0xbf890060	-1.070324
241	0xbfb05e3c	-1.3778758
242	0x3ff04039	1.8769599
243	0xbe9f8799	-0.3115814
244	0xbe7cf419	-0.24702491
245	0xbf74a00c	-0.9555671
246	0x3f0548d2	0.5206424
247	0x3e8f4682	0.2798348
248	0xbdc33d80	-0.095332146
249	0x3e8be4cf	0.27323005
250	0x3e8d05eb	0.27543578
251	0xbea932aa	-0.33046466
252	0x3f714992	0.94252884
253	0xbf02eaab	-0.51139325
254	0x3fb9d291	1.4517385
255	0xbfa6e549	-1.3038722

gamma f4 [128]
0	0x3ee54261	0.44777206
1	0x3f9610b9	1.1723853
2	0x3f1c0b88	0.60955095
3	0x3eed6956	0.46369427
4	0x400e89a4	2.227151
5	0x3f05f818	0.52331686
6	0x3f09cd07	0.5382847
7	0x3f12ed40	0.57393265
8	0x3f3d6e01	0.7399598
9	0x3f05b385	0.5222705
10	0x3fcfdbbb	1.6238931
11	0x3ef97c16	0.48727483
12	0x3f0885a0	0.53328896
13	0xbd9627e9	-0.07331831
14	0x3ed3c2f2	0.4135967
15	0x3f3111ef	0.6916799
16	0x3e842ee3	0.25817022
17	0x3faaec9d	1.3353459
18	0x3e9b9daa	0.30393726
19	0x3fa9322e	1.3218439
20	0x3e807f11	0.25096944
21	0x3fabc354	1.3418984
22	0x3edfd518	0.43717265
23	0x3f0b25c3	0.54354495
24	0x3ee74c9b	0.45175633
25	0x3f868a4f	1.0510958
26	0x3f466416	0.7749647
27	0x3ef867b8	0.4851663
28	0x3f8d7f48	1.1054468
29	0x3f89722e	1.073797
30	0x3eeae914	0.4588095
31	0x3f4b3eaf	0.7939252
32	0x3f2c5ccb	0.6732909
33	0x3f072e0a	0.52804625
34	0x3f82474f	1.0178012
35	0x3fa5c85a	1.2951767
36	0x3f0ea66e	0.557227
37	0x3fa5be58	1.2948713
38	0x3f03aedd	0.51438695
39	0x3f38ff2b	0.72264355
40	0x3f927ab1	1.1443692
41	0x3ee90a08	0.45515466
42	0x3ee50d4e	0.44736713
43	0x3f5aa2a3	0.85404414
44	0x3f41ed9b	0.7575318
45	0x3f00cc98	0.50312185
46	0x3f1c9782	0.6116868
47	0x3f7ce6e8	0.98789835
48	0x3f8cee5e	1.1010244
49	0x3e97b893	0.29633006
50	0x3e9f5297	0.311177
51	0x3f952c37	1.1654118
52	0x3ff12a1e	1.8840978
53	0x3f0d0cf9	0.5509792
54	0x3f13bfe9	0.57714707
55	0x3f9adb3f	1.2098159
56	0x3fafce8e	1.373491
57	0x3f03a046	0.5141643
58	0x3f66aaad	0.9010418
59	0x3e910e5a	0.28331262
60	0x3f95e7c2	1.1711352
61	0x3f95f4d4	1.1715341
62	0x3ef5aa18	0.47981334
63	0x3f2a385b	0.6649224
64	0x3f174157	0.59084076
65	0x3fb6d69a	1.4284241
66	0x3f56cda0	0.8390751
67	0x3f915980	1.1355438
68	0x3ebe8c74	0.37216532
69	0x3fa9164c	1.320993
70	0x3f310599	0.69149166
71	0x3fc3e810	1.5305195
72	0x3eda355f	0.42618844
73	0x3ef0ecac	0.47055566
74	0x3efc9caa	0.49338275
75	0x3f11e915	0.5699628
76	0x3f322670	0.695899
77	0x3f012cbf	0.504589
78	0x3f2913d9	0.6604591
79	0x3f24db79	0.6439739
80	0x3fa27f15	1.2695032
81	0x3fa2e6ab	1.2726644
82	0x3f5ba866	0.8580383
83	0x3f947274	1.1597428
84	0x3f9c1980	1.2195282
85	0x3eb0bf66	0.34521025
86	0x3f87624f	1.0576876
87	0x3f3f039b	0.74614877
88	0x3f965373	1.1744217
89	0x3f3055aa	0.68880713
90	0x3f9ae3c9	1.2100765
91	0x3e834421	0.25637916
92	0x3faaa4d8	1.3331556
93	0x3fae622e	1.3623712
94	0x3fa5f4d8	1.2965345
95	0x3eb29078	0.34875846
96	0x3e5b6b13	0.21427564
97	0x3f5c24c6	0.8599361
98	0x3f5dfbee	0.8671254
99	0x3f3b8dc6	0.73263204
100	0x3f9a0ef0	1.2035809
101	0x3fa684f0	1.3009319
102	0x3ee52f49	0.44762638
103	0x3f1e2203	0.6177065
104	0x3e72cdef	0.2371137
105	0x3e84e1ef	0.25953624
106	0x3f16002b	0.58594006
107	0x3f9db728	1.232152
108	0x3f8d11a3	1.1021007
109	0x3f30355f	0.6883144
110	0x3f1f2c82	0.6217729
111	0x3ec6f784	0.38860714
112	0x3edf1e54	0.43577826
113	0x3f174e55	0.591039
114	0x3e8e488d	0.27789727
115	0x3f966e53	1.1752418
116	0x3f7daaee	0.99088943
117	0x3f10bce1	0.56538206
118	0x3f4ed0b5	0.8078721
119	0x3fb3d07b	1.4047998
120	0x3f701800	0.9378662
121	0x3f162cff	0.5866241
122	0x3f1f1847	0.6214642
123	0x3f80d96b	1.0066351
124	0x3f15a68f	0.58457273
125	0x3f9b262b	1.2121023
126	0x3f2188fb	0.6309964
127	0x3f9a497e	1.2053678

beta f4 [128]
0	0xbf277186	-0.654076
1	0x3e560831	0.20901562
2	0xbec6a930	-0.38800955
3	0xbea54256	-0.32277173
4	0x3dd653be	0.10465191
5	0xbefb907e	-0.49133676
6	0xbf212c46	-0.6295818
7	0xbf049b10	-0.51799107
8	0xbeb46a00	-0.35237122
9	0xbf0e8efb	-0.5568692
10	0x3f0d6f3c	0.55247855
11	0xbf2e9c07	-0.6820683
12	0xbed78cee	-0.42099708
13	0xbf4b6288	-0.7944722
14	0xbf2c4961	-0.6729947
15	0xbe93e37b	-0.2888449
16	0xbf1b834d	-0.60747224
17	0x3e893484	0.2679788
18	0xbf0907f4	-0.5352776
19	0x3ddc4a1c	0.10756323
20	0xbf130b9c	-0.5743959
21	0x3eaba77c	0.33526218
22	0xbee3ea50	-0.44514704
23	0xbeeaebc5	-0.45883003
24	0xbf17ebb8	-0.59344053
25	0x3e35360c	0.17696398
26	0xbec1627c	-0.3777045
27	0xbf0eac58	-0.55731726
28	0x3e589c41	0.21153356
29	0xbd2ecf1b	-0.04267798
30	0xbf129734	-0.5726197
31	0xbeb7495d	-0.3579816
32	0xbe476a01	-0.19474031
33	0xbf08ceab	-0.5344035
34	0xbd5348e3	-0.051583182
35	0x3ec22966	0.3792221
36	0xbea67aff	-0.32515714
37	0x3ec1ba16	0.37837285
38	0xbecde16d	-0.4021105
39	0xbea4ebe8	-0.32211232
40	0x3df3b4f0	0.118997455
41	0xbf0800aa	-0.53126013
42	0xbee8ba5d	-0.45454684
43	0xbe8fb4b2	-0.28067547
44	0xbe906b75	-0.28206983
45	0xbecf37d1	-0.40472272
46	0xbeb3d3f0	-0.35122633
47	0xbd93c452	-0.072151795
48	0xbec6a81d	-0.38800135
49	0xbf3b0e13	-0.7306835
50	0xbf0f5978	-0.55995893
51	0x3e73a1d9	0.23792209
52	0x3f3e4a6c	0.7433231
53	0xbed0869a	-0.40727693
54	0xbee466ed	-0.44609776
55	0x3ea4fe6a	0.32225353
56	0x3e9040a7	0.28174326
57	0xbf03400b	-0.51269597
58	0xbea64e07	-0.32481405
59	0xbf5585e2	-0.83407414
60	0x3e48d092	0.19610813
61	0x3e4cd352	0.20002487
62	0xbee5195a	-0.44745904
63	0xbed442da	-0.41457254
64	0xbebb88b4	-0.36627734
65	0x3f24342b	0.641421
66	0xbea00ac6	-0.3125822
67	0x3e64c47d	0.2234058
68	0xbf364ed6	-0.71214044
69	0x3e9c77f8	0.3056028
70	0xbeada519	-0.33915022
71	0x3f23f88c	0.6405113
72	0xbef29e25	-0.4738628
73	0xbee0b889	-0.4389079
74	0xbf03529f	-0.51297945
75	0xbec0a8dc	-0.3762883
76	0x3ef7ac5f	0.48373696
77	0xbf0f0bba	-0.5587727
78	0xbeba96e3	-0.36443242
79	0xbec829bd	-0.39094344
80	0x3eab61cd	0.33473054
81	0x3e8969a9	0.26838425
82	0xbed6fef2	-0.41991383
83	0x3ead551f	0.33854005
84	0x3e31ee9a	0.17376176
85	0xbf372360	-0.7153835
86	0xbe8eab20	-0.27864933
87	0xbec06205	-0.37574783
88	0x3e245083	0.16046338
89	0xbeaf8b41	-0.3428593
90	0x3ea8e38e	0.3298611
91	0xbf2532b6	-0.64530504
92	0x3e7b3a28	0.24533904
93	0x3eb4bb82	0.35299307
94	0x3e21877c	0.1577434
95	0xbf4c8a10	-0.79898167
96	0xbf0fc7f3	-0.56164473
97	0x3e07b120	0.13251162
98	0x3e4d3c43	0.2004252
99	0xbede0a1d	-0.4336709
100	0x3e20b428	0.15693724
101	0x3ea2c638	0.31791854
102	0xbf047b84	-0.5175097
103	0xbecf92c5	-0.40541664
104	0xbf034c75	-0.5128854
105	0xbf73103a	-0.94946635
106	0xbed28180	-0.41114426
107	0x3e8307ad	0.25591794
108	0x3ec6130c	0.38686407
109	0xbec22c06	-0.37924212
110	0xbebbb1fa	-0.36659223
111	0xbee95e1d	-0.45579615
112	0xbef67f15	-0.4814383
113	0xbee90a49	-0.4551566
114	0xbf3a6e10	-0.7282419
115	0x3e2e7de5	0.17040212
116	0x3e814fc8	0.2525618
117	0xbee4771d	-0.44622126
118	0xbebe67db	-0.3718861
119	0xbe07ff3a	-0.13280955
120	0x3da219aa	0.07915051
121	0xbedbe64f	-0.4294915
122	0xbeaa7872	-0.33295017
123	0x3e86caa0	0.26326466
124	0xbe7ada6c	-0.24497384
125	0x3d886361	0.0665958
126	0xbe974a9b	-0.29549107
127	0x3e6f9964	0.23398358

running_mean f4 [1, 128, 1, 1]
0	0x41cd7e10	25.686554
1	0xc239546a	-46.332436
2	0xc22b0032	-42.75019
3	0xc127be16	-10.483908
4	0x42a63cc9	83.11872
5	0xc214363e	-37.05297
6	0x40b4ffb8	5.6562157
7	0xc26522d9	-57.28403
8	0x41bc1e8e	23.51492
9	0x42bbb14c	93.84628
10	0x41d3ffd1	26.49991
11	0x41caea4c	25.364403
12	0xc12ee558	-10.930992
13	0xbee38d26	-0.44443625
14	0x41af461e	21.909237
15	0x425403ac	53.003586
16	0x41053a5f	8.326751
17	0xc158d6a5	-13.552403
18	0x4203fca6	32.996727
19	0xc1a46d45	-20.553354
20	0x40b6da0a	5.714116
21	0xc1db676f	-27.425505
22	0x418334ee	16.400845
23	0xc10254f2	-8.145739
24	0xc2885ab8	-68.177185
25	0xc220a8af	-40.16473
26	0x417ab846	15.669989
27	0xc23c8930	-47.133972
28	0xc1a4ab0e	-20.583523
29	0xbff13cda	-1.8846695
30	0x41e0cd20	28.100159
31	0x408caf2f	4.3963847
32	0x40935b14	4.604868
33	0xc28ce326	-70.44365
34	0x41622faf	14.1366415
35	0xbfdba53e	-1.7159803
36	0x406c96cf	3.6967046
37	0xc1c30cbf	-24.381224
38	0xc1628944	-14.158512
39	0x4111f7bc	9.122982
40	0x4106c26e	8.422468
41	0xc23bc413	-46.94148
42	0xc2893184	-68.59671
43	0x41ef8e07	29.94435
44	0x421f1ccb	39.77812
45	0xc284005a	-66.00069
46	0x422d21b5	43.282917
47	0x41cd9153	25.69596
48	0x42508ab8	52.135468
49	0x41eb66fe	29.42529
50	0x41b5f984	22.746834
51	0x3ea89067	0.3292267
52	0x4245715d	49.360706
53	0x4093d298	4.6194572
54	0xc1bbfd11	-23.498568
55	0xc1988203	-19.063482
56	0x428721da	67.56612
57	0xc237c62e	-45.943535
58	0x41b57e1e	22.68658
59	0x420d44b6	35.3171
60	0x412c51ad	10.76994
61	0x419d7d60	19.686218
62	0xc2194332	-38.31562
63	0xc29ecfbe	-79.40575
64	0xc158f660	-13.56015
65	0x41f61f48	30.765274
66	0xc2dc3157	-110.09637
67	0xc27ba6d3	-62.912914
68	0x4186e054	16.859535
69	0xc131491e	-11.080351
70	0x41f39168	30.446
71	0x41a6bf1e	20.843319
72	0xc2aaf92e	-85.48668
73	0xc260ea56	-56.228844
74	0x4119f36c	9.621929
75	0xc0958d75	-4.6735177
76	0xc0e45d80	-7.1364136
77	0xc23aeb60	-46.72986
78	0x40bce01d	5.9023576
79	0x41cabdc0	25.342651
80	0xc273cdf4	-60.951126
81	0x41f5c086	30.719006
82	0x419d904c	19.695457
83	0xc149fad6	-12.623739
84	0xc254d136	-53.204308
85	0x427eec4e	63.730766
86	0xc28d2309	-70.56843
87	0x4162ff4d	14.187329
88	0xc296cf20	-75.40454
89	0xc10523f9	-8.321282
90	0xc1bec96f	-23.848356
91	0x41204e59	10.019128
92	0xc2857460	-66.727295
93	0x42356a6e	45.353935
94	0xc1263486	-10.387823
95	0x4156cabc	13.424496
96	0x40655ac0	3.583664
97	0xc1afb454	-21.96305
98	0xc27f5764	-63.835342
99	0xc1b8c7e2	-23.097599
100	0xc19373b2	-18.431492
101	0xc2282c93	-42.04353
102	0xc294f23f	-74.47314
103	0xc1eab736	-29.339458
104	0x41e1a0c0	28.203491
105	0x423dd970	47.46234
106	0xc2c7a112	-99.81459
107	0xc23b8734	-46.882034
108	0xc1f5c2ce	-30.72012
109	0xbf6f927b	-0.93582886
110	0x4158cd81	13.550172
111	0x413b2f7f	11.699096
112	0xc2a0d9b4	-80.4252
113	0xc27b0016	-62.750084
114	0x424e8e7b	51.63914
115	0x40c1fa16	6.061778
116	0x40ce162a	6.4402056
117	0xc2a7fffe	-83.999985
118	0x41f87b9e	31.06036
119	0x42146dc2	37.107185
120	0x41ee8899	29.816698
121	0xc2b2bdb3	-89.37051
122	0x421cc9cb	39.197063
123	0xc1d8352a	-27.025959
124	0xc1b88baa	-23.068195
125	0x42006638	32.099823
126	0xc29fe586	-79.94829
127	0xc23767ea	-45.85148

running_var f4 [1, 128, 1, 1]
0	0x445e27e6	888.6234
1	0x46057316	8540.771
2	0x459bf366	4990.425
3	0x45e2e908	7261.129
4	0x45aa2d0f	5445.6323
5	0x4573c714	3900.4424
6	0x44808d48	1028.415
7	0x453721c7	2930.111
8	0x45a14813	5161.0093
9	0x451c550d	2501.3157
10	0x4696e499	19314.299
11	0x446422b5	912.5423
12	0x455ea3b3	3562.2312
13	0x45893400	4390.5
14	0x45ba711a	5966.1377
15	0x45b9e10c	5948.131
16	0x4425e514	663.57935
17	0x4600cf6f	8243.858
18	0x45564f5c	3428.96
19	0x45d55354	6826.416
20	0x43979483	303.16025
21	0x4560a4a0	3594.289
22	0x45ae1e85	5571.815
23	0x43815a42	258.70514
24	0x45558e02	3416.8755
25	0x4666f30d	14780.763
26	0x4632f55c	11453.34
27	0x4508b61f	2187.3826
28	0x46012ff0	8267.984
29	0x45808d79	4113.684
30	0x44d34d8b	1690.4232
31	0x4624dc81	10551.126
32	0x46183acf	9742.702
33	0x458a80ee	4432.116
34	0x44e021c9	1793.0558
35	0x4602f7f5	8381.989
36	0x45b42455	5764.5415
37	0x451e670d	2534.4407
38	0x45b1e1d7	5692.23
39	0x45c76993	6381.197
40	0x44c88891	1604.2677
41	0x4519fc02	2463.7505
42	0x457ceb13	4046.6921
43	0x45314e7f	2836.906
44	0x45babd8f	5975.695
45	0x4628b6e9	10797.728
46	0x45ec2732	7556.8994
47	0x459cde77	5019.808
48	0x45f96c9b	7981.5757
49	0x44e867a5	1859.2389
50	0x449d9745	1260.7272
51	0x45918aec	4657.365
52	0x469867d0	19507.906
53	0x45fa3cb7	8007.5894
54	0x456d0b5f	3792.7107
55	0x459dd2a4	5050.33
56	0x4661b9de	14446.467
57	0x45892e14	4389.76
58	0x45c96372	6444.4307
59	0x44aeca30	1398.3184
60	0x455004ba	3328.2954
61	0x45c0d69a	6170.825
62	0x450ae671	2222.4026
63	0x46c70f33	25479.6
64	0x45eb1dec	7523.74
65	0x469fe8e2	20468.441
66	0x45d7baac	6903.334
67	0x464307c2	12481.939
68	0x453c2864	3010.5244
69	0x45827eaf	4175.8354
70	0x45efa50f	7668.6323
71	0x4656d131	13748.298
72	0x45488900	3208.5625
73	0x4560b5c6	3595.3608
74	0x44b46354	1443.104
75	0x45f33e55	7783.7915
76	0x464d6e4e	13147.576
77	0x44e6fd9e	1847.9255
78	0x45fba9db	8053.232
79	0x45ef0280	7648.3125
80	0x463ea786	12201.881
81	0x43b0cf04	353.6173
82	0x46387d29	11807.29
83	0x45d77670	6894.8047
84	0x46292c06	10827.006
85	0x44fa13c5	2000.6178
86	0x45f0c830	7705.0234
87	0x464f908a	13284.135
88	0x464f4c13	13267.019
89	0x45c186c5	6192.846
90	0x4613cc55	9459.083
91	0x44546635	849.597
92	0x45027de8	2087.8691
93	0x440f93a8	574.3071
94	0x4616ea5f	9658.593
95	0x451f01ab	2544.1042
96	0x43fa8936	501.07196
97	0x4635ef16	11643.771
98	0x46d039fb	26652.99
99	0x4665db07	14710.757
100	0x45e16c66	7213.55
101	0x460ac5dd	8881.466
102	0x458fbbcf	4599.476
103	0x460561d6	8536.459
104	0x443f26b9	764.60504
105	0x44febf50	2037.9785
106	0x46c6374a	25371.645
107	0x467a2945	16010.317
108	0x45de00dd	7104.108
109	0x4594c9ac	4761.209
110	0x4623a6a9	10473.665
111	0x44c4cc53	1574.3851
112	0x45471866	3185.525
113	0x45c7d5c6	6394.7217
114	0x44e1566a	1802.7004
115	0x453988cd	2968.55
116	0x460133e2	8268.971
117	0x4684824d	16961.15
118	0x460df3fe	9084.998
119	0x4566f67a	3695.4048
120	0x45a345f0	5224.742
121	0x4653540c	13525.012
122	0x455a89d1	3496.6135
123	0x460bdd7a	8951.369
124	0x4621f44b	10365.073
125	0x440173c3	517.8088
126	0x45851de8	4259.7383
127	0x4616475d	9617.841

weight f4 [2, 128]
0	0x3eefa497	0.4680526
1	0x3effd46a	0.49966747
2	0xbe5d93d2	-0.2163842
3	0xbf5010e9	-0.812758
4	0xbfd4f62e	-1.6637628
5	0xbfa0fea7	-1.2577714
6	0xbf537b78	-0.82610273
7	0xbf4c7abd	-0.79874784
8	0xbf9de002	-1.2333987
9	0x3e03ab66	0.12858352
10	0xc00d9658	-2.2123013
11	0x3f4f467d	0.8096693
12	0xbfa694c7	-1.3014153
13	0x3de91f4d	0.11382923
14	0x3eacf5ef	0.33781382
15	0xbf67c192	-0.9052974
16	0x3f5cb965	0.8622039
17	0x3f103e4e	0.5634507
18	0x3d560653	0.052252125
19	0xbe081d72	-0.13292482
20	0x3f489429	0.78351074
21	0xbf896f12	-1.0737021
22	0x3e7489a2	0.23880628
23	0x3e5a16ca	0.21297756
24	0xc0313ae1	-2.7692187
25	0x3fc27bb0	1.5193996
26	0xc038c222	-2.886849
27	0xbf9f168f	-1.2428759
28	0xbf01c980	-0.5069809
29	0xbe8fa76e	-0.28057426
30	0x3f8e3857	1.1110944
31	0xbf892e61	-1.0717279
32	0xbe2a2cd5	-0.16618665
33	0xbf49981a	-0.78747714
34	0xbf4bede4	-0.7965987
35	0x3eeaa405	0.45828262
36	0xbf2591dc	-0.6467569
37	0xbfaa8e91	-1.3324758
38	0xbe567bc0	-0.20945644
39	0xbf7b697a	-0.9820782
40	0xbee31883	-0.44354638
41	0xbe331aa6	-0.17490634
42	0x3f32a88c	0.6978843
43	0xbf785a71	-0.97013
44	0xc013ebe1	-2.311272
45	0xbe0afeac	-0.13573712
46	0xbf0f7dfc	-0.5605161
47	0xbf243d05	-0.6415561
48	0xbf8337b1	-1.0251371
49	0xbe441717	-0.19149433
50	0x3fb8e396	1.4444454
51	0x3e7b8470	0.2456224
52	0xbf96ce2d	-1.178167
53	0x3d348bac	0.044078514
54	0xbf152738	-0.5826297
55	0x3f093c20	0.5360737
56	0xbfd42d53	-1.6576332
57	0xbfc220cd	-1.516626
58	0xc0006050	-2.0058784
59	0x3ff7d7e5	1.9362761
60	0xbe3112e8	-0.17292368
61	0xbeded8b4	-0.43524706
62	0x3eb0d794	0.34539473
63	0x3f3cbe55	0.73727924
64	0xbee93126	-0.4554531
65	0xc01576e4	-2.3353815
66	0xbebd6603	-0.3699189
67	0x3f413727	0.7547478
68	0x401ecf51	2.4814036
69	0xbf06af7b	-0.5261151
70	0xbf561e03	-0.83639544
71	0xbfd5f482	-1.6715243
72	0xbedfab29	-0.43685272
73	0x3eb0e9d6	0.34553403
74	0xbdd3bf04	-0.10339168
75	0xbf8f90df	-1.1216086
76	0x3f63af3f	0.8893928
77	0xbf80e018	-1.0068388
78	0xbfa6b4f9	-1.3023978
79	0xbf78cac4	-0.97184396
80	0x3fb02f0c	1.3764358
81	0xbf8e8607	-1.1134652
82	0xbfc204b8	-1.515769
83	0xbeb82954	-0.3596903
84	0x3e9e1670	0.30876493
85	0x3fe4cab5	1.7874361
86	0xbee06f35	-0.43834844
87	0xbfe7e355	-1.8116251
88	0x3ea514ea	0.3224252
89	0xbf8478aa	-1.0349324
90	0x3ecbc048	0.39795136
91	0xba89d337	-0.0010515217
92	0xbefb37fb	-0.49066147
93	0xbfcd81b4	-1.6055207
94	0x3e6931e4	0.22772938
95	0x3f83b7cf	1.0290469
96	0x3e105dcc	0.1409828
97	0xbe26d5cf	-0.16292499
98	0x3ed194f2	0.4093395
99	0x3f6b8c23	0.92010707
100	0xbe4a95f2	-0.19783762
101	0x3f5be8ec	0.85902286
102	0xbfcf9b19	-1.6219207
103	0xbec6d99c	-0.38837898
104	0x3f23704b	0.6384322
105	0x3f006953	0.5016071
106	0x3eb46656	0.35234326
107	0x3e2b9b68	0.16758502
108	0x3f635a79	0.88809925
109	0xbf922bea	-1.1419652
110	0xbf8fcec6	-1.1234977
111	0x3e7342c1	0.23755933
112	0xbefeffe6	-0.4980461
113	0xbeaafd10	-0.33396196
114	0x3edebf8b	0.4350551
115	0xbef6490b	-0.48102602
116	0x3f6068c7	0.8765988
117	0x3e20d669	0.15706791
118	0xbfce101c	-1.6098666
119	0xbf94ba25	-1.1619307
120	0xbef9e69c	-0.48808753
121	0xbf0bff5f	-0.5468654
122	0xbf2de058	-0.67920446
123	0x3e837a09	0.25679043
124	0xbf3a5f79	-0.7280193
125	0xbf4968c4	-0.78675485
126	0xbda1f7f7	-0.07908624
127	0x3f19192c	0.59804034
128	0xbe281f97	-0.164183
129	0xbf11855a	-0.56844103
130	0xbd94c722	-0.07264544
131	0xbf92f1c2	-1.1480029
132	0xbf12a4ac	-0.5728252
133	0x3fa4d49b	1.2877382
134	0xbf95cc3e	-1.1702955
135	0x3eb6999e	0.35664076
136	0xbdfee9f7	-0.12446969
137	0x3e92e17d	0.2868766
138	0xbfac2ac8	-1.3450556
139	0x3d1741d1	0.036928
140	0x3f48b466	0.78400266
141	0xbd53add6	-0.051679455
142	0x3e0cd363	0.13752513
143	0x3d8c9099	0.06863517
144	0x3f0e97ee	0.55700576
145	0xbf69f7cb	-0.9139373
146	0x3e45ee88	0.19329274
147	0xbfbebaff	-1.4900817
148	0x3f32952a	0.69758856
149	0xbfa3e9bc	-1.2805705
150	0x3f53a7bc	0.8267782
151	0x3e2343ae	0.15943787
152	0x3f9c7015	1.2221705
153	0xbfee0d8d	-1.8597885
154	0x3f10dcbb	0.5658681
155	0x3e805d40	0.25071144
156	0xbfba4125	-1.455113
157	0xbf483074	-0.78198934
158	0x3f5ebffe	0.87011707
159	0xbe4f1f9f	-0.20226906
160	0xbe67b2ed	-0.22626849
161	0x3dfd152b	0.12357553
162	0xbeb2e8a3	-0.34943113
163	0xbf84d179	-1.0376426
164	0x3e610beb	0.21977203
165	0xbfc19bcd	-1.5125672
166	0x3ca3f821	0.020015778
167	0xbe4fd35b	-0.2029547
168	0xbf62ec6d	-0.8864201
169	0x4019ff82	2.40622
170	0x3fbfb837	1.4978093
171	0xbead7f76	-0.33886307
172	0x3f213afb	0.6298062
173	0x3db65b1c	0.089040965
174	0x3fc87ad2	1.5662482
175	0xbeb0ab20	-0.34505558
176	0xbeb3279a	-0.3499115
177	0xbf660e0e	-0.89865196
178	0x3f828c1b	1.0199007
179	0xc024601e	-2.5683665
180	0xbf21d3ab	-0.63213605
181	0x3f7ccae8	0.9874711
182	0x3e2fb268	0.171579
183	0xbf48a790	-0.7838068
184	0xbf5f1fa4	-0.87157655
185	0x3dc0bc4c	0.09410915
186	0x3bff4873	0.007790619
187	0xbe11ed46	-0.14250669
188	0xbf95042c	-1.1641898
189	0xc001150f	-2.0169103
190	0x3fe63c3c	1.7987132
191	0x3f849128	1.0356798
192	0xbc7cd6ce	-0.015432073
193	0xbfbf3379	-1.4937583
194	0xbea83355	-0.32851663
195	0xbfa88440	-1.316536
196	0x3f9f9deb	1.2470068
197	0xbf370b4f	-0.7150163
198	0x3f8317bc	1.0241618
199	0xbfb292b4	-1.395102
200	0x3d759b51	0.059962574
201	0x3f351ba7	0.7074532
202	0xbe835187	-0.25648138
203	0x3f3b511d	0.73170644
204	0xbfa780dd	-1.3086201
205	0x3f2a2d79	0.66475636
206	0x3f126ebe	0.5720023
207	0x3d515a68	0.05111161
208	0xbfb925e7	-1.4464692
209	0xbf816d80	-1.0111542
210	0xbe38ba5c	-0.1803984
211	0xbfd07e62	-1.6288569
212	0xbfce5088	-1.6118326
213	0xbcfa93b4	-0.030588008
214	0xbed0cefb	-0.40782914
215	0x3e09677a	0.1341838
216	0xbf28cc30	-0.65936565
217	0x3cf337aa	0.029689629
218	0xbfa673ef	-1.300413
219	0xbdda9c5c	-0.106743544
220	0xbf474712	-0.7784282
221	0xbf9ab3c8	-1.2086115
222	0xbf50e80e	-0.8160409
223	0x3f856121	1.0420266
224	0x3e71b4e0	0.23604155
225	0xbed13794	-0.40862715
226	0xbe2e9d35	-0.17052157
227	0x4019875d	2.398887
228	0xbf806544	-1.0030904
229	0xbf504024	-0.8134787
230	0x3ebb569c	0.36589515
231	0xbf969da1	-1.1766855
232	0x3f1eb232	0.61990654
233	0xbe461b51	-0.19346358
234	0x3f04bd5b	0.51851434
235	0xbf874ff0	-1.057127
236	0xbfd9ada1	-1.7006112
237	0x3ec8aec4	0.39195836
238	0x3f78aa5a	0.97134936
239	0x3ef0a78d	0.4700283
240	0x3d9a01d1	0.07519878
241	0x3f686313	0.90776175
242	0xbc8b20e0	-0.01698345
243	0xbfd21c9a	-1.6414979
244	0xbeff5234	-0.49867404
245	0x3fdffb21	1.7498513
246	0xbe0d8a00	-0.13822174
247	0xbeed32f7	-0.46327946
248	0xbff071b6	-1.8784702
249	0x3e5ba8f9	0.21451177
250	0x3fd60c21	1.6722451
251	0xbf5b4a25	-0.8566001
252	0xbf877306	-1.0581977
253	0xbecf80fe	-0.405281
254	0xbe7c18e1	-0.24618866
255	0xbf8be33d	-1.0928723

bias f4 [2]
0	0x3f85989e	1.04372
1	0xbf952d24	-1.1654401
