chapter2/test_train/model_3.pth (torch_old, 391077 bytes, 17 tensors)

weight f4 [32, 3, 3, 3]
0	0x3f4f5196	0.80983865
1	0x3d7ba75b	0.0614389
2	0xbec3186a	-0.38104564
3	0x3f822070	1.0166149
4	0xbe77dece	-0.24206087
5	0x3f3365ee	0.7007741
6	0xbd866baa	-0.06563504
7	0x3fc7a29c	1.55965
8	0xbf5e41fb	-0.8681943
9	0xbe809f95	-0.2512175
10	0xbdd0960c	-0.10184869
11	0x3e4579d2	0.19284752
12	0xbef57085	-0.47937408
13	0xbf5cdace	-0.8627137
14	0xbd344a3d	-0.04401611
15	0x3f655987	0.8958973
16	0xbf508287	-0.8144917
17	0xbeadb302	-0.33925635
18	0xbf2e1c89	-0.6801229
19	0xbf47e250	-0.780797
20	0xc00a0942	-2.156815
21	0xbf8673b3	-1.0504059
22	0xc03e5e27	-2.9744966
23	0x3ede2cc6	0.43393534
24	0xbef08948	-0.46979737
25	0xc0100cc2	-2.2507787
26	0xbe006d9e	-0.12541816
27	0xbf037278	-0.5134654
28	0x3f496586	0.7867054
29	0x3f50f159	0.8161827
30	0xc007f6c9	-2.1244376
31	0xbf256503	-0.64607257
32	0x3e0bcb94	0.13651878
33	0x3fe73dc4	1.8065724
34	0xbfbe47a8	-1.4865618
35	0x3f0ebba9	0.55755097
36	0x3e804e22	0.2505961
37	0xbde144af	-0.109994285
38	0x3f043e32	0.516574
39	0xbf93dc62	-1.155163
40	0xbfd9c5aa	-1.7013447
41	0xbf917dfa	-1.136657
42	0x3c77287e	0.015085338
43	0xbfce1a9a	-1.6101868
44	0xbf5aea51	-0.8551379
45	0xbf5b0a87	-0.8556294
46	0xbe413c2f	-0.18870614
47	0x3f858ba2	1.0433238
48	0xbdc82f60	-0.09774661
49	0xbd8eceaa	-0.06973012
50	0x3cdafe9d	0.026732737
51	0x3d9522e5	0.07282046
52	0xbdb27019	-0.08712787
53	0xc004798f	-2.0699193
54	0xbca329da	-0.019917417
55	0x3f26b7f1	0.6512442
56	0x3fa00bfa	1.2503655
57	0x3fdeba20	1.7400551
58	0x3f945c76	1.1590717
59	0x3ff8d2b9	1.9439307
60	0x3e8f32ce	0.27968448
61	0x3f2c211f	0.6723804
62	0x3da3052f	0.07959973
63	0x3d707656	0.058706604
64	0x3f819cfd	1.0126034
65	0xbf9b8156	-1.2148845
66	0x3f7310b0	0.9494734
67	0x3f935fcd	1.1513611
68	0xbd87338e	-0.0660163
69	0x3e88a024	0.26684678
70	0x3f799e38	0.9750705
71	0xbe3b9ebd	-0.18322273
72	0x3f4f1e64	0.8090575
73	0xbf77dbfb	-0.9682004
74	0x3fe15459	1.7603866
75	0xbe84bb5b	-0.2592419
76	0xbecc7653	-0.39934024
77	0x3f7316c8	0.94956636
78	0xbd1136b1	-0.03545255
79	0xbf05ce01	-0.5226746
80	0x3f93ae9d	1.1537663
81	0xbedc8108	-0.43067193
82	0x3f333593	0.7000362
83	0x3f226f9a	0.6345154
84	0x3f923ffb	1.1425775
85	0x3fa03ec1	1.2519151
86	0xbfac3503	-1.3453678
87	0x3fa4e7e9	1.2883273
88	0x3e52c533	0.20583038
89	0x3f9bb99a	1.2166016
90	0x3e1dfb6d	0.15427943
91	0x400ce6f1	2.2015955
92	0x3f8f0806	1.1174324
93	0x3f920818	1.140872
94	0x3f29c93c	0.66322684
95	0x401e462d	2.4730332
96	0x3f4cea23	0.80044764
97	0x3fb78bf6	1.4339588
98	0x3f78cdfd	0.97189313
99	0xbe9f80f0	-0.3115306
100	0x3f3a1061	0.7268124
101	0xbea0591d	-0.31317988
102	0xbebd958d	-0.3702816
103	0xbfec1ee3	-1.8446926
104	0x3face1b9	1.3506385
105	0xbe9f4542	-0.31107527
106	0x3fbac970	1.4592724
107	0xbfa37164	-1.2768979
108	0xbe30df67	-0.17272721
109	0xbf8bb5b3	-1.0914825
110	0x3ef96ca5	0.48715702
111	0x3e240e4f	0.16021083
112	0x3f60703f	0.87671274
113	0xbf908a2c	-1.1292167
114	0xbf97f722	-1.1872294
115	0xbfd5b97a	-1.6697228
116	0x3fd772c7	1.6831902
117	0x3e08b089	0.13348593
118	0x3f57c843	0.8428995
119	0xc00947ec	-2.1450148
120	0xbeaba256	-0.3352229
121	0x40059f06	2.087831
122	0x3fe4df7a	1.78807
123	0xbdf2971e	-0.118452296
124	0xbeec75dd	-0.46183673
125	0x3f060bb4	0.5236161
126	0xbefb9faa	-0.49145252
127	0xbead1e48	-0.33812165
128	0x4001ad81	2.0262148
129	0xbf20943a	-0.62726176
130	0x3fc3daf8	1.5301199
131	0x40711877	3.7671182
132	0x3f34d56d	0.7063816
133	0x3f5442da	0.8291451
134	0x3f129022	0.5725118
135	0xbfffaccb	-1.9974607
136	0x3f8b8622	1.0900309
137	0xbf60771f	-0.87681764
138	0xbfab138c	-1.336534
139	0xbe90c7b4	-0.2827736
140	0xbfc53a7c	-1.5408473
141	0x3e8f8348	0.28029847
142	0x3f9e4e92	1.2367728
143	0xbe93133f	-0.2872562
144	0xbf028ee9	-0.50999314
145	0xbc0b7c7d	-0.008513567
146	0x3f19a507	0.60017437
147	0x3de7478f	0.112929456
148	0xbfd69b2c	-1.6766105
149	0x3fa24071	1.2675916
150	0xbfb228a2	-1.391865
151	0xbe9dffa7	-0.3085911
152	0xbf40bc1b	-0.75287026
153	0xc05253e2	-3.2863698
154	0x3df2f2da	0.118627265
155	0xbee2f46b	-0.443271
156	0xbf6718b0	-0.90272045
157	0xbfc0080d	-1.5002457
158	0xbee3ecef	-0.44516703
159	0x3f9c447c	1.22084
160	0xbfc10208	-1.5078745
161	0x3eda2dc9	0.42613056
162	0xbfa41817	-1.2819852
163	0xbf2f13a1	-0.68389326
164	0x3db00473	0.085945986
165	0x3f2bd108	0.6711583
166	0x3de7061b	0.112804614
167	0x3ea97576	0.33097428
168	0xc00cbdb5	-2.1990788
169	0xbfaaf8eb	-1.3357214
170	0x3eca0f46	0.39464778
171	0xbe0e891b	-0.13919489
172	0x3effe331	0.4997802
173	0xbf957b5f	-1.1678275
174	0x3fb8ccd0	1.4437504
175	0xbfa81781	-1.3132173
176	0xbf5960af	-0.8491315
177	0xbf516c17	-0.81805557
178	0x3dabe838	0.083939016
179	0x3fc84800	1.5646973
180	0xc02a24b6	-2.6584907
181	0x3e90f671	0.2831302
182	0xbfa02990	-1.2512684
183	0xbf995e6b	-1.1981939
184	0xbf15bc28	-0.5849023
185	0xc0084444	-2.1291666
186	0xbdfa106d	-0.12210164
187	0xbf82f47e	-1.0230863
188	0xbfd3f284	-1.6558385
189	0xc00e4c79	-2.2234175
190	0xbed75a29	-0.42060974
191	0x3ff3d17b	1.9048303
192	0x3f39d397	0.72588485
193	0x3eab5c87	0.3346903
194	0xbefc5990	-0.4928708
195	0x3eb53ca3	0.35397825
196	0xbeed727b	-0.46376404
197	0x3f26bfd4	0.65136456
198	0x3fa63140	1.298378
199	0xbfb526ce	-1.4152467
200	0xbf69e57e	-0.913658
201	0xc02ff250	-2.7491646
202	0x3fb28b56	1.3948772
203	0xbf0f06e4	-0.5586989
204	0xbfa5cf3d	-1.2953869
205	0x3e7e8bd1	0.24858023
206	0x3e97f471	0.29678681
207	0xbf764b81	-0.9620896
208	0x3fb50284	1.4141393
209	0xc0108808	-2.2583027
210	0xbe87578f	-0.2643399
211	0x3ec6094f	0.38678977
212	0xc01e60b8	-2.4746532
213	0xbf13ceb7	-0.57737297
214	0xbee34702	-0.44390112
215	0xbf6a39ae	-0.9149426
216	0xbeb6b81f	-0.35687348
217	0xbeb8399c	-0.35981452
218	0xbf4afd5d	-0.7929285
219	0x3cb8fe35	0.022582153
220	0x3f779670	0.96713924
221	0x3f511924	0.81678987
222	0xbd444338	-0.047915667
223	0xbf3e5778	-0.74352217
224	0x3e967583	0.2938653
225	0x3de85358	0.113440216
226	0x3f881182	1.0630343
227	0xbe5864fa	-0.2113227
228	0xbfaff5d9	-1.3746902
229	0x3efd1a6b	0.49434218
230	0xbf97ef3c	-1.1869884
231	0xbe735d76	-0.23766121
232	0x3e74d2af	0.23908494
233	0xbff0a2ea	-1.8799717
234	0xbf90a52d	-1.1300408
235	0x3e919e46	0.28441066
236	0xbe3ed43d	-0.1863565
237	0x3ed9cd42	0.42539412
238	0xc034561c	-2.8177557
239	0xbf79f05f	-0.976324
240	0xbf8515dd	-1.0397297
241	0xbfa8f807	-1.3200692
242	0xbfbe6371	-1.4874097
243	0x4016fb8c	2.3591032
244	0x3f852ab2	1.0403655
245	0xbe843a54	-0.2582575
246	0x3fb61976	1.422652
247	0x4017f41a	2.3742738
248	0x3f0a83c2	0.54107296
249	0xbf8e6a84	-1.1126256
250	0xbf66d89c	-0.9017427
251	0x402447df	2.5668867
252	0x3c95bc8b	0.01827838
253	0xbebb0106	-0.36524218
254	0x3f531639	0.82455784
255	0x3f9cf3f3	1.2261947

gamma f4 [32]
0	0x3fb4aee9	1.4115878
1	0x3f1d0ca6	0.61347425
2	0x3d7833fd	0.060596455
3	0x3f96801c	1.1757846
4	0xbdc17952	-0.09446968
5	0x40024bc4	2.0358744
6	0x400335a1	2.0501482
7	0x3f870dcd	1.0551087
8	0x3fc77d2f	1.5585078
9	0x3faf1dba	1.3680947
10	0x3f27b975	0.6551736
11	0x3fa98f78	1.3246908
12	0x3f5939a5	0.84853584
13	0x3f8c5efd	1.0966488
14	0x3f85eb6c	1.046247
15	0x3fb4f8b8	1.4138403
16	0x3fb7c42b	1.4356741
17	0x3f9f7034	1.2456117
18	0x3f17b83c	0.59265494
19	0x3f0486cc	0.51768184
20	0x3f68ec23	0.90985316
21	0x3fabc73c	1.3420177
22	0x3f075dc6	0.5287746
23	0x3f807158	1.003459
24	0x3fbd2cd3	1.4779304
25	0x3fd0c780	1.6310883
26	0x3f956df0	1.1674175
27	0x3fba601c	1.456058
28	0x3f363a7c	0.7118299
29	0x3fa34756	1.2756145
30	0x3e7600ce	0.24023744
31	0x3f94da41	1.1629106

beta f4 [32]
0	0x3edc3b00	0.43013763
1	0xbebcf425	-0.36905017
2	0xbf0f074d	-0.55870515
3	0x3ebb69b3	0.3660408
4	0x3f1f804b	0.62305135
5	0x3e18a06a	0.14904943
6	0x3e353b90	0.17698503
7	0x3e8fc3b4	0.28078997
8	0xbe2b82be	-0.16749093
9	0x3f5dad83	0.8659288
10	0xbd85292d	-0.06501994
11	0xbdb8c11f	-0.0902121
12	0xbdb10b57	-0.08644741
13	0x3ee28827	0.442445
14	0xbea81934	-0.32831728
15	0x3e3cae93	0.1842597
16	0x3f0fcae1	0.56168944
17	0xbed81681	-0.4220467
18	0xbed6e20a	-0.4196933
19	0xbe645439	-0.22297753
20	0x3f0ff9f5	0.5624078
21	0x3eff99bc	0.49921978
22	0x3f01621f	0.50540346
23	0x3f20bc0d	0.6278694
24	0x3d8ef6c7	0.06980663
25	0xbe338879	-0.17532529
26	0x3dab3bc4	0.08361009
27	0x3d945e79	0.07244582
28	0x3e934c4a	0.2876914
29	0xbe5725fa	-0.2101058
30	0xbf3c0cb6	-0.73456895
31	0x3d8fa6b0	0.07014215

running_mean f4 [1, 32, 1, 1]
0	0xc04bc984	-3.1841745
1	0xc03384d7	-2.804983
2	0x408338a6	4.100665
3	0x40924aa2	4.5716105
4	0x40346753	2.8188064
5	0xc082932c	-4.0804653
6	0xc09af946	-4.842929
7	0xc045305a	-3.0810761
8	0xc0707b98	-3.7575436
9	0x40c0c181	6.023621
10	0x4079986e	3.8999286
11	0xc07b96ac	-3.9310713
12	0xc0174fae	-2.3642383
13	0x40db783d	6.8584275
14	0xc041c9df	-3.0279462
15	0x406a6549	3.662432
16	0x40c0088a	6.0010424
17	0xc0852956	-4.161296
18	0xc04001d2	-3.000111
19	0x40eacd8a	7.33759
20	0xc0375d3c	-2.8650656
21	0x40fdcaba	7.930997
22	0x40c02e86	6.005679
23	0x40972376	4.7230787
24	0xc024aa5b	-2.5728977
25	0xc06af47a	-3.6711717
26	0x401af6d9	2.4213164
27	0x409141fe	4.5393057
28	0x407b1465	3.9231198
29	0xc03bfd34	-2.9373293
30	0xbfd9c332	-1.7012694
31	0xc0851141	-4.158356

running_var f4 [1, 32, 1, 1]
0	0x403849a0	2.8794937
1	0x400681bd	2.1016686
2	0x40848359	4.1410336
3	0x40a5b321	5.1781163
4	0x401b25dd	2.424186
5	0x408ae972	4.3409967
6	0x40c39417	6.1118274
7	0x4025987f	2.5874326
8	0x4074d46f	3.825466
9	0x4111a766	9.103369
10	0x407da1af	3.9629934
11	0x4080f08f	4.029365
12	0x3fcc3561	1.595379
13	0x413bde13	11.741717
14	0x401308a8	2.2974033
15	0x405211a5	3.282327
16	0x41101c28	9.006874
17	0x408a6312	4.3245935
18	0x4020fc15	2.5153859
19	0x41537ac2	13.21747
20	0x40121ae9	2.2828925
21	0x41774461	15.454194
22	0x410d1dc2	8.819765
23	0x40b512b9	5.6585355
24	0x3fdaa60d	1.7081925
25	0x4064aea7	3.57316
26	0x3fc0b651	1.5055639
27	0x40ab5d5f	5.355148
28	0x40837c64	4.1089344
29	0x400dd85c	2.2163305
30	0x3f5c3e6f	0.86032766
31	0x408cc396	4.398875

weight f4 [64, 32, 3, 3]
0	0x3e8760d8	0.26441073
1	0x3f774f53	0.96605414
2	0xbe94dc24	-0.29074204
3	0xbeb73b48	-0.35787416
4	0x3f615d9b	0.88033456
5	0x3fbdc99c	1.4827151
6	0x3ff8dc52	1.9442236
7	0x3db5d1f7	0.08877938
8	0x3ff375d9	1.9020339
9	0x3d9070a4	0.070527345
10	0x3fbce36b	1.4756902
11	0x3ead8cdf	0.3389654
12	0xbf20a22e	-0.62747467
13	0x3e838123	0.2568446
14	0xbeecb160	-0.46229076
15	0xbe284ca8	-0.16435492
16	0x3f181bfa	0.5941769
17	0x3f82d706	1.022187
18	0x3f5cc5f6	0.86239564
19	0xbf0c7e31	-0.5488005
20	0xbdd8e264	-0.105900556
21	0xbe91634e	-0.28396076
22	0xbf61a84f	-0.88147444
23	0x3f00ae78	0.5026622
24	0x3f84bb2c	1.036962
25	0x3c74acc6	0.0149337705
26	0xbf36cdd3	-0.7140781
27	0x3f80c5df	1.0060385
28	0x3fc134ce	1.509424
29	0xbf9d3c54	-1.2284036
30	0x3e2bc116	0.16772875
31	0xc0367a94	-2.8512316
32	0x3ea714e4	0.32633126
33	0xbf944cb9	-1.1585914
34	0xbe717a6d	-0.23581858
35	0xbfc117c0	-1.5085373
36	0x3f1d96e9	0.61558396
37	0xbfcc4ba6	-1.5960586
38	0xbe331e69	-0.1749207
39	0xbf055fa3	-0.52099055
40	0x3fb473f0	1.4097881
41	0x3f6efed6	0.933576
42	0xbfe0a2f7	-1.7549733
43	0x3f4d97c1	0.80309683
44	0x3fcda18e	1.6064928
45	0x3fb9f043	1.4526447
46	0x3f510a20	0.81656075
47	0x3fa7bdfc	1.3104854
48	0xbddedc2d	-0.10881839
49	0x3fab6c59	1.339244
50	0x3f04fce8	0.51948404
51	0x3fc100fd	1.5078427
52	0x3fc8141d	1.5631138
53	0xbeae31ce	-0.34022373
54	0xbf12b5cd	-0.57308656
55	0xbd863ce9	-0.065545864
56	0x3f9ec79c	1.2404666
57	0x3f77e9ec	0.9684131
58	0x4012a9cd	2.2916138
59	0x3fa9fff4	1.3281236
60	0x3fd518de	1.6648214
61	0x40350b85	2.828828
62	0x3e348da0	0.1763215
63	0xbec3d869	-0.38251045
64	0x3f056c0b	0.52117985
65	0x3e1ed762	0.1551185
66	0xbef34ae9	-0.4751809
67	0x3f990c09	1.1956798
68	0x3c9b641e	0.018968638
69	0x3fb74204	1.4317021
70	0xbed0eb53	-0.40804538
71	0x40078678	2.1175823
72	0x3f332098	0.6997161
73	0xbdbfe666	-0.09370117
74	0x3f44e9b8	0.76919127
75	0xbd411a2b	-0.047144096
76	0x4011096b	2.2661998
77	0x3ef0d372	0.4703632
78	0x4004500c	2.0673857
79	0x3fa0aa4d	1.2551972
80	0x4023fbfc	2.562255
81	0x3ee85d8c	0.4538387
82	0xbfdfb8a7	-1.7478226
83	0xbd4b6c06	-0.049663566
84	0x3f60e796	0.8785337
85	0x3fc6fe4f	1.5546359
86	0xbf7ef711	-0.99595743
87	0xbff47cbb	-1.9100565
88	0x3d702b4f	0.058635052
89	0xbf01c5c2	-0.5069238
90	0x3ed71993	0.420117
91	0xbdce24d8	-0.10065621
92	0x3f4e69cd	0.8063019
93	0xbf29eb31	-0.663745
94	0x3f1deb13	0.6168682
95	0x3f71291e	0.94203365
96	0x3fa852fe	1.3150327
97	0xbee79518	-0.45230937
98	0x3e110c65	0.14164884
99	0x3fb72d2e	1.4310663
100	0x3fd5734f	1.6675814
101	0x3ee67258	0.45009112
102	0x3f0bc508	0.5459752
103	0x3fe3f5d3	1.7809395
104	0x400e814e	2.2266421
105	0xbeb7e5a6	-0.35917395
106	0x400eb207	2.229616
107	0x3fe5e91d	1.7961766
108	0xbf43aa08	-0.7643132
109	0x3f926220	1.1436195
110	0x3ed7da55	0.42158762
111	0x3e5b7461	0.21431114
112	0xbe346b49	-0.17619051
113	0x3f9b1e1a	1.2118561
114	0x3f8de55f	1.1085624
115	0x3fb9698f	1.4485339
116	0x3fc4615d	1.5342213
117	0x3d590249	0.052980695
118	0xbf293e47	-0.6611065
119	0xbf1f5a85	-0.62247497
120	0x3e654c44	0.22392374
121	0xbe71a0e4	-0.23596531
122	0xbee4531e	-0.44594663
123	0x3d4b6c09	0.049663577
124	0xbeaa199e	-0.3322267
125	0x3dc3ba14	0.09556976
126	0xbe84270d	-0.25811043
127	0x3eb3ca4c	0.35115278
128	0x3ebab60b	0.36467013
129	0xbf2f8e76	-0.68576753
130	0x3d8e246d	0.069405414
131	0x3e47a9d9	0.19498385
132	0xbeb94d6f	-0.3619189
133	0xbf8fcdc3	-1.1234668
134	0xbf49409d	-0.7861422
135	0xbf9bb8ba	-1.2165749
136	0xc0035cac	-2.0525312
137	0xbf4e297f	-0.8053207
138	0xbfd97955	-1.6990153
139	0xbdac3f7b	-0.084105454
140	0x3e2475d7	0.16060577
141	0x401b7e4b	2.4295833
142	0xbe5bc4cb	-0.2146179
143	0xbfaeba13	-1.3650535
144	0xbef0b798	-0.4701507
145	0xbf1a71d8	-0.6032996
146	0xbe12d9c8	-0.1434089
147	0xbedc0656	-0.42973584
148	0x4010f860	2.2651596
149	0xbeae5e3e	-0.34056276
150	0xbf0d3b4a	-0.5516859
151	0xbf34c5c7	-0.70614284
152	0x3f6cf7c6	0.9256557
153	0x3fd98918	1.6994963
154	0x3ee41657	0.44548294
155	0x3fc36d46	1.5267723
156	0xbef72643	-0.4827138
157	0xbeda598e	-0.4264645
158	0x3f327995	0.6971677
159	0xbf8a84c2	-1.0821764
160	0x3f0cfd4c	0.55074
161	0x3fb32a22	1.3997233
162	0x3fa4c180	1.2871552
163	0xbe86ad95	-0.26304308
164	0x3eec271e	0.46123594
165	0xbff98a04	-1.9495244
166	0x3fa00bde	1.2503622
167	0x3f305348	0.6887708
168	0xbe01802f	-0.12646554
169	0xbeecdab7	-0.46260616
170	0xbed692a2	-0.41908747
171	0xbf34eb97	-0.7067198
172	0x3f510dd4	0.81661725
173	0x3e63da5c	0.22251266
174	0x400ced26	2.2019744
175	0xbedc64ee	-0.43045753
176	0x3f1642be	0.5869559
177	0xbe44aa2d	-0.19205542
178	0x3f13db05	0.5775607
179	0x3f85597c	1.0417933
180	0x3ee17433	0.44033965
181	0x3f52b8c7	0.823132
182	0xbf4d0f98	-0.8010192
183	0x3f7847cf	0.9698457
184	0x3e904fdc	0.28185928
185	0xbf4c9359	-0.79912335
186	0xc02466c2	-2.5687718
187	0xbf5fc1b3	-0.87404937
188	0xbfbac533	-1.459143
189	0xbfcfa6c0	-1.6222763
190	0xbe5bfee6	-0.21483955
191	0x3e843b80	0.25826645
192	0xbf1dbe0e	-0.61618125
193	0xbf9239dd	-1.1423908
194	0xbf906670	-1.1281261
195	0xbf36734f	-0.71269697
196	0xbf510a47	-0.81656307
197	0x3f2c7e8a	0.67380583
198	0xbf0f1d6f	-0.5590429
199	0xbeec2723	-0.4612361
200	0x4008d608	2.1380634
201	0x3fda1840	1.703865
202	0x3fc40a29	1.5315601
203	0xbd2a97ee	-0.041648798
204	0x3e88a05b	0.26684842
205	0x402df22f	2.7179067
206	0x3fedece1	1.8587915
207	0x3eacc6c4	0.33745396
208	0x3fbb1d77	1.4618367
209	0x3f8bbb41	1.091652
210	0xbe729244	-0.23688608
211	0x3ef1dbd9	0.47238043
212	0x3ec6b6a2	0.38811213
213	0xbfa8f765	-1.3200499
214	0xbd8c6046	-0.068543
215	0xbed16706	-0.40898913
216	0x3fdc1a4a	1.7195523
217	0xc006e03f	-2.107437
218	0x3f0f0683	0.5586931
219	0xbc863805	-0.016384134
220	0xbee4b593	-0.4466978
221	0x3fc28f96	1.5200069
222	0x40051ca7	2.0798738
223	0xbf30bc7c	-0.69037604
224	0x3e0c56c3	0.13704972
225	0xbed9d46a	-0.42544872
226	0x3ea5b05f	0.32361123
227	0xbe39b26f	-0.18134473
228	0xbe47cf1b	-0.19512598
229	0x3efa4545	0.48880973
230	0x3fc831e3	1.5640224
231	0x3e74ce4d	0.23906823
232	0xbdeecb71	-0.11659897
233	0x3fc4c95a	1.5373948
234	0xbf437156	-0.7634481
235	0x3d93c37b	0.07215019
236	0x3fa0d1f4	1.2564073
237	0xc02313e8	-2.54809
238	0xbf17542c	-0.5911281
239	0x3ea738b5	0.32660452
240	0xbfd42c4c	-1.6576018
241	0x3f1dd13d	0.616474
242	0xbe977d5e	-0.29587835
243	0xbf38c3c3	-0.7217371
244	0xbfe8cd0a	-1.8187573
245	0xbeb1c224	-0.3471843
246	0x402e3923	2.7222373
247	0xbeed4e8c	-0.4634899
248	0x3eb9b309	0.36269405
249	0xbeeeb815	-0.46624818
250	0xbf9e4bfd	-1.236694
251	0xbf41735e	-0.7556666
252	0x3fc07687	1.5036172
253	0x3fe288a1	1.7697946
254	0xbe3c4574	-0.1838587
255	0x3e7ea859	0.24868907

gamma f4 [64]
0	0x3fac2bdd	1.3450886
1	0x3f987905	1.1911932
2	0x3f503c5d	0.8134211
3	0x3f8ebc0e	1.115114
4	0x3fb7f79a	1.4372437
5	0x3e96ea4d	0.29475632
6	0x3fcd238f	1.6026477
7	0x3f2b9969	0.6703096
8	0x3f01e4b5	0.50739604
9	0x3ff3e4dc	1.9054217
10	0x3f4a1ceb	0.78950375
11	0xbd5713e0	-0.05250919
12	0x3fe5013a	1.7890999
13	0x3f1e4442	0.61822903
14	0x3fa0c3dc	1.2559772
15	0x3f6a1f56	0.91454065
16	0x3fdfe646	1.7492149
17	0x3f27d7d8	0.65563726
18	0x3f96e0fc	1.178741
19	0x3eb29218	0.34877086
20	0x3fafc4af	1.3731898
21	0x3f5c4cd2	0.8605472
22	0x3fa1865f	1.2619132
23	0x3f099ed4	0.5375798
24	0x3f953c7e	1.1659086
25	0x3f514e89	0.8176046
26	0x3fa5db40	1.2957535
27	0x3f3d2b62	0.7389432
28	0x3fa92028	1.3212938
29	0x3f60f9ed	0.87881356
30	0x3f749a21	0.9554768
31	0x3f8e285d	1.1106068
32	0x3fa9117d	1.3208462
33	0x3f1f74a3	0.6228735
34	0x3f4bfbe6	0.7968124
35	0x4006f007	2.1084
36	0x3fd0b094	1.6303887
37	0x3fb4ef5b	1.4135545
38	0x3f0f78d1	0.56043726
39	0x3fe4b7cf	1.7868594
40	0x3fb99164	1.4497495
41	0x3fa17f46	1.2616966
42	0x40099f73	2.150357
43	0x3f332cab	0.6999003
44	0x3f91b74b	1.1384062
45	0x3f93daf9	1.15512
46	0x3f944c73	1.158583
47	0x3f85782b	1.0427297
48	0x3fdb20be	1.7119367
49	0x3fb4d1e1	1.412655
50	0x3f5b42ed	0.85648996
51	0x3f858b82	1.04332
52	0x3fc66efe	1.5502622
53	0x3fb6b162	1.4272883
54	0x3fbf5864	1.494885
55	0x3fc78234	1.558661
56	0x3f3c3125	0.7351249
57	0x3f920f12	1.1410849
58	0x3f2ee038	0.6831088
59	0x3f82cd68	1.0218935
60	0x3f0dbc0c	0.5536506
61	0x3f52c38c	0.8232963
62	0x3fb2a849	1.3957607
63	0x3f747790	0.9549494

beta f4 [64]
0	0xbe397729	-0.18111862
1	0x3b8a3b7c	0.004218517
2	0x3f2a0bfd	0.6642454
3	0xbf55c51f	-0.8350391
4	0x3e8b4b85	0.27206054
5	0xbf32c68f	-0.69834226
6	0x3b87412d	0.0041276426
7	0xbf513225	-0.8171714
8	0xbf39607d	-0.72412854
9	0x3e098391	0.13429095
10	0xbf93deb0	-1.1552334
11	0x3e1c96dc	0.15291923
12	0x3c75ff8a	0.015014539
13	0xbf83d418	-1.0299101
14	0xbe43f9a0	-0.19138193
15	0xbdcf4680	-0.10120869
16	0x3e438681	0.19094278
17	0xbe989292	-0.29799324
18	0xbed885ff	-0.4228973
19	0xbee98621	-0.45610145
20	0x3c4d7983	0.012541178
21	0xbea2cc18	-0.31796336
22	0x3d37bc11	0.04485709
23	0xbf210ce5	-0.629103
24	0x3d82c9af	0.06386124
25	0x3dd8d843	0.10588124
26	0x3f0593e0	0.52178764
27	0xbf32a174	-0.6977761
28	0x3f11af03	0.5690767
29	0xbefefd10	-0.49802446
30	0xbe3dde67	-0.18541871
31	0x3dc51ccf	0.096246354
32	0xbd89e0c2	-0.06732322
33	0xbec4a3cc	-0.38406217
34	0xbc4c04cf	-0.012452318
35	0x3e8c233b	0.2737063
36	0x3f0e0285	0.55472594
37	0xbf06fd69	-0.52730423
38	0x3eb9b33f	0.36269566
39	0x3f13ad11	0.57685953
40	0xbda1c2fd	-0.07898519
41	0x3e156188	0.14587986
42	0x3f712c07	0.94207805
43	0x3f2885fb	0.6582944
44	0xbebbed89	-0.36704662
45	0xbf2623bf	-0.64898294
46	0xbebe4079	-0.37158564
47	0xbe9243f8	-0.2856748
48	0x3e00ffb3	0.12597542
49	0x3dac5845	0.084152736
50	0xbe758a0d	-0.23978443
51	0xbe4bd685	-0.19906051
52	0x3dddef65	0.108366765
53	0xbefaff9a	-0.49023134
54	0x3f10282c	0.563113
55	0x3f1fb95c	0.6239221
56	0xbf226dfe	-0.63449085
57	0x3d8ff8cc	0.07029876
58	0xbf3084e0	-0.6895275
59	0xbebe003c	-0.37109554
60	0xbf06b051	-0.5261279
61	0xbf3936e2	-0.7234937
62	0x3c0dfd29	0.008666315
63	0x3ef4f916	0.47846287

running_mean f4 [1, 64, 1, 1]
0	0x422eb226	43.673973
1	0xc0d674bb	-6.7017493
2	0xc21ccb76	-39.198692
3	0x412eec11	10.932633
4	0xc06026ab	-3.50236
5	0xc1661058	-14.37899
6	0x41583da0	13.515045
7	0xc21515d6	-37.271324
8	0xc23ea2ce	-47.65899
9	0x4194fe7c	18.62426
10	0xc205cb2a	-33.448402
11	0xc14131bc	-12.074642
12	0x40f4d1ea	7.6506243
13	0x41837fad	16.437342
14	0x41e40488	28.502213
15	0x412b8034	10.7188
16	0xbeef9cb1	-0.46799234
17	0xc15264a6	-13.149572
18	0x421e4274	39.564896
19	0xc14cd0b7	-12.800956
20	0x420cf80d	35.242237
21	0x41bc61d2	23.547764
22	0x41252c5c	10.32333
23	0xc24e4cf4	-51.57515
24	0xc1e3991e	-28.449764
25	0xc2510e58	-52.264008
26	0xc132fcfa	-11.186762
27	0xc285012c	-66.50229
28	0xc1e2cc56	-28.349773
29	0x4219cfc9	38.452915
30	0x3fffc27c	1.9981227
31	0xc118f702	-9.560305
32	0x41a92f83	21.1482
33	0xc2781dff	-62.029293
34	0x412bdd3d	10.741513
35	0x412301fa	10.187983
36	0xc27aa3f4	-62.66011
37	0x41a6c54e	20.84634
38	0xc265bad7	-57.43246
39	0x419d7510	19.68216
40	0x4263b80f	56.929745
41	0x4222b88a	40.680214
42	0x40a41077	5.12701
43	0x41a1f61b	20.245169
44	0x412d5c81	10.835084
45	0x418e0a01	17.754885
46	0x42227d42	40.622322
47	0x41dd5a2b	27.669027
48	0xc0e8a6ca	-7.27036
49	0x42289938	42.149628
50	0xc24d4268	-51.31485
51	0xc1449674	-12.286732
52	0x408830aa	4.2559404
53	0xc267c4e2	-57.94227
54	0xc080cd36	-4.02505
55	0x4249a28a	50.40873
56	0xc1987994	-19.059364
57	0x41d133bd	26.150263
58	0xc1a376db	-20.433035
59	0x41ca0ffc	25.257805
60	0xc2347c16	-45.121178
61	0xc180393e	-16.02795
62	0x414160b0	12.086105
63	0x41318958	11.096031

running_var f4 [1, 64, 1, 1]
0	0x45298ab4	2712.669
1	0x4595c580	4792.6875
2	0x44b7beea	1469.9661
3	0x44df6438	1787.1318
4	0x45878a6b	4337.3022
5	0x45efbcf3	7671.6187
6	0x451083a7	2312.2283
7	0x44cfee4d	1663.4469
8	0x448e79c7	1139.8055
9	0x4589323e	4390.2803
10	0x44b9a4d6	1485.1511
11	0x44f38c46	1948.3835
12	0x452a1c8b	2721.784
13	0x44fdaa70	2029.3262
14	0x4480868c	1028.2046
15	0x456cc21d	3788.132
16	0x45961be3	4803.486
17	0x44d34ca7	1690.3954
18	0x44b36e1e	1435.4412
19	0x454e25d5	3298.3645
20	0x44a5a1f3	1325.0609
21	0x44546015	849.5013
22	0x44e00a23	1792.3168
23	0x45259a3a	2649.6392
24	0x454e0998	3296.5996
25	0x442bc57c	687.0857
26	0x45700292	3840.1606
27	0x458c1d74	4483.6816
28	0x45cd5025	6570.018
29	0x45d19a6f	6707.304
30	0x45f9f6f3	7998.8687
31	0x44c789cc	1596.3062
32	0x44bc4ba4	1506.3638
33	0x44e9b08f	1869.5175
34	0x450cf639	2255.389
35	0x45d1673f	6700.906
36	0x44a9c452	1358.135
37	0x44e05a86	1794.8289
38	0x44b13aea	1417.8411
39	0x4592e1fc	4700.248
40	0x44ad7b9a	1387.8625
41	0x4513aef3	2362.9343
42	0x45618fcb	3608.987
43	0x45bd9516	6066.6357
44	0x448d0f02	1128.469
45	0x44b855c3	1474.68
46	0x4489acd3	1101.4008
47	0x4488aeee	1093.4666
48	0x455fdd43	3581.8289
49	0x44b5bdb6	1453.9285
50	0x452ec793	2796.4734
51	0x4564e7ce	3662.4878
52	0x45abbfbf	5495.9683
53	0x45ea629a	7500.325
54	0x4519dbba	2461.733
55	0x45bfbacd	6135.35
56	0x449568cd	1195.275
57	0x45045fcc	2117.9873
58	0x451320e6	2354.0562
59	0x45877252	4334.29
60	0x44888bdc	1092.3706
61	0x446a7e0b	937.9694
62	0x4457461a	861.09534
63	0x4549647b	3222.28

weight f4 [128, 64, 3, 3]
0	0xbf6feff9	-0.93725544
1	0x3ba87dae	0.0051419353
2	0xc00e3cc4	-2.2224588
3	0xc00f315f	-2.2373884
4	0xbff25be3	-1.8934292
5	0xc053c123	-3.3086631
6	0xbfb315c2	-1.3991015
7	0xc01d836c	-2.4611464
8	0xc031c716	-2.7777762
9	0xbf602b56	-0.87566125
10	0x3ec7b89b	0.3900803
11	0x3f4eb7b1	0.8074904
12	0xbf3b2f89	-0.7311941
13	0x3f5c97c9	0.86169106
14	0x3f8d05c1	1.1017381
15	0x401a5604	2.4115
16	0xbf564cf3	-0.83711165
17	0xbfae3e35	-1.3612734
18	0x3faf8456	1.3712261
19	0x3f8a947e	1.0826566
20	0x3f3a5082	0.72779095
21	0x3f9aea7c	1.2102809
22	0x40078452	2.1174512
23	0x3fbd668b	1.4796919
24	0x3e40defa	0.18835059
25	0x40182070	2.3769798
26	0x3f3e95c2	0.7444726
27	0x3eae4f2b	0.34044775
28	0x3fe44915	1.7834803
29	0xbf63be69	-0.8896242
30	0xbf7a8c3e	-0.9787024
31	0xbf4cd805	-0.8001712
32	0xbefbd740	-0.4918766
33	0x4007e105	2.123109
34	0xbf54f602	-0.8318788
35	0x3faf7eb7	1.3710545
36	0x3f335aae	0.7006024
37	0x3c27663e	0.0102172475
38	0x4000266f	2.0023458
39	0x3ed3f76d	0.41399708
40	0x3fb30695	1.3986384
41	0x3fb56868	1.4172487
42	0x3f1991f0	0.5998831
43	0x3fb7bfd7	1.435542
44	0x407a35b9	3.909529
45	0x3f5a019d	0.8515871
46	0xbe541ef6	-0.20714936
47	0xbd8fa7a9	-0.070144005
48	0x3f7a645c	0.97809386
49	0xbf16141c	-0.58624434
50	0xbf9e0a2e	-1.2346857
51	0x3e164ac3	0.14676957
52	0xbf9f23de	-1.2432821
53	0x3fc6c8c0	1.5530014
54	0xbebaa32c	-0.36452615
55	0xbfa23c26	-1.2674606
56	0xbffb8574	-1.9650102
57	0xbf701323	-0.937792
58	0x3f75af37	0.9597048
59	0x3fa1b60e	1.2633684
60	0x3fab308c	1.337419
61	0xbd4d12d3	-0.05006678
62	0xbeedcece	-0.46446842
63	0xbf5f35b0	-0.87191296
64	0xbfb813af	-1.4381007
65	0x3f7917a9	0.9730173
66	0xbee72182	-0.45142752
67	0xbeb1769b	-0.346608
68	0xbfb58109	-1.4180003
69	0xbf63ebd2	-0.8903171
70	0xbf99e54c	-1.2023101
71	0xbf9e7936	-1.2380741
72	0xbf368231	-0.71292406
73	0xbdfea5e5	-0.124339856
74	0xbf9976c7	-1.1989373
75	0x3f4c0e79	0.79709584
76	0xbf1485ef	-0.58016866
77	0xbf5f5b65	-0.8724883
78	0xbe460805	-0.19338997
79	0x3f87334a	1.0562527
80	0xbf2ae0cd	-0.6674927
81	0xbf9b41b1	-1.2129422
82	0xbd892a3e	-0.0669751
83	0x40134bff	2.3015134
84	0xbf0be8ae	-0.54651916
85	0xbf9676bd	-1.1754986
86	0x3f18dd6b	0.59712857
87	0x3e9f831a	0.3115471
88	0x3edc0f34	0.4298035
89	0x3eeab81f	0.45843598
90	0xbf6e117c	-0.9299543
91	0xbf731f95	-0.94970065
92	0x3e94bfae	0.2905249
93	0xbf92d446	-1.1471031
94	0x3e0d4426	0.13795528
95	0x3f28db80	0.6595993
96	0x3eb762fe	0.35817713
97	0xbfed17ab	-1.8522848
98	0x3f840c38	1.0316229
99	0xbf6bfe70	-0.92185116
100	0x3f8846f5	1.0646654
101	0x3f65e75c	0.8980615
102	0xbf127012	-0.57202256
103	0x3f8d1cfd	1.1024472
104	0x4011ad4f	2.276203
105	0x3ffebf5d	1.990215
106	0x3f83bc85	1.0291907
107	0x3fdfc4d2	1.748194
108	0xbeaa68f6	-0.33283204
109	0xbf1ca81b	-0.6119401
110	0x3ede7d5a	0.4345501
111	0x3faf7e35	1.371039
112	0xbd529cc7	-0.051419046
113	0xbe0128d6	-0.12613234
114	0x3f16972b	0.58824414
115	0x4056c1e3	3.355584
116	0x3f91d3c5	1.1392752
117	0xc0004fd3	-2.004872
118	0xbe185c00	-0.14878845
119	0x3ffc53c1	1.971306
120	0xbebcfc2a	-0.36911136
121	0x3ebaff99	0.3652313
122	0x3e40b89b	0.18820421
123	0xbf0ed27d	-0.5578993
124	0x3f9d33ca	1.228143
125	0x4026c407	2.6057146
126	0xbf7aef2d	-0.98021203
127	0xbf8e5571	-1.1119825
128	0xbfa125de	-1.2589681
129	0xc029f856	-2.6557822
130	0xc028274d	-2.6273987
131	0xbf108aef	-0.56461996
132	0xbe482b0a	-0.19547668
133	0xbfc95f11	-1.5732137
134	0xc034bcc3	-2.824021
135	0xbf3c10dd	-0.7346323
136	0xbee32d63	-0.44370565
137	0x3f501e97	0.81296676
138	0xbf63b49a	-0.8894745
139	0xbe250cad	-0.16118117
140	0x3f2e3923	0.68055934
141	0x3d79e9e7	0.061014082
142	0x3e815438	0.25259566
143	0x3f969733	1.1764892
144	0x40004d7b	2.004729
145	0x3fc73c44	1.5565267
146	0x3de867fb	0.11347958
147	0x400d2db3	2.2059143
148	0x3efe9374	0.49721873
149	0x40009187	2.0088823
150	0x3fc81358	1.5630903
151	0x3fb0f139	1.3823615
152	0x3f423c76	0.75873506
153	0xc00414c8	-2.0637684
154	0xc0414667	-3.019922
155	0xc048ca40	-3.1373444
156	0xc01f2a6f	-2.486965
157	0xbfb4b2ae	-1.4117029
158	0xbf877aaf	-1.0584315
159	0xbf453cb9	-0.7704578
160	0xc02aa5cc	-2.6663694
161	0xc003a80b	-2.0571315
162	0xbfbb4346	-1.4629905
163	0xc0113302	-2.2687383
164	0x3f0a6b5e	0.5407008
165	0xc0701b84	-3.7516794
166	0xc00515cf	-2.079456
167	0x3f3dad7d	0.7409285
168	0x3d92b78a	0.071639135
169	0xbfde1f57	-1.7353314
170	0xbfde2966	-1.7356384
171	0x3ea20cce	0.31650394
172	0xbf040016	-0.5156263
173	0xbeecea5d	-0.46272555
174	0xbea9b16d	-0.33143178
175	0xbf2fedb3	-0.68722075
176	0xbfd2dc59	-1.6473495
177	0x3fb3ee39	1.4057075
178	0x3ef7b8da	0.48383218
179	0xbd97c53b	-0.074106656
180	0xbf446047	-0.7670941
181	0xbea0862c	-0.31352365
182	0xc055849a	-3.3362184
183	0xc02294ba	-2.5403275
184	0x3ed27541	0.41105083
185	0xc058a342	-3.3849645
186	0xbf2d9cfe	-0.67817676
187	0xbf964ed3	-1.1742805
188	0xbf727e09	-0.94723564
189	0xbfa93860	-1.3220329
190	0xbdf632b3	-0.12021389
191	0xbf4677bb	-0.77526444
192	0x3e741cca	0.23839107
193	0xbf98572a	-1.19016
194	0xbeae8103	-0.34082803
195	0xbe66315a	-0.22479764
196	0x3e2235d6	0.1584085
197	0x3e41ac95	0.18913491
198	0xbfb5bcea	-1.4198277
199	0xbfb7bccf	-1.4354495
200	0xc036c2b0	-2.8556328
201	0x3f09323b	0.5359227
202	0xbf753ac3	-0.9579279
203	0xbf21310d	-0.6296547
204	0xc006c208	-2.1055927
205	0xc02113ba	-2.516829
206	0xc03173a1	-2.7726824
207	0x3ea5ec4d	0.32406846
208	0xbfaa7556	-1.3317058
209	0x3f032a39	0.512363
210	0xbedd494d	-0.43219987
211	0xbf6e349a	-0.93049014
212	0xbf47a851	-0.77991205
213	0x3f7d5ff6	0.9897455
214	0x3fbad879	1.4597312
215	0xbccf5dbf	-0.025313256
216	0x3efb3003	0.49060068
217	0xbd88d592	-0.0668136
218	0xbf0d6100	-0.55226135
219	0x3ff97b94	1.9490838
220	0x3f4184c6	0.7559322
221	0x40039476	2.0559363
222	0x3f8cc10b	1.0996412
223	0x3f495764	0.7864897
224	0x3fd8d7da	1.6940873
225	0x3fe0370c	1.7516799
226	0x3fce2739	1.610572
227	0xbea39a93	-0.31953868
228	0x400cb66e	2.1986346
229	0xbf41dc2c	-0.7572658
230	0x3fca7cd4	1.5819345
231	0x3e9d9792	0.307797
232	0xbdaa634d	-0.08319721
233	0x3f36f339	0.7146488
234	0xbe7b2b4a	-0.24528232
235	0x3dfe5ebe	0.124204144
236	0x401e17e4	2.4702082
237	0xbee04732	-0.43804318
238	0x3cb04a68	0.021519855
239	0x3f8ba0f2	1.0908492
240	0xbe9588bd	-0.29205886
241	0xbe45f388	-0.19331181
242	0x4037abcf	2.8698614
243	0xbe9f8799	-0.3115814
244	0xbe7cf419	-0.24702491
245	0xbf74a00c	-0.9555671
246	0x3f0548d2	0.5206424
247	0x3e8f4682	0.2798348
248	0xbdc33d80	-0.095332146
249	0x3e8be4cf	0.27323005
250	0x3e8d05eb	0.27543578
251	0xbea932aa	-0.33046466
252	0xbf40aba4	-0.752619
253	0xc0110d11	-2.2664225
254	0xbed23ee4	-0.41063607
255	0xc03f2c98	-2.9870968

gamma f4 [128]
0	0x3ee6de34	0.45091403
1	0x3fb5c29f	1.4200019
2	0xbe90c0fe	-0.2827224
3	0x3ef2a28b	0.47389635
4	0x3ff7dd48	1.9364405
5	0x3f036cce	0.513379
6	0x3f0da7fe	0.5533446
7	0x3f10a7a9	0.5650583
8	0xbeae7c96	-0.34079427
9	0x3efc0a84	0.49226773
10	0x400879ab	2.132426
11	0x3f0a2a50	0.53970814
12	0x3dd54dfa	0.104152635
13	0xbd9627e9	-0.07331831
14	0x3ed463fd	0.41482535
15	0x3d827526	0.063700005
16	0xbed3493d	-0.41266814
17	0x3fb82357	1.4385785
18	0x3cb07dcd	0.021544361
19	0x3fb4d31d	1.4126927
20	0xbf2f6f99	-0.6852966
21	0x3fac7133	1.3472046
22	0x3e34e8a3	0.17666869
23	0xbec01f61	-0.3752394
24	0x3ee42f3f	0.44567296
25	0x3f8b28e0	1.0871849
26	0xbee90d89	-0.4551814
27	0x3f00a119	0.50245816
28	0x3f8e800c	1.1132827
29	0x3f8f0871	1.1174451
30	0x3e0bfce1	0.13670684
31	0xbe5abb9c	-0.2136063
32	0x3f2e6091	0.681161
33	0x3f055a53	0.5209095
34	0x3f76f5be	0.9646872
35	0x3f4ee458	0.80817175
36	0x3d0249cc	0.03180866
37	0x3fa990c3	1.3247303
38	0x3ec07d86	0.37595767
39	0xbe86a2e4	-0.2629615
40	0x3f93b13b	1.1538461
41	0x3ee4f1ac	0.4471563
42	0x3ee37a0e	0.44429058
43	0xbe8c8bc8	-0.27450395
44	0xbe4ace2e	-0.19805214
45	0x3f004a62	0.501135
46	0xbd96c5c9	-0.07361943
47	0x3f7a0157	0.97658294
48	0xbe902538	-0.28153396
49	0x3e99dc3c	0.30050838
50	0xbee56aac	-0.44807947
51	0x3f953dd9	1.16595
52	0x3f601b12	0.87541306
53	0x3ce2460f	0.027621297
54	0x3ebdb767	0.37053987
55	0x3f97cd8d	1.1859604
56	0x3fa054cb	1.2525877
57	0x3f4af3f9	0.7927852
58	0xbee59bdf	-0.44845483
59	0x3e985bcb	0.29757532
60	0x3f973715	1.1813685
61	0x3f96977b	1.1764978
62	0x3eef4c95	0.46738115
63	0x3f2a19e8	0.6644578
64	0xbf09fdce	-0.539029
65	0x3ff4a6a6	1.9113357
66	0x3f55c5b9	0.83504826
67	0x3f92fc64	1.1483274
68	0x3ec0b882	0.37640768
69	0x3faacedf	1.3344382
70	0xbc5eecd2	-0.013606267
71	0x3fdf913c	1.7466197
72	0x3edcd360	0.43130016
73	0x3edbe42a	0.42947513
74	0x3f90aff4	1.1303697
75	0xbdb78d2a	-0.08962472
76	0x3e9efb66	0.31051177
77	0x3ef8bf69	0.48583534
78	0xbe320f3a	-0.17388621
79	0xbdcb58bb	-0.09929033
80	0x3fb7a3b5	1.4346834
81	0x3fa305f9	1.2736198
82	0xbebf4ef3	-0.3736492
83	0x3f8e07eb	1.1096166
84	0x3fae3515	1.3609949
85	0xbc48d915	-0.012258788
86	0x3f60b65d	0.87778264
87	0xbec230fa	-0.3792799
88	0x3fd084be	1.629051
89	0xbda27b7a	-0.079337075
90	0x3f9f32a1	1.2437326
91	0xbc6342de	-0.013870923
92	0x3faf4a1d	1.3694493
93	0x3fadb80f	1.3571795
94	0x3faf8e33	1.3715271
95	0x3eb2916d	0.34876576
96	0x3e549eeb	0.20763747
97	0x3f592d81	0.8483506
98	0x3fcc1151	1.5942785
99	0x3f3b600a	0.7319342
100	0x3f979c94	1.1844659
101	0x3faceba1	1.3509408
102	0x3eed60b0	0.4636283
103	0x3f208db0	0.627162
104	0x3e7fd894	0.24984962
105	0x3e84e1e4	0.2595359
106	0x3f15e1f4	0.585479
107	0x3fac9349	1.3482448
108	0x3fe0618b	1.7529768
109	0xbd42e65f	-0.04758298
110	0xbd70aca7	-0.058758404
111	0xbef1a519	-0.47196272
112	0x3edbdfee	0.42944282
113	0x3f157985	0.5838855
114	0x3e948eb3	0.2901512
115	0x3f97ea70	1.186842
116	0x3f97f9dc	1.1873126
117	0x3f1063ae	0.564021
118	0xbecc94e6	-0.3995735
119	0x3e8cf50b	0.27530703
120	0x3f7f3ef0	0.9970541
121	0x3f14cea5	0.58127815
122	0x3ce43abd	0.02786004
123	0x3fa85db1	1.3153592
124	0x3f17a0bb	0.5922963
125	0x3f982f45	1.1889426
126	0x3f27545b	0.6536309
127	0x3face8ed	1.3508583

beta f4 [128]
0	0xbf28f04b	-0.6599166
1	0x3f1a7ece	0.6034974
2	0xbf9a1a70	-1.2039318
3	0xbea2fe34	-0.31834567
4	0xbed0dc26	-0.4079296
5	0xbf015575	-0.5052102
6	0xbf1e0144	-0.6172068
7	0xbf083abf	-0.5321464
8	0xbf98bc26	-1.1932418
9	0xbf158878	-0.5841136
10	0x3f3cebd9	0.73797375
11	0xbf251523	-0.6448538
12	0xbf4c2c42	-0.7975503
13	0xbf4b6288	-0.7944722
14	0xbf2c102a	-0.67212164
15	0xbf505de1	-0.8139325
16	0xbfc224a5	-1.5167433
17	0x3f30e483	0.6909868
18	0xbf18128a	-0.5940329
19	0x3f17f11b	0.5935227
20	0xbfc18dcc	-1.5121398
21	0x3ef7892d	0.48346844
22	0xbf19aad6	-0.600263
23	0xbfa07032	-1.2534239
24	0xbf199759	-0.59996563
25	0x3f3d98d0	0.740613
26	0xbfa12a29	-1.2590991
27	0xbf0a208f	-0.5395593
28	0x3f1446a3	0.57920283
29	0x3e818a4c	0.25300825
30	0xbf7ee2c5	-0.9956477
31	0xbf821f56	-1.0165813
32	0xbe3b7f2e	-0.18310234
33	0xbf0b1911	-0.54335123
34	0xbe36b072	-0.17840746
35	0x3f49908d	0.7873619
36	0xbf2a80c7	-0.6660275
37	0x3f159476	0.5842966
38	0xbf0677f9	-0.52526814
39	0xbf72df17	-0.9487166
40	0x3e60e059	0.21960582
41	0xbf0a3855	-0.53992206
42	0xbeea729d	-0.45790568
43	0xbf58d6df	-0.8470287
44	0xbf90296f	-1.1262645
45	0xbed0b28d	-0.40761223
46	0xbf3b8c23	-0.73260707
47	0xbdf422d5	-0.11920706
48	0xbfb3b612	-1.4039938
49	0xbf3a6af5	-0.72819453
50	0xbfb975d7	-1.4489087
51	0x3ebd935f	0.37026498
52	0xbe9831a6	-0.2972538
53	0xbf40a1af	-0.7524671
54	0xbf39ee11	-0.72628886
55	0x3f2d964e	0.6780747
56	0x3d7b93cf	0.061420258
57	0xbe7592f1	-0.23981835
58	0xbfaa4f47	-1.3305444
59	0xbf53dc72	-0.8275825
60	0x3e9c92b2	0.3058067
61	0x3e957811	0.29193166
62	0xbeed5253	-0.4635187
63	0xbed4a6f5	-0.41533628
64	0xbf9de866	-1.2336547
65	0x3f5315e3	0.8245527
66	0xbea3886e	-0.31940025
67	0x3f62d172	0.8860084
68	0xbf359589	-0.709313
69	0x3ede48ec	0.4341501
70	0xbf4bc20e	-0.7959298
71	0x3f470037	0.777347
72	0xbeeff97e	-0.46870035
73	0xbefbabfa	-0.49154645
74	0xbd07f749	-0.033194814
75	0xbf6b9d0e	-0.9203652
76	0x3f8413a3	1.0318493
77	0xbf15cbf7	-0.5851435
78	0xbf8a9278	-1.0825949
79	0xbf700038	-0.93750334
80	0x3f671217	0.9026198
81	0x3e950a70	0.29109526
82	0xbfa7927e	-1.3091581
83	0x3f6a95a7	0.916346
84	0x3f4855d3	0.7825596
85	0xbf9a4413	-1.2052025
86	0xbee33334	-0.44375002
87	0xbf94149d	-1.1568791
88	0x3f2e2e4b	0.6803939
89	0xbf6caa38	-0.92447233
90	0x3f4fc0dd	0.8115366
91	0xbfa1136d	-1.2584053
92	0x3f0f10b3	0.55884856
93	0x3ea03052	0.31286865
94	0x3f15a050	0.5844774
95	0xbf4c89df	-0.79897875
96	0xbf102ec3	-0.5632135
97	0x3ec44c74	0.3833958
98	0x3ea124bf	0.31473348
99	0xbeded851	-0.4352441
100	0x3f34e624	0.70663667
101	0x3f6f4616	0.9346632
102	0xbf0079b2	-0.5018569
103	0xbeca910d	-0.3956379
104	0xbf029439	-0.5100742
105	0xbf73103a	-0.94946635
106	0xbed2cd29	-0.4117215
107	0x3f613307	0.87968487
108	0x3f2ebb4e	0.68254554
109	0xbf720b23	-0.94548243
110	0xbf597fc6	-0.8496059
111	0xbf2df7fe	-0.6795653
112	0xbef9a30c	-0.48757207
113	0xbeef36e0	-0.46721554
114	0xbf391ceb	-0.7230975
115	0x3e8d8dbc	0.27647197
116	0x3ecd39d3	0.4008318
117	0xbee599a5	-0.44843784
118	0xbfa6b90e	-1.3025224
119	0xbf87954d	-1.0592438
120	0x3f040af8	0.51579237
121	0xbee05102	-0.43811804
122	0xbf39ec61	-0.7262631
123	0x3f4f4160	0.8095913
124	0xbe764a42	-0.24051765
125	0xbdcc86a7	-0.099866204
126	0xbe860ab0	-0.2618003
127	0x3f0201ff	0.50784296

running_mean f4 [1, 128, 1, 1]
0	0xc2944d46	-74.150925
1	0xc2b6c410	-91.382935
2	0xc32b0cc5	-171.04988
3	0xc101bafa	-8.108149
4	0x42477e7e	49.873528
5	0xc20cf3f1	-35.238224
6	0x40397668	2.897852
7	0xc26cd740	-59.210205
8	0x4136b0ee	11.418196
9	0x429fe6ef	79.95104
10	0x4252c26d	52.68987
11	0xc2e0d07a	-112.40718
12	0xc29444d0	-74.1344
13	0xc05976eb	-3.3978832
14	0x419ab3d8	19.337814
15	0x426ff60e	59.990288
16	0xc1bbd02c	-23.476646
17	0xc281f48f	-64.97765
18	0x4201e653	32.474926
19	0xc24ed231	-51.705265
20	0xc1ff68fb	-31.92626
21	0xc1c9809b	-25.187796
22	0x41909d17	18.076704
23	0xc28f3506	-71.60356
24	0xc285eaca	-66.95857
25	0xc2a752c7	-83.661674
26	0x406318b2	3.5483823
27	0xc23d1804	-47.273453
28	0xc22e5c5a	-43.590187
29	0xc182af4a	-16.33559
30	0x41cf4f91	25.91385
31	0xc0afaad4	-5.489603
32	0xc0cc91c0	-6.3927917
33	0xc28eec89	-71.46198
34	0x417526b5	15.32195
35	0xc3198966	-153.53671
36	0x3f801846	1.0007408
37	0xc15b411a	-13.703394
38	0xc22431ed	-41.048756
39	0xc0ea5b4a	-7.3236437
40	0x4140462c	12.017132
41	0xc23d44ac	-47.317062
42	0xc289b905	-68.86137
43	0x40bf9c37	5.987819
44	0x41d852fc	27.04052
45	0xc27dcb1e	-63.448357
46	0x42325c93	44.590405
47	0x41d9c6c4	27.222054
48	0x42afc4ee	87.88463
49	0x41d6b9c6	26.84071
50	0xc1e9ce3c	-29.2257
51	0xc0308980	-2.7583923
52	0x42a365f2	81.69911
53	0xc1d81db6	-27.014507
54	0xc22d79b3	-43.368847
55	0xc25e21c7	-55.532986
56	0x429ca73a	78.326614
57	0x417fcf71	15.988145
58	0x418455e6	16.541943
59	0x420cd2a2	35.205696
60	0x40864296	4.195628
61	0x41870d17	16.881392
62	0xc2089840	-34.14868
63	0xc2a6db7a	-83.428665
64	0xc2bd372c	-94.60776
65	0x425254f8	52.582977
66	0xc2cb02aa	-101.5052
67	0xc2cf7962	-103.737076
68	0x413b0668	11.689064
69	0xc0f79c8c	-7.7378597
70	0x4207646e	33.848076
71	0x42189ae5	38.151264
72	0xc2962d4a	-75.088455
73	0xc2706d6c	-60.106857
74	0x42733503	60.80177
75	0xc158a23a	-13.539606
76	0xc1b575da	-22.682545
77	0xc24a8ede	-50.63952
78	0xc098e5dc	-4.778059
79	0xbfc9caf9	-1.5765067
80	0xc2f6e194	-123.44058
81	0x424ca26e	51.158623
82	0x40c58a8c	6.1731625
83	0xc25ef39a	-55.737892
84	0xc2eb1e6a	-117.5594
85	0x4266fe20	57.74817
86	0x41c5630c	24.673363
87	0xc10f9e1a	-8.976099
88	0xc303f3fb	-131.95305
89	0xc1f12355	-30.142252
90	0xc29120a2	-72.563736
91	0xc3238dbb	-163.55363
92	0x42e709b4	115.51895
93	0x4143de9d	12.241849
94	0xc21a8392	-38.628487
95	0x4120b76a	10.044779
96	0x409e445d	4.945845
97	0xc21181dc	-36.376816
98	0xc2af5db2	-87.683
99	0xc1e4cc1c	-28.599663
100	0xc22170b4	-40.36006
101	0xc2b21a48	-89.05133
102	0xc28fb47b	-71.8525
103	0xc1de9bd2	-27.826084
104	0x41ddf10f	27.742704
105	0x422ef2dc	43.737167
106	0xc2cc90e8	-102.28302
107	0xc2e51038	-114.53168
108	0xc3072a49	-135.16518
109	0xc1961e9c	-18.764946
110	0x40bd992c	5.9249477
111	0x412c5c6a	10.772562
112	0xc29caea4	-78.341095
113	0xc285745e	-66.72728
114	0x424d136a	51.26896
115	0xc06be43d	-3.6858056
116	0xc22c1e94	-43.02986
117	0xc2b0802e	-88.25035
118	0x41df3170	27.89914
119	0x424b67ea	50.85148
120	0x420e086c	35.508224
121	0xc2b48372	-90.25673
122	0x41f94ba4	31.161934
123	0xc28345f4	-65.63663
124	0xc1daefd2	-27.3671
125	0x40947dbd	4.640349
126	0xc29bd85a	-77.92256
127	0xc304628b	-132.38493

running_var f4 [1, 128, 1, 1]
0	0x47987b8e	78071.11
1	0x469dd5ae	20202.84
2	0x466b8b95	15074.8955
3	0x45ee0ad2	7617.3525
4	0x46cabd62	25950.691
5	0x4564bf18	3659.9434
6	0x44f9dffc	1998.9995
7	0x45696b73	3734.7156
8	0x45ae1e7b	5571.81
9	0x45837019	4206.012
10	0x46a07ddb	20542.928
11	0x477cbbda	64699.85
12	0x45986ebc	4877.842
13	0x457e648c	4070.2842
14	0x45aff7fa	5630.997
15	0x45d51978	6819.1836
16	0x44a855c0	1346.6797
17	0x469824a3	19474.318
18	0x45313fea	2835.9946
19	0x45fbd93c	8059.1543
20	0x4711f214	37362.08
21	0x4562ae3a	3626.8892
22	0x45a38aff	5233.3745
23	0x4795a252	76612.64
24	0x45944497	4744.5737
25	0x468449b6	16932.855
26	0x4633dcb6	11511.178
27	0x452cc409	2764.2522
28	0x46077370	8668.859
29	0x4547d9ab	3197.6042
30	0x46c1e8fe	24820.496
31	0x4601539d	8276.903
32	0x4617a32a	9704.791
33	0x45b14fe3	5673.986
34	0x45513899	3347.5374
35	0x47a3973a	83758.45
36	0x45b4ac1a	5781.5127
37	0x454855ef	3205.3708
38	0x458449ca	4233.2236
39	0x45b497de	5778.9834
40	0x43422377	194.13853
41	0x45462ba5	3170.7278
42	0x45925251	4682.2896
43	0x467897fe	15909.998
44	0x45c97877	6447.058
45	0x4622b01d	10412.028
46	0x45e32d60	7269.672
47	0x4581bebe	4151.843
48	0x46221deb	10375.4795
49	0x4505cc44	2140.7666
50	0x465e47db	14225.964
51	0x4596a213	4820.2593
52	0x4694389b	18972.303
53	0x4581864b	4144.7866
54	0x4562470f	3620.4412
55	0x46388b53	11810.831
56	0x46596ad9	13914.712
57	0x468d192f	18060.592
58	0x45ebaa18	7541.2617
59	0x44d11a74	1672.8267
60	0x4566fe78	3695.9043
61	0x4592a5ad	4692.7095
62	0x453a146e	2977.2769
63	0x46d123bc	26769.867
64	0x45beb7f6	6102.995
65	0x46b1f2d8	22777.422
66	0x45fdcf4d	8121.9126
67	0x46803f00	16415.5
68	0x456ae8c6	3758.5483
69	0x44847e33	1059.9437
70	0x45fc68cd	8077.1
71	0x46749eed	15655.731
72	0x45779f8f	3961.9724
73	0x45685a34	3717.6377
74	0x474060a9	49248.66
75	0x45b3a150	5748.164
76	0x46a211f6	20744.98
77	0x45280a4c	2688.6436
78	0x45c22ee5	6213.862
79	0x458a74db	4430.607
80	0x46e4eb07	29301.514
81	0x44b1d9bc	1422.8042
82	0x461b3dca	9935.447
83	0x45e94880	7465.0625
84	0x46d3cb24	27109.57
85	0x47413597	49461.59
86	0x4784c082	67969.016
87	0x46244d7f	10515.374
88	0x470dca61	36298.38
89	0x454c1ee0	3265.9297
90	0x4677de30	15863.547
91	0x46859f42	17103.629
92	0x47a738d0	85617.625
93	0x455ba0dc	3514.0537
94	0x465a1e3c	13959.559
95	0x45477132	3191.0747
96	0x4430dd4f	707.45795
97	0x46399433	11877.05
98	0x46f6cd10	31590.531
99	0x464e340e	13197.014
100	0x45f0817c	7696.1855
101	0x465cb6cb	14125.698
102	0x4599abd0	4917.4766
103	0x462189f8	10338.492
104	0x447ac37b	1003.0544
105	0x450f52d0	2293.1758
106	0x46c72ffb	25495.99
107	0x46cbf25f	26105.186
108	0x47b8d155	94626.664
109	0x451fa00e	2554.0034
110	0x4606a4d3	8617.206
111	0x448d2c88	1129.3916
112	0x458a2de8	4421.7383
113	0x45f73bc1	7911.469
114	0x45137051	2359.0198
115	0x451772f3	2423.1843
116	0x472b5405	43860.02
117	0x467a23ca	16008.947
118	0x461af564	9917.348
119	0x452247c7	2596.486
120	0x449f8fd9	1276.4952
121	0x46649ddc	14631.465
122	0x4563fb63	3647.7117
123	0x4656b436	13741.053
124	0x4623c94c	10482.324
125	0x45ea6996	7501.198
126	0x458a4166	4424.175
127	0x471b7029	39792.16

weight f4 [2, 128]
0	0x3e7da967	0.24771653
1	0x3ef3bfdf	0.47607324
2	0xbe25c326	-0.16187724
3	0xbf4fc86e	-0.81165206
4	0xbfa59a17	-1.293765
5	0xbf9ffec3	-1.2499622
6	0xbf514f46	-0.81761587
7	0xbf4b2967	-0.7936005
8	0x3c9362e4	0.01799149
9	0x3f30fa1a	0.69131625
10	0xbfc450e6	-1.5337188
11	0x3f35f7fe	0.7108153
12	0xbf6f7c8a	-0.93549407
13	0x3de91f4d	0.11382923
14	0x3ead1542	0.3380528
15	0x3ef54807	0.47906515
16	0xbe1e43d0	-0.15455556
17	0x3f2747c1	0.6534386
18	0x3f1bab53	0.60808295
19	0xbf135d37	-0.5756411
20	0xbc8ae958	-0.01695697
21	0xbf67f3cb	-0.90606374
22	0x3f88f1f3	1.0698837
23	0xbea15cfc	-0.31516254
24	0xc0313783	-2.7690132
25	0x3fd08277	1.6289815
26	0xbfb6b628	-1.427434
27	0xbf9fb85f	-1.247814
28	0xbe447a26	-0.19187221
29	0xbe7dd9d8	-0.24790132
30	0x3f8f5ea4	1.1200757
31	0x3e967276	0.29384202
32	0xbe2009bf	-0.15628718
33	0xbf48e1e7	-0.784697
34	0xbf3eaa2e	-0.74478424
35	0x3b2d57f5	0.0026450132
36	0x3f0a6d11	0.5407267
37	0xbf945267	-1.1587647
38	0x3e9245dc	0.28568923
39	0x3e944c94	0.28964674
40	0xbea60367	-0.3242447
41	0xbe2bd25e	-0.16779467
42	0x3f33f25d	0.7029169
43	0xbda08fc3	-0.0783992
44	0xbf67541b	-0.9036271
45	0xbe088b22	-0.13334325
46	0x3f3ca196	0.7368406
47	0xbf213b68	-0.6298127
48	0x3eca11b4	0.3946663
49	0xbe43e433	-0.1913002
50	0x3f67eb99	0.9059387
51	0x3ed69633	0.41911468
52	0xbf0ff00c	-0.5622566
53	0x3f92cdff	1.1469115
54	0xbebad6f0	-0.3649211
55	0x3ea8c211	0.3296056
56	0xbf7e8f1a	-0.99437106
57	0xbfcfab2c	-1.6224113
58	0xbf07a6ce	-0.529889
59	0x3ff7f410	1.9371357
60	0xbd4eebd7	-0.050517883
61	0xbe978993	-0.29597148
62	0x3e9414e0	0.28922176
63	0x3f3cf5da	0.7381264
64	0x3f030b76	0.51189363
65	0xbfd069b7	-1.6282262
66	0xbea36deb	-0.31919798
67	0x3f655b4f	0.8959245
68	0x401ed15b	2.481528
69	0xbee18934	-0.4404999
70	0x3f19dbbd	0.6010092
71	0xbf7ba601	-0.98300177
72	0xbedf0e55	-0.43565622
73	0x3eb96465	0.36209407
74	0xbf810c31	-1.0081846
75	0xbe160cb3	-0.14653282
76	0x3f828df3	1.019957
77	0xbf81267b	-1.0089868
78	0xbd8f1d34	-0.06987992
79	0x3dccd937	0.10002368
80	0x3fa1d6d9	1.2643691
81	0xbf6a8ae0	-0.91618156
82	0xbe121858	-0.14267099
83	0xbe5ac63f	-0.21364687
84	0x3e824033	0.25439605
85	0x3f4eae62	0.8073484
86	0xbd6b8d5c	-0.057507858
87	0xbf1920f4	-0.5981591
88	0x3e8e906c	0.2784456
89	0x3e618413	0.22023039
90	0x3efcaeb3	0.49352035
91	0xbf577de1	-0.8417645
92	0xbd908da0	-0.07058263
93	0xbf96eb61	-1.1790582
94	0x3ead7d03	0.3388444
95	0x3f83b7d5	1.0290476
96	0x3e11c5f4	0.1423567
97	0xbcdc6b3a	-0.026906598
98	0x3ee2aadb	0.44270977
99	0x3f6be7f4	0.9215081
100	0xbd0d55e0	-0.034505725
101	0x3f823850	1.0173435
102	0xbfcfcb2a	-1.6233876
103	0xbec4923c	-0.38392818
104	0x3f24b64e	0.64340675
105	0x3f006953	0.5016071
106	0x3eb4d844	0.35321248
107	0x3e2ddfb3	0.16979866
108	0x3f4df563	0.80452555
109	0x3e77191a	0.24130669
110	0x3e6990b5	0.22809108
111	0x3f082f17	0.53196853
112	0xbefe69be	-0.4969005
113	0xbea6cd6a	-0.32578593
114	0x3edf61c7	0.43629286
115	0xbeba41ec	-0.3637842
116	0x3ee87aa4	0.45406067
117	0x3e210b3f	0.15726946
118	0xbe89af13	-0.26891384
119	0x3e8a08d7	0.2695987
120	0xbe981b45	-0.29708305
121	0xbf0b0a62	-0.5431272
122	0x3f1a3dbd	0.60250455
123	0x3e70d89b	0.23520128
124	0xbf39cf4c	-0.72581935
125	0xbf346332	-0.7046386
126	0xbca0dc4a	-0.019636292
127	0x3f204ec3	0.6262018
128	0xbf246094	-0.64209867
129	0xbf3a488c	-0.7276695
130	0xbe421d1f	-0.18956421
131	0xbf9315e3	-1.1491054
132	0xbf25dc1c	-0.64788985
133	0x3fa4c356	1.2872112
134	0xbf96e240	-1.1787796
135	0x3eb66a55	0.35628
136	0xbe8a83d8	-0.27053714
137	0x3e808b09	0.25106075
138	0xc011bba1	-2.277077
139	0xbf741aa0	-0.95353127
140	0x3f3ff7c6	0.7498745
141	0xbd53add6	-0.051679455
142	0x3e0c950c	0.13728732
143	0xbdccb7ce	-0.099959955
144	0x3f04bdb4	0.51851964
145	0xbf881f2e	-1.0634515
146	0x3c96d34b	0.0184113
147	0xbfdd9d17	-1.7313565
148	0x3f1a00a8	0.6015725
149	0xbfb009d1	-1.3752996
150	0x3f378bda	0.7169777
151	0x3df239ba	0.11827417
152	0x3f9c6f99	1.2221557
153	0xc003c4fa	-2.0588975
154	0x3ed94fdc	0.4244374
155	0x3e8050af	0.25061557
156	0xbfdced53	-1.7259926
157	0xbf5248f4	-0.8214257
158	0x3f5bccce	0.8585938
159	0xbeb917cb	-0.36150965
160	0xbe716b49	-0.23576082
161	0x3dfca27b	0.12335678
162	0xbeb7127c	-0.3575629
163	0xbfca3527	-1.5797471
164	0x3da464d6	0.080270454
165	0xbfd4c034	-1.6621156
166	0xbd0e7fff	-0.034790035
167	0xbeb5c74f	-0.35503623
168	0xbf698405	-0.9121707
169	0x4019f5d2	2.4056287
170	0x3fbfa7e5	1.4973112
171	0xbeee106e	-0.4649691
172	0x3ef03d91	0.4692197
173	0x3db5ea07	0.08882528
174	0x3fad50b8	1.3540258
175	0xbeb17811	-0.34661916
176	0xbf186943	-0.59535617
177	0xbf661aa9	-0.8988443
178	0x3f60d79d	0.87829
179	0xc025ffec	-2.5937452
180	0xbfafd5b6	-1.3737094
181	0x3f5ec916	0.8702558
182	0x3e20f02b	0.15716617
183	0xbf5e3302	-0.8679658
184	0xbfd4329b	-1.6577944
185	0x3dc0b7a4	0.09410027
186	0xbe47b02c	-0.19500798
187	0xbe120f77	-0.14263712
188	0xbf998a42	-1.1995318
189	0xc0039d64	-2.0564814
190	0x3fe6310b	1.7983717
191	0x3f848eb5	1.0356051
192	0xbe1092fb	-0.14118569
193	0xc01417fc	-2.313964
194	0xbeac069c	-0.33598793
195	0xbfd6a7fb	-1.6770014
196	0x3f9f99eb	1.2468847
197	0xbf432fe6	-0.7624496
198	0x3f4c87b6	0.7989458
199	0xc00e99e6	-2.2281432
200	0x3d72f764	0.05931796
201	0x3f3476f8	0.7049403
202	0xbe8d74ce	-0.27628177
203	0x3f233813	0.6375744
204	0xc022aa43	-2.541642
205	0x3f29f90f	0.6639566
206	0x3eda4efc	0.42638385
207	0xbd5d7ecd	-0.054076005
208	0xbfedfff2	-1.8593733
209	0xbf8b873f	-1.0900649
210	0xbe9da0fd	-0.30786887
211	0xc0030474	-2.0471468
212	0xbff62f22	-1.9233134
213	0xbd373215	-0.044725496
214	0xbf5f5916	-0.8724531
215	0x3c463deb	0.012099723
216	0xbf85a407	-1.0440682
217	0xbdd099e3	-0.101856016
218	0xbfd08d7d	-1.6293179
219	0xbe8d3407	-0.27578756
220	0xbfda7aca	-1.7068722
221	0xbfa09d0d	-1.2547928
222	0xbf803579	-1.0016319
223	0x3f856121	1.0420266
224	0x3e706dbd	0.23479362
225	0xbf01c33f	-0.50688547
226	0xbeb32823	-0.3499156
227	0x401985e8	2.398798
228	0xbf939034	-1.1528382
229	0xbf8db10a	-1.1069653
230	0x3ebb56d5	0.36589685
231	0xbf972f66	-1.181134
232	0x3f1d8df9	0.6154476
233	0xbe461b51	-0.19346358
234	0x3f04b677	0.5184092
235	0xbfb0ebf6	-1.382201
236	0xc01fb62a	-2.4954934
237	0x3e80b04f	0.25134513
238	0x3f53e20d	0.827668
239	0x3e7e7863	0.24850611
240	0x3d99c71f	0.075086825
241	0x3f683838	0.90710783
242	0xbc8e6bc4	-0.017385371
243	0xbfd935e2	-1.6969569
244	0xbf4035b7	-0.7508196
245	0x3fdffa9d	1.7498356
246	0xbe88d05a	-0.2672146
247	0xbf5b5fd0	-0.85693073
248	0xc0086281	-2.1310122
249	0x3e5b52d6	0.21418318
250	0x3fbdfc5a	1.4842637
251	0xbf987ddc	-1.1913409
252	0xbf87ba4e	-1.0603731
253	0xbed460c6	-0.41480082
254	0xbe812dbb	-0.25230202
255	0xbfa4cf6c	-1.28758

bias f4 [2]
0	0x3fca73ec	1.5816627
1	0xbfd604da	-1.672023
