chapter2/test_train/model_0.pth (torch_old, 391077 bytes, 17 tensors)

weight f4 [32, 3, 3, 3]
0	0x3f944f5e	1.1586721
1	0x3eb0939c	0.34487617
2	0xbe5051fd	-0.20343776
3	0x3fb4476f	1.40843
4	0x3e4180aa	0.18896738
5	0x3f74c687	0.9561543
6	0x3e83b35e	0.25722784
7	0x40015e28	2.0213718
8	0xbf1ebfac	-0.6201122
9	0x3e123f10	0.14281869
10	0x3e6fee7a	0.23430815
11	0x3eaacbbc	0.33358562
12	0xbbf98da3	-0.0076157614
13	0xbe85ded3	-0.26146564
14	0x3e3c5771	0.18392731
15	0x3f9b787e	1.2146146
16	0xbed7b6a3	-0.42131528
17	0xbe900f61	-0.28136733
18	0x3ee39ae3	0.44454107
19	0x3ee29925	0.44257465
20	0xbfab8802	-1.3400881
21	0x3e4ab47a	0.19795409
22	0xbfe04fb5	-1.7524325
23	0x3fb57207	1.4175423
24	0x3eaea001	0.34106448
25	0xbfda1997	-1.7039059
26	0x3e68fd40	0.22752857
27	0xbedb8002	-0.428711
28	0x3f4e30c3	0.80543154
29	0x3f5b3cbc	0.8563955
30	0xc0055796	-2.0834708
31	0xbf24aff3	-0.6433098
32	0x3e1d89ac	0.15384549
33	0x3fe74a91	1.8069631
34	0xbfbe8b71	-1.4886304
35	0x3f0e58e9	0.55604416
36	0x3e9c4a52	0.30525452
37	0xbdc23d37	-0.09484332
38	0x3f0c1626	0.54721296
39	0xbf90dd5f	-1.1317557
40	0xbfd9895c	-1.6995044
41	0xbf8fc3fd	-1.1231686
42	0x3c7add5c	0.015311565
43	0xbfce5ba9	-1.6121722
44	0xbf5b42cf	-0.85648817
45	0xbf4e0c40	-0.8048744
46	0xbe2caef5	-0.16863616
47	0x3f89803e	1.0742261
48	0xbd6b02c7	-0.057375696
49	0xbd5cc887	-0.053902175
50	0x3d4f67ad	0.050635982
51	0x3da7ec1b	0.081993304
52	0xbda6f684	-0.08152488
53	0xc00414cb	-2.063769
54	0xbf2c590d	-0.6732338
55	0x3e8d60b9	0.27612856
56	0x3f852c16	1.0404079
57	0x3fc50d53	1.5394691
58	0x3f85ea58	1.0462141
59	0x3feb9e9e	1.8407781
60	0x3e524a7c	0.20536226
61	0x3edb4d9e	0.42832655
62	0xbe6b1cbb	-0.22960179
63	0xbf0e099c	-0.5548341
64	0x3f3d76ef	0.74009603
65	0xbfb076f5	-1.3786303
66	0x3ede959d	0.4347352
67	0x3f887c9a	1.0663025
68	0xbe152522	-0.14564946
69	0x3e00d384	0.12580687
70	0x3f5766e6	0.84141386
71	0xbedbc191	-0.42921117
72	0x3d1df5d8	0.038564533
73	0xbf9fc0b2	-1.2480681
74	0x3fca334b	1.5796903
75	0xbf36ddce	-0.714322
76	0xbefcbd01	-0.4936295
77	0x3f5c626e	0.8608769
78	0xbe57f57b	-0.21089737
79	0xbf2868b6	-0.65784776
80	0x3f6a0433	0.9141266
81	0xbf46d026	-0.7766136
82	0x3ef02150	0.46900415
83	0x3ee231fe	0.44178766
84	0x3f5fd1cd	0.87429506
85	0x3f83caf9	1.0296317
86	0xbfd3b664	-1.6540036
87	0x3f94944f	1.160776
88	0x3d2d548d	0.042316962
89	0x3f8c0b2b	1.0940908
90	0xbd6f39d0	-0.058404744
91	0x3fdf177d	1.7429043
92	0x3f4de26d	0.80423623
93	0x3f8e1800	1.1101074
94	0x3eee1728	0.46502042
95	0x40191ffe	2.3925776
96	0x3f52eec9	0.8239561
97	0x3fbf2c48	1.4935389
98	0x3f8b23ec	1.0870337
99	0xbe9c4d00	-0.30527496
100	0x3f1d2cd4	0.6139653
101	0xbe3240d1	-0.17407538
102	0xbe8a3ca8	-0.26999402
103	0xbfd2e4f9	-1.6476127
104	0x3fbd4c00	1.4788818
105	0xbe4d7ffd	-0.20068355
106	0x3fdbbb95	1.716662
107	0xbf6f5be5	-0.93499595
108	0xbe5d1d3b	-0.21593182
109	0xbf923687	-1.142289
110	0x3ee1e241	0.4411793
111	0x3de554fb	0.11197849
112	0x3f533614	0.8250439
113	0xbf97eab7	-1.1868504
114	0xbf9bbb9e	-1.2166631
115	0xbfd90af1	-1.6956464
116	0x3fd37288	1.6519327
117	0x3dc69b5a	0.096976
118	0x3f4c4216	0.7978834
119	0xc00bcd31	-2.184399
120	0xbebd28f4	-0.36945307
121	0x4003267a	2.0492234
122	0x3fdf47fd	1.7443844
123	0xbe0bf5a8	-0.13667929
124	0xbef4e75a	-0.47832757
125	0x3f00a946	0.5025829
126	0xbf059d2d	-0.52192956
127	0xbec0e339	-0.37673357
128	0x3fff236c	1.9932685
129	0xbf25ea68	-0.648108
130	0x3fc0e574	1.5070024
131	0x406f2826	3.7368255
132	0x3f32e8de	0.6988658
133	0x3f526d04	0.82197595
134	0x3f0f9747	0.56090206
135	0xbffafa0f	-1.9607562
136	0x3f8a358a	1.0797589
137	0xbf40f9f7	-0.75381416
138	0xbfa0a31a	-1.2549775
139	0xbe8c4cf6	-0.27402467
140	0xbfae3210	-1.3609028
141	0x3eaffbe8	0.34371877
142	0x3f9f837c	1.2462001
143	0xbe782bf1	-0.24235512
144	0xbf4438c2	-0.76649106
145	0xbe49d6c1	-0.19710828
146	0x3f0a1add	0.5394724
147	0x3d87a5a8	0.06623393
148	0xbfdf5329	-1.7447253
149	0x3f9e40c7	1.2363518
150	0xbfb18b3b	-1.3870615
151	0xbeacaea3	-0.33726987
152	0xbf42e345	-0.76128036
153	0xc04267b5	-3.0375798
154	0x3e611144	0.21979243
155	0xbe4005cb	-0.1875221
156	0xbf2f50ec	-0.6848285
157	0xbfb61fca	-1.4228451
158	0xbce7e10d	-0.028305555
159	0x3faca66f	1.3488292
160	0xbfbb29e9	-1.4622165
161	0x3f0598ad	0.5218609
162	0xbf9c1448	-1.2193689
163	0xbf3dca5b	-0.74136895
164	0x3d9855d3	0.07438245
165	0x3f4d2a5a	0.8014275
166	0x3e387c3d	0.18016143
167	0x3ed2188b	0.4103435
168	0xbfed68ba	-1.8547585
169	0xbf8ee7cd	-1.116449
170	0x3f219020	0.6311054
171	0xbe784773	-0.24246006
172	0x3cae9924	0.021313258
173	0xbfbc0461	-1.4688836
174	0x3fba0798	1.4533567
175	0xbfc9e0c0	-1.5771713
176	0xbf67803a	-0.90430033
177	0xbf36e2e7	-0.71439976
178	0x3c226604	0.009912018
179	0x3fc1b300	1.5132751
180	0xc00977c0	-2.147934
181	0x3ecf385f	0.40472695
182	0xbf8fec60	-1.1244011
183	0xbf458027	-0.7714867
184	0xbeba1edf	-0.36351678
185	0xbff3818b	-1.9023908
186	0x3ed857f4	0.42254603
187	0xbf49410a	-0.78614867
188	0xbfb1e464	-1.3897824
189	0xc00bd613	-2.184941
190	0xbed11cd5	-0.4084231
191	0x3ff85143	1.9399799
192	0x3f43e3cc	0.76519465
193	0x3e9b5c63	0.30343923
194	0xbf02a601	-0.5103455
195	0x3ecba1ab	0.3977178
196	0xbf0cc891	-0.5499354
197	0x3f1ee124	0.6206229
198	0x3fa837d3	1.3142036
199	0xbfcbe510	-1.5929279
200	0xbf78c2ab	-0.9717204
201	0xc0338fa4	-2.8056421
202	0x3faa6ae0	1.3313866
203	0xbf26256d	-0.6490086
204	0xbfa96ee8	-1.3236971
205	0x3e4cc1df	0.19995831
206	0x3e696abf	0.22794627
207	0xbf4034e6	-0.75080717
208	0x3fbc5582	1.4713595
209	0xc00db3db	-2.2141025
210	0xbe2c7807	-0.16842662
211	0x3ecf480e	0.4048466
212	0xc01d7639	-2.4603407
213	0xbeffba2e	-0.4994673
214	0xbed94564	-0.42435753
215	0xbf65faee	-0.89836013
216	0xbe99bd35	-0.30027166
217	0xbed2138b	-0.41030535
218	0xbf5e2fbe	-0.867916
219	0x3d7f6b1e	0.062358014
220	0x3f6dd8b5	0.92908794
221	0x3f499941	0.7874947
222	0xbc0b2460	-0.008492559
223	0xbf4f50a7	-0.8098244
224	0x3e72c2c7	0.23707114
225	0x3e075ae1	0.13218261
226	0x3f75d0fb	0.96022004
227	0xbeee2d2b	-0.46518835
228	0xbfaeb3c7	-1.3648614
229	0x3ed8bc22	0.42331034
230	0xbf9f76c8	-1.2458124
231	0xbe6ef22e	-0.23334572
232	0x3e084532	0.13307646
233	0xbffc5984	-1.9714818
234	0xbf88bf60	-1.0683403
235	0x3e934271	0.28761628
236	0xbe2d7a41	-0.16941167
237	0x3f1df926	0.61708295
238	0xc032855f	-2.7893903
239	0xbf771d14	-0.96528745
240	0xbf3753af	-0.71612066
241	0xbfa38521	-1.2775003
242	0xbfbe6162	-1.4873469
243	0x3fee57f4	1.8620591
244	0x3f06d382	0.52666485
245	0xbf320b57	-0.69548553
246	0x3f533fed	0.8251942
247	0x3fde13de	1.7349813
248	0xbb2b8baf	-0.0026175787
249	0xbfbbd6ba	-1.4674904
250	0xbfabe420	-1.3428993
251	0x4003d384	2.059785
252	0xbe3262e2	-0.17420533
253	0xbf11e947	-0.5699658
254	0x3f317817	0.6932387
255	0x3f8ac769	1.0842105

gamma f4 [32]
0	0x3fb1fb91	1.3904897
1	0x3f1bd4e6	0.6087173
2	0x3eba3189	0.36365917
3	0x3f99ee66	1.2025878
4	0x3df93e47	0.121700816
5	0x3fffcb6c	1.9983954
6	0x40029090	2.0400734
7	0x3f848ccf	1.0355471
8	0x3fbf2c26	1.4935348
9	0x3fabd47d	1.3424221
10	0x3f38ad92	0.7213985
11	0x3fa2a21a	1.270572
12	0x3f49e2a6	0.78861463
13	0x3f88b26d	1.0679451
14	0x3f6f3f2d	0.93455774
15	0x3f95d3a0	1.1705208
16	0x3fa48614	1.2853417
17	0x3fa3231c	1.274509
18	0x3f1b890c	0.6075599
19	0x3f1c03ec	0.60943484
20	0x3f3ab332	0.7292968
21	0x3fa5e22d	1.2959648
22	0x3f43d58f	0.7649774
23	0x3f7b47dd	0.9815653
24	0x3fbc3fe8	1.4707003
25	0x3fcf394a	1.6189358
26	0x3f99132c	1.1958976
27	0x3fbfce71	1.4984876
28	0x3f4e4fa6	0.80590284
29	0x3fa11a32	1.2586119
30	0x3e75e188	0.24011815
31	0x3f93ff7a	1.156234

beta f4 [32]
0	0x3ef352f6	0.47524232
1	0xbeba5e70	-0.36400175
2	0xbe55616e	-0.20837948
3	0x3ed8e6c4	0.4236356
4	0x3f126221	0.5718098
5	0x3de2291b	0.110429965
6	0x3e0bb974	0.13644964
7	0x3e827e11	0.25486806
8	0xbe22f4f8	-0.1591376
9	0x3f5a66fe	0.85313404
10	0x3c046056	0.008079609
11	0xbdbd61ca	-0.092471674
12	0xbdf76797	-0.12080305
13	0x3eebe5d8	0.46073794
14	0xbec26bd1	-0.37972882
15	0x3e51e419	0.20497169
16	0x3f0e8433	0.5567047
17	0xbec21fd7	-0.37914917
18	0xbec2147b	-0.3790625
19	0xbe22b376	-0.15888771
20	0x3f6c65d3	0.9234287
21	0x3f022fd1	0.5085421
22	0x3f288e9f	0.6584262
23	0x3f1a7760	0.603384
24	0x3d8f1900	0.0698719
25	0xbe1d03b4	-0.15333444
26	0x3dada08d	0.08477888
27	0x3e3f7550	0.18697095
28	0x3e939844	0.28827107
29	0xbe69c414	-0.22828704
30	0xbf3c0d71	-0.7345801
31	0x3d58f5c5	0.05296876

running_mean f4 [1, 32, 1, 1]
0	0x3fbf7b93	1.4959587
1	0xc037192d	-2.8609116
2	0x4001a13e	2.0254664
3	0x408b2c3a	4.3491488
4	0x40323d56	2.7849936
5	0xc0798397	-3.8986566
6	0xc08b1cec	-4.3472805
7	0xc056a455	-3.35378
8	0xc083f4c8	-4.1236305
9	0x40ab5546	5.3541594
10	0x40794873	3.895047
11	0xc085d1e0	-4.1818695
12	0xc018d208	-2.3878193
13	0x40883ae8	4.2571907
14	0xc056c2ef	-3.3556478
15	0x407d19ab	3.9546916
16	0x40a7871b	5.2352424
17	0xc082c08c	-4.0860043
18	0xc0495d17	-3.1463068
19	0x402f8492	2.7424664
20	0xc0076df2	-2.1160855
21	0x40aa55ce	5.322974
22	0x4046ffcc	3.1093626
23	0x409d0fb6	4.908168
24	0xc02c3a84	-2.6910715
25	0xc0755f0a	-3.8339257
26	0x402f60c4	2.740281
27	0x40837245	4.107699
28	0x4084b5e0	4.1472015
29	0xc04ce89b	-3.201697
30	0xbfecdb62	-1.850445
31	0xc0960980	-4.6886597

running_var f4 [1, 32, 1, 1]
0	0x3f3b5e94	0.7319119
1	0x4020045f	2.5002668
2	0x3f9d6379	1.2295982
3	0x40b17d37	5.546535
4	0x402df4ce	2.7180667
5	0x40930b1a	4.595105
6	0x40b6891e	5.704238
7	0x406041cc	3.504016
8	0x40a87e5a	5.265424
9	0x41096433	8.586963
10	0x4093db88	4.6205482
11	0x40a90e67	5.283008
12	0x3fef2f9f	1.8686408
13	0x40ae90e1	5.4551854
14	0x405342aa	3.3009439
15	0x40910a83	4.532533
16	0x41037c06	8.217779
17	0x409c7632	4.889428
18	0x404b6590	3.178074
19	0x400d6cbe	2.209762
20	0x3fc39a1d	1.5281407
21	0x41057daf	8.343184
22	0x40357a2c	2.8355818
23	0x40e64147	7.1954684
24	0x400b34f2	2.1751065
25	0x408fe42f	4.4966044
26	0x400f3e46	2.2381759
27	0x40a73caa	5.2261553
28	0x40a9c1d9	5.304913
29	0x4046f237	3.1085336
30	0x3f902643	1.1261677
31	0x40ce1a9d	6.4407487

weight f4 [64, 32, 3, 3]
0	0xbe80a3b5	-0.251249
1	0x3f01f7f5	0.5076898
2	0xbf4c82cf	-0.798871
3	0xbf35fe8b	-0.71091527
4	0x3f18bb61	0.5966092
5	0x3f93f6bb	1.1559671
6	0x3fb396bf	1.4030379
7	0xbdfc8a1c	-0.1233103
8	0x3fe2fe58	1.773387
9	0x3d9157c4	0.07096818
10	0x3fbd3b7c	1.4783778
11	0x3ead7051	0.33874753
12	0xbf1cafeb	-0.6120593
13	0x3e8935e2	0.26798922
14	0xbee9e2e1	-0.45680907
15	0xbe23425d	-0.15943284
16	0x3f19a8a6	0.6002296
17	0x3f83e577	1.0304402
18	0x3f5f6e89	0.8727804
19	0xbf0985ff	-0.53720087
20	0xbdbaf6b0	-0.09129083
21	0xbe851245	-0.259905
22	0xbf5e825e	-0.86917675
23	0x3f0494e0	0.51789665
24	0x3f86eef5	1.0541674
25	0x3cb859e0	0.022503793
26	0xbf337ea5	-0.7011512
27	0x3f9ef44b	1.2418302
28	0x3fd31513	1.6490806
29	0xbf7babf2	-0.9830924
30	0x3f0b3a08	0.54385424
31	0xc02b5506	-2.6770644
32	0x3f19628e	0.5991601
33	0xbf4cef9b	-0.8005311
34	0xbda85f57	-0.0822131
35	0xbf9ce703	-1.2257999
36	0x3f2a8862	0.66614354
37	0xbfc764e7	-1.5577668
38	0xbdec3e04	-0.11535266
39	0xbee704d3	-0.45120868
40	0x3fb9ab8f	1.450548
41	0x3f8008fb	1.0002741
42	0xbfd70c96	-1.6800716
43	0x3f5afb74	0.85539937
44	0x3fd9472b	1.6974844
45	0x3fbf2514	1.493319
46	0x3f4b59ae	0.79433715
47	0x3fa8247f	1.3136138
48	0xbed8b8bf	-0.4232845
49	0x3f85c775	1.0451494
50	0x3eef7851	0.46771482
51	0x3fc27502	1.5191958
52	0x3fbf8f64	1.4965634
53	0xbeb3f553	-0.35148105
54	0xbf26ac24	-0.65106416
55	0xbeacbe40	-0.337389
56	0x3f8980dc	1.074245
57	0x3ea2766d	0.31730977
58	0x3fe9278e	1.8215196
59	0x3f68fcf6	0.9101099
60	0x3fbba478	1.4659567
61	0x40250bf6	2.578855
62	0xbcbb754f	-0.022883086
63	0xbece8924	-0.40339005
64	0x3ed16801	0.4089966
65	0x3cc0ca80	0.02353406
66	0xbf288788	-0.65831804
67	0x3f6f829a	0.9355866
68	0xbe54f916	-0.20798144
69	0x3fb0c98b	1.3811506
70	0xbf050353	-0.519582
71	0x40026526	2.0374236
72	0x3ec15683	0.37761316
73	0xbebb2b9d	-0.36556712
74	0x3f0f9342	0.5608407
75	0xbe3b5ffd	-0.18298335
76	0x40079acc	2.118823
77	0x3e9abb12	0.30220848
78	0x3fe6d327	1.8033189
79	0x3f797953	0.9745075
80	0x400c75e1	2.1946948
81	0x3f3e3feb	0.7431628
82	0xbfc84b2f	-1.5647944
83	0x3e24472f	0.1604278
84	0x3f9e764f	1.2379855
85	0x3fe7d5e9	1.8112155
86	0xbf4168d9	-0.7555061
87	0xbfbe9183	-1.4888157
88	0x3ea3095c	0.31843078
89	0xbe8864f2	-0.26639515
90	0x3f06680a	0.525025
91	0xbd42ecfe	-0.047589295
92	0x3f64fb20	0.89445686
93	0xbf037110	-0.51344395
94	0x3f2f584c	0.68494105
95	0x3f83ac5d	1.0286976
96	0x3fb52a1e	1.4153478
97	0xbec73b86	-0.389126
98	0x3e6ec6f2	0.23318079
99	0x3fb8fb0b	1.4451612
100	0x3fd1a38b	1.6378034
101	0x3ed9fa1e	0.42573637
102	0x3ef7cfaa	0.48400623
103	0x3fd79ce3	1.6844753
104	0x400b698a	2.1783166
105	0xbec6d2a5	-0.38832584
106	0x400a4550	2.1604805
107	0x3fe11f39	1.7587653
108	0xbf4a8433	-0.7910797
109	0x3f824972	1.0178664
110	0x3ec27571	0.37980226
111	0x3d139730	0.036032856
112	0xbed56ad7	-0.41683075
113	0x3f8eb47b	1.1148828
114	0x3f880bf4	1.0628648
115	0x3fa92774	1.3215165
116	0x3fbbf2b5	1.4683443
117	0x3e934f27	0.28771326
118	0xbefc624d	-0.49293748
119	0xbec15f11	-0.37767842
120	0x3f168a55	0.5880483
121	0xbc64f38b	-0.013974081
122	0xbe271070	-0.16314864
123	0x3edb2cc9	0.42807606
124	0xbddcbc61	-0.10778118
125	0x3ebcda41	0.36885265
126	0xbe7c2a5f	-0.24625538
127	0x3eb3e06e	0.35132164
128	0x3eb529cc	0.3538345
129	0xbf2f8467	-0.68561405
130	0x3d51abd3	0.051189255
131	0x3e34ebe8	0.17668116
132	0xbeb8535f	-0.36001107
133	0xbf912d9f	-1.1342047
134	0xbf4ba7db	-0.79553
135	0xbf883eea	-1.06442
136	0xbff7c1d9	-1.9356033
137	0xbf21f09a	-0.63257754
138	0xbfb9b621	-1.4508706
139	0x3d6a16c2	0.05715061
140	0x3eacbacb	0.33736262
141	0x402aadb4	2.666852
142	0xbd942432	-0.07233466
143	0xbf982aad	-1.1888024
144	0xbe54bbe0	-0.20774794
145	0xbec82c19	-0.39096144
146	0x3e4e4e03	0.20146947
147	0xbdc4defc	-0.096128434
148	0x401ec293	2.4806259
149	0x3b473217	0.0030394846
150	0xbdc430ff	-0.09579658
151	0xbedbf7fe	-0.4296264
152	0x3fb0cb4f	1.3812045
153	0x3fdc63d6	1.7217968
154	0x3eec87ae	0.46197265
155	0x3fc1f935	1.5154177
156	0xbf08f495	-0.534982
157	0xbee425b5	-0.44560018
158	0x3f2571be	0.6462668
159	0xbf8f49fe	-1.1194456
160	0x3f096b6e	0.5367955
161	0x3fb19f14	1.3876672
162	0x3fa4e74f	1.288309
163	0xbe8aad18	-0.27085185
164	0x3eebd03d	0.4605731
165	0xbffbbad9	-1.9666396
166	0x3f9d4c6b	1.2288946
167	0x3f2a0c8c	0.66425395
168	0xbe0d4d6d	-0.13799067
169	0xbef669a7	-0.4812748
170	0xbee57d01	-0.44821933
171	0xbf26feac	-0.6523235
172	0x3f5b0690	0.8555689
173	0x3e8fa527	0.2805569
174	0x4012062d	2.281627
175	0xbec4291c	-0.38312614
176	0x3f24ef2e	0.6442746
177	0xbdebfbcf	-0.11522638
178	0x3f209ec1	0.6274224
179	0x3f8e060a	1.1095593
180	0x3efb2f75	0.49059644
181	0x3f57ed65	0.8434661
182	0xbf20a569	-0.62752396
183	0x3f644bd3	0.891782
184	0x3dfbc754	0.12293878
185	0xbf435cd8	-0.76313543
186	0xc0262e67	-2.5965822
187	0xbf7949a7	-0.9737801
188	0xbfa1cf1a	-1.2641327
189	0xbfb4cb72	-1.4124587
190	0xbd842c6b	-0.064537846
191	0x3eeb30ca	0.4593566
192	0xbea64ca8	-0.3248036
193	0xbf7875c7	-0.97054714
194	0xbf6e2e52	-0.9303943
195	0xbec0740c	-0.37588537
196	0xbf1a9c8d	-0.6039513
197	0x3f6b32c7	0.91874355
198	0xbed39bd8	-0.41329837
199	0xbebbbb3f	-0.36666295
200	0x4010b474	2.261014
201	0x3ff34671	1.9005872
202	0x3fd34504	1.6505437
203	0x3dd0ea9f	0.102010004
204	0x3ef4f20b	0.47840914
205	0x4035c9e6	2.840448
206	0x4002a8f7	2.0415628
207	0x3f17e445	0.59332687
208	0x3fd2edbe	1.6478803
209	0x3fb01466	1.3756225
210	0x3e433598	0.19063413
211	0x3f398d29	0.7248102
212	0x3f35cdf3	0.7101738
213	0xbf6f36da	-0.9344307
214	0x3e207aaf	0.156718
215	0xbe051d40	-0.12999439
216	0x3fdceb28	1.7259264
217	0xc00763a0	-2.1154556
218	0x3f0a0cf5	0.5392602
219	0xbd5db23c	-0.054125056
220	0xbef28236	-0.47364968
221	0x3fbea5a9	1.4894305
222	0x4004ac3e	2.0730128
223	0xbf372081	-0.7153397
224	0x3dd473dd	0.10373662
225	0xbee4592a	-0.44599277
226	0x3e8835e6	0.2660362
227	0xbed6cf53	-0.4195505
228	0xbece2fb5	-0.40270773
229	0x3ea2d313	0.31801662
230	0x3fa77d28	1.308507
231	0x3d6011d6	0.05470451
232	0xbe77ea46	-0.24210462
233	0x3faf4067	1.3691529
234	0xbf040a7b	-0.5157849
235	0x3e834361	0.25637344
236	0x3fd8227d	1.6885525
237	0xc005a1c2	-2.087998
238	0xbe98089a	-0.29694062
239	0x3f2deb4e	0.6793717
240	0xbf9144cc	-1.134912
241	0x3f91f419	1.1402618
242	0x3d8b5323	0.068029664
243	0xbf04f6f7	-0.5193934
244	0xbfd5ca64	-1.670239
245	0xbe29bd85	-0.16576202
246	0x4043b496	3.057897
247	0xbe8556ee	-0.26042885
248	0x3f3a47fd	0.72766095
249	0xbde9d03e	-0.11416672
250	0xbf838196	-1.0273921
251	0xbef95077	-0.48694202
252	0x3fd2123c	1.6411815
253	0x3fecc44b	1.8497404
254	0xbc1ff2d1	-0.009762482
255	0x3ee6a304	0.45046246

gamma f4 [64]
0	0x3fb32a72	1.3997328
1	0x3fa12fbf	1.2592696
2	0x3f72875b	0.94737786
3	0x3f6668f8	0.9000392
4	0x3fc1356c	1.5094428
5	0x3e96f067	0.29480287
6	0x3f70b942	0.9403268
7	0x3f2b9b82	0.6703416
8	0x3f0200b1	0.50782305
9	0x3fb1c240	1.3887405
10	0x3f4a1d40	0.7895088
11	0x3f236def	0.6383962
12	0x3ff81532	1.9381468
13	0x3f26d9c1	0.65176016
14	0x3f9c4d80	1.2211151
15	0x3f424ad8	0.7589545
16	0x3fab06f2	1.3361495
17	0x3f1c9f3c	0.6118047
18	0x3f8e2b64	1.1106992
19	0x3eb4cb08	0.3531115
20	0x3fc9b40d	1.5758072
21	0x3f61a1cf	0.88137525
22	0x3fb135db	1.384456
23	0x3f099f87	0.53759044
24	0x3fb72d35	1.4310671
25	0x3f519b23	0.81877345
26	0x3f3c315f	0.73512834
27	0x3f3d2c32	0.7389556
28	0x3fc0630b	1.5030226
29	0x3f7141a3	0.9424078
30	0x3f712875	0.9420236
31	0x3f774c95	0.9660123
32	0x3fac1512	1.344393
33	0x3f1c601c	0.6108415
34	0x3fa16774	1.2609696
35	0x3fd810c1	1.6880113
36	0x3fc3db61	1.5301324
37	0x3fc7be19	1.5604888
38	0x3f088989	0.5333486
39	0x3fccb1d7	1.5991772
40	0x3fd0dd69	1.6317569
41	0x3fb90f9c	1.4457889
42	0x3ff18e45	1.8871542
43	0x3f3de653	0.7417957
44	0x3f8aa86f	1.0832652
45	0x3f9a06cd	1.2033325
46	0x3f6d74e5	0.9275649
47	0x3f9aec32	1.2103331
48	0x3fc9bb10	1.5760212
49	0x3fbc1a0a	1.4695446
50	0x3f7ff119	0.9997726
51	0x3f74f47e	0.95685565
52	0x3fc7ea62	1.5618403
53	0x3fc55e5f	1.5419425
54	0x3fbae0e1	1.4599878
55	0x3fbb7721	1.464573
56	0x3f3b83ba	0.73247874
57	0x3f92732a	1.1441395
58	0x3f2e5ae7	0.68107456
59	0x3f80f54d	1.007486
60	0x3f0d73a6	0.5525459
61	0x3f5344a2	0.825266
62	0x3fa9702b	1.3237356
63	0x3f83e0e1	1.0303003

beta f4 [64]
0	0x3bba79df	0.0056907977
1	0xbc98144a	-0.018564362
2	0x3f34a448	0.70563173
3	0xbf60d034	-0.8781769
4	0x3e564d41	0.20927908
5	0xbf32c2e1	-0.6982861
6	0xbdccf369	-0.10007364
7	0xbf512cb7	-0.81708854
8	0xbf3939e7	-0.72353977
9	0xbd8fe97a	-0.07026954
10	0xbf93dcc9	-1.1551753
11	0x3e3f2c76	0.18669304
12	0x3e384a8d	0.17997189
13	0xbf74139d	-0.9534243
14	0xbe0249df	-0.12723492
15	0xbd28dfb2	-0.041228957
16	0x3dd5a3fe	0.1043167
17	0xbebd8ca1	-0.37021354
18	0xbeb920d4	-0.36157858
19	0xbee7d0cd	-0.4527649
20	0x3dc810a2	0.097687975
21	0xbe91fcfb	-0.2851332
22	0x3e49df5c	0.19714111
23	0xbf210af1	-0.6290732
24	0x3c23187d	0.009954569
25	0x3e58b7d7	0.2116388
26	0x3e99a5ba	0.30009252
27	0xbf329d8d	-0.69771653
28	0x3f22e108	0.6362462
29	0xbe28fc1c	-0.16502422
30	0xbe6b93a0	-0.23005533
31	0xbbdfe31e	-0.0068324944
32	0xbce67231	-0.028130623
33	0xbec99b23	-0.39376172
34	0x3e75be58	0.23998392
35	0x3eb10907	0.345772
36	0x3f0fdf9e	0.5620059
37	0xbeae1065	-0.33996883
38	0x3f11eda5	0.5700324
39	0x3f266aa9	0.650065
40	0xbd259e7f	-0.040434357
41	0x3ea3ec32	0.3201614
42	0x3f763c12	0.9618541
43	0x3f125209	0.57156426
44	0xbe79435f	-0.24342106
45	0xbe8f2939	-0.27961138
46	0xbeffe37e	-0.4997825
47	0xbe55351b	-0.2082104
48	0x3da8cf61	0.082426794
49	0x3e2317bd	0.15927024
50	0x3e271777	0.16317545
51	0xbdded1d7	-0.108798675
52	0xbdf537f0	-0.1197356
53	0xbe961ee5	-0.29320446
54	0x3f243fab	0.6415965
55	0x3f03444d	0.51276094
56	0xbf2461e8	-0.64211893
57	0x3dde1eec	0.10845742
58	0xbf316671	-0.6929694
59	0xbea28224	-0.31739914
60	0xbf072803	-0.5279543
61	0xbf331c74	-0.6996529
62	0x3ba0147d	0.004885255
63	0x3ef7c8ae	0.48395294

running_mean f4 [1, 64, 1, 1]
0	0x4260811a	56.126076
1	0xc0e5c7c0	-7.1806335
2	0xc2253ae4	-41.30751
3	0x411a36ba	9.638361
4	0x4009a3c6	2.150621
5	0xc162b90e	-14.170179
6	0x41243cd0	10.264847
7	0xc218f554	-38.23958
8	0xc2458da1	-49.38831
9	0x4122fcde	10.186735
10	0xc20903b5	-34.25362
11	0xc08cc084	-4.3985004
12	0x4124c96c	10.299175
13	0x4184403c	16.531364
14	0x42024f0b	32.57719
15	0x3f774ab4	0.9659836
16	0xc0bc31b1	-5.881066
17	0xc1511574	-13.067738
18	0x422c85b6	43.130577
19	0xc13fe470	-11.993271
20	0x4211dcd0	36.465637
21	0x41c4c715	24.597208
22	0x41929552	18.32291
23	0xc24c42c3	-51.065197
24	0xc18da9f6	-17.707989
25	0xc279467e	-62.31884
26	0xc1d6e1e4	-26.860298
27	0xc28b0900	-69.51758
28	0x3fe1b346	1.7632835
29	0x41de8549	27.81508
30	0xc122f82c	-10.185589
31	0xc16dc6f8	-14.861076
32	0x41b0a22a	22.079182
33	0xc280a2da	-64.31807
34	0x41d68ee4	26.81977
35	0xc0f7708e	-7.7324896
36	0xc27c1eb9	-63.030003
37	0x4206b13f	33.67309
38	0xc274614e	-61.095024
39	0x3f896b70	1.0735912
40	0x425f65d0	55.849426
41	0x423a898f	46.634335
42	0xc08ab182	-4.3341684
43	0x419fd917	19.981
44	0x41175992	9.459368
45	0x41f02a02	30.020512
46	0x42011956	32.274742
47	0x41e911d1	29.1337
48	0xc13f0028	-11.937538
49	0x4232462a	44.56852
50	0xc24aa12d	-50.6574
51	0xc1bb02c9	-23.37636
52	0x40f4b906	7.647586
53	0xc265647e	-57.348137
54	0xc17d15ce	-15.817823
55	0x4211c4a4	36.44203
56	0xc1b4614b	-22.547506
57	0x41dc581a	27.543018
58	0xc19e26fe	-19.76904
59	0x41cdaebd	25.710321
60	0xc240df4f	-48.218075
61	0xc185447e	-16.658443
62	0x41427d0a	12.155527
63	0x41163dd8	9.390099

running_var f4 [1, 64, 1, 1]
0	0x44314661	709.0997
1	0x44f9cef4	1998.4673
2	0x448f798e	1147.7986
3	0x449f61c0	1275.0547
4	0x45379b15	2937.6926
5	0x45c1a3dc	6196.4824
6	0x45262479	2658.2795
7	0x44c71b60	1592.8555
8	0x44784940	993.14453
9	0x459fd940	5115.1562
10	0x448384cc	1052.1499
11	0x44d6b827	1717.7548
12	0x44647c11	913.93854
13	0x44de70e1	1779.5275
14	0x440a9da9	554.46344
15	0x4530fc70	2831.7773
16	0x451245ae	2340.355
17	0x44d0dbc9	1670.8683
18	0x44b20eb0	1424.459
19	0x452e76fd	2791.4368
20	0x44583379	864.80426
21	0x444b399d	812.9002
22	0x4467eac9	927.6685
23	0x450150bc	2069.046
24	0x453d7148	3031.08
25	0x449b058d	1240.1735
26	0x453453ad	2885.2297
27	0x4596f821	4831.016
28	0x450978f9	2199.5608
29	0x43ebac9e	471.34857
30	0x458113ce	4130.4756
31	0x445e4fc7	889.2465
32	0x448d5c75	1130.8893
33	0x45088692	2184.4106
34	0x4493036f	1176.1073
35	0x45a83005	5382.0024
36	0x4500a699	2058.4124
37	0x43d4a308	425.27368
38	0x44c15da2	1546.926
39	0x45376172	2934.0903
40	0x446845d9	929.0914
41	0x44fd2a9d	2025.3317
42	0x450dd46f	2269.277
43	0x45adeec7	5565.847
44	0x4495d8eb	1198.7787
45	0x437db143	253.69243
46	0x448be3c7	1119.118
47	0x44199f84	614.49243
48	0x4517afe9	2426.9944
49	0x4491fe7e	1167.9529
50	0x4536888a	2920.5337
51	0x44df3062	1785.512
52	0x452a15f9	2721.3733
53	0x45c7d697	6394.8237
54	0x44198e19	614.2203
55	0x4531c445	2844.2668
56	0x447a6ab0	1001.667
57	0x4500a9a9	2058.6038
58	0x44eb0291	1880.0802
59	0x4588a2f9	4372.3716
60	0x44b1c787	1422.2352
61	0x44140b6e	592.1786
62	0x44045a76	529.41345
63	0x45119efa	2329.936

weight f4 [128, 64, 3, 3]
0	0x3f54c05a	0.83106005
1	0x3fe7c982	1.810837
2	0xbec28372	-0.3799091
3	0xbef4a6f5	-0.47783628
4	0xbddc0986	-0.10744004
5	0xbfc0c57a	-1.5060265
6	0x3ea2f1ce	0.31825107
7	0xbf37e5f6	-0.7183527
8	0xbf80356d	-1.0016304
9	0xbf57e395	-0.8433164
10	0xbcd19742	-0.02558482
11	0x3e95232a	0.2912839
12	0xbf7ae242	-0.9800149
13	0x3dfaf31e	0.12253402
14	0x3ebe170c	0.37126958
15	0x4003ca01	2.0592043
16	0xbfd04bdc	-1.627315
17	0xc0070871	-2.1098902
18	0xbe3084a3	-0.17238097
19	0xbef8d807	-0.48602316
20	0xbf2b89e0	-0.67007256
21	0xbeb8c326	-0.36086386
22	0x3eb5a610	0.35478258
23	0xbe5b284b	-0.2140209
24	0xbf9c5d12	-1.2215903
25	0x3f48276c	0.78185153
26	0xbf356aa1	-0.7086583
27	0x3f3172d6	0.6931585
28	0x3fe89f75	1.8173662
29	0xbf6fedf7	-0.9372248
30	0xbf299abe	-0.6625174
31	0xbf58b50c	-0.84651256
32	0xbf221db2	-0.6332656
33	0x400bfd1b	2.1873233
34	0xbf8983de	-1.0743368
35	0x3f90fdc6	1.1327446
36	0x3f355823	0.7083761
37	0xbf35429d	-0.7080477
38	0x3fa66687	1.3000039
39	0xbbbc3dbd	-0.0057446645
40	0x3e8433b5	0.258207
41	0x3ee03608	0.43791223
42	0x3de58ceb	0.112085186
43	0x3ebbaa22	0.3665324
44	0x403fd484	2.997346
45	0x3f5a0196	0.8515867
46	0xbe541f03	-0.20714955
47	0xbd8fa7ac	-0.07014403
48	0x3f7a6450	0.97809315
49	0xbf161422	-0.5862447
50	0xbf9e0a2e	-1.2346857
51	0x3e164a9b	0.14676897
52	0xbf9f23de	-1.2432821
53	0x3fc6c8c0	1.5530014
54	0xbe15643e	-0.1458902
55	0xbfd1b2eb	-1.6382726
56	0xc015ceeb	-2.3407543
57	0xbf6b5af6	-0.9193567
58	0x3e86ec59	0.26352194
59	0x3f33ed80	0.7028427
60	0x3f9b6044	1.2138753
61	0xbf38b76e	-0.7215489
62	0xbf7b9b64	-0.9828398
63	0xbf5f35b0	-0.87191296
64	0xbfb813af	-1.4381007
65	0x3f7917a9	0.9730173
66	0xbee7218b	-0.4514278
67	0xbeb16fac	-0.3465551
68	0xbfb57fb2	-1.4179595
69	0xbf63ebd8	-0.89031744
70	0xbf99e21e	-1.202213
71	0xbf9e7692	-1.2379935
72	0xbf368231	-0.71292406
73	0xbdfea5e5	-0.124339856
74	0xbf9976c7	-1.1989373
75	0x3f4c291b	0.7975022
76	0xbf1496f4	-0.58042836
77	0xbf5f5ba0	-0.87249184
78	0xbe44eec5	-0.19231708
79	0x3f872a45	1.0559775
80	0xbf2ae0cd	-0.6674927
81	0xbf821833	-1.0163635
82	0xbea28f26	-0.3174984
83	0x3ff31e1e	1.8993566
84	0xbf10ac50	-0.5651293
85	0xbfdd48d9	-1.7287856
86	0xbba48b55	-0.0050214925
87	0x3e05d301	0.13068773
88	0xbe9a066d	-0.30083027
89	0xbe7e9a1e	-0.24863479
90	0xbf6e117f	-0.92995447
91	0xbf731f95	-0.94970065
92	0x3e94bfae	0.2905249
93	0xbf92d446	-1.1471031
94	0x3e0d4418	0.13795507
95	0x3f28db80	0.6595993
96	0x3eb762ed	0.35817662
97	0xbfed17ab	-1.8522848
98	0x3f840c38	1.0316229
99	0xbf9c7494	-1.2223077
100	0x3e1144ae	0.14186355
101	0x3e3f7706	0.18697748
102	0xbfb2470c	-1.3927932
103	0xbe7b09ec	-0.24515504
104	0x3f9c1dcb	1.2196592
105	0x3fa3c28f	1.279375
106	0xbdc0e58e	-0.09418784
107	0x3f556f84	0.83373284
108	0xbe886d2d	-0.26645795
109	0xbf8b03c1	-1.0860521
110	0xbde89dcd	-0.11358223
111	0x3f95f6c5	1.1715933
112	0xbf67a48f	-0.9048547
113	0xbf687090	-0.90796757
114	0x3e8538a1	0.26019767
115	0x401cf04f	2.4521673
116	0x3eadf665	0.33977047
117	0xbfc410ec	-1.5317664
118	0xbe0b659e	-0.13612983
119	0x3ff5c380	1.9200287
120	0xbd02b3ec	-0.031909868
121	0x3e86ccd5	0.2632815
122	0x3d1ef637	0.038809028
123	0xbefcc9ef	-0.49372813
124	0x3f74ef34	0.95677495
125	0x40163a52	2.3473096
126	0x3f412a0c	0.75454783
127	0x3f2a9885	0.66638976
128	0x3f1efa3a	0.62100565
129	0xbf6aece5	-0.9176772
130	0xbf5f6dac	-0.8727672
131	0x3fa4ff82	1.2890475
132	0x3fc3bc2e	1.5291803
133	0x3e3456bf	0.17611216
134	0xbf7e7f03	-0.99412555
135	0xbf077670	-0.52915096
136	0xbf34ef77	-0.70677894
137	0x3ef71863	0.48260793
138	0xbf669cff	-0.9008331
139	0xbf316050	-0.69287586
140	0x3e02ea01	0.12784578
141	0xbdd565b6	-0.104197904
142	0xbeaeac7e	-0.34115976
143	0x3f1f2cb7	0.62177604
144	0x40001a5e	2.0016093
145	0x3f7260a8	0.94678736
146	0xbefcb3a3	-0.49355802
147	0x3fe5c7b7	1.7951573
148	0xbee273b1	-0.4422889
149	0x3f96cc8e	1.1781175
150	0x3f8c77f0	1.0974102
151	0x3f04c81f	0.5186786
152	0xbcbe91f0	-0.023262948
153	0xbe42710b	-0.18988435
154	0xbf941a1a	-1.1570466
155	0xbfba7ca2	-1.4569285
156	0xbf48e45c	-0.7847345
157	0x3ef3a979	0.47590235
158	0x3f3f13e1	0.7463971
159	0x3f7d3488	0.9890828
160	0xbf6ddd7c	-0.92916083
161	0xbf02de6e	-0.5112065
162	0x3e84a6a2	0.2590838
163	0xbf068d57	-0.5255942
164	0x400f9004	2.243165
165	0xc0027277	-2.0382364
166	0xbeadd3a8	-0.33950543
167	0x401dca1f	2.4654615
168	0x3fdca80c	1.7238784
169	0xbd66ad3b	-0.05631755
170	0xbaf44911	-0.0018637498
171	0x3eae9287	0.34096166
172	0xbefe869d	-0.49712077
173	0xbee50bed	-0.4473566
174	0xbe9c9566	-0.30582732
175	0xbf2a3091	-0.66480356
176	0xbfd0cf73	-1.6313308
177	0x3fb7415a	1.4316819
178	0x3efd708d	0.49499932
179	0xbd855562	-0.06510426
180	0x3f853d3d	1.0409313
181	0x3fc19ac2	1.5125353
182	0xbfbd9772	-1.4811842
183	0xbf3e93f3	-0.744445
184	0x400e7839	2.2260878
185	0xbfc444fe	-1.5333555
186	0x3f875ec5	1.0575796
187	0x3f1bcc04	0.6085818
188	0x3f681635	0.90658885
189	0x3e331dc0	0.17491817
190	0x3fafe710	1.374239
191	0x3f47e995	0.7809079
192	0x3fe1ba33	1.7634948
193	0x3eaa7fea	0.33300716
194	0x3f9e4de5	1.2367522
195	0x3fa3ea9c	1.2805972
196	0x3fd4df46	1.6630638
197	0x3fdcb99e	1.7244146
198	0x3e8bb6b7	0.27287838
199	0x3e892b34	0.26790774
200	0xbf880eef	-1.0629557
201	0x4011c47d	2.2776177
202	0x3f4f6773	0.81017226
203	0x3f99e279	1.2022239
204	0xbec6f2b3	-0.3885704
205	0xbf3840f2	-0.719741
206	0xbf798aad	-0.9747723
207	0x3ea5ec3f	0.32406804
208	0xbfaa7556	-1.3317058
209	0x3f032a39	0.512363
210	0xbedd4956	-0.43220013
211	0xbf6e349a	-0.93049014
212	0xbf47a851	-0.77991205
213	0x3f7d5ff0	0.98974514
214	0x3fbad879	1.4597312
215	0xbccf5dee	-0.025313344
216	0x3f027ea2	0.50974476
217	0xbf3a939e	-0.72881496
218	0xbf9f6e40	-1.2455521
219	0x3fc0c13a	1.5058968
220	0xbe985d92	-0.29758888
221	0x3f895451	1.0728856
222	0x3f2a8d67	0.6662201
223	0xbe3aaeec	-0.1823079
224	0x3f4cdd16	0.8002485
225	0x3f850f09	1.0395213
226	0x3f920927	1.1409043
227	0xbf33638c	-0.7007377
228	0x3fb848ea	1.4397252
229	0xbf9ae795	-1.2101923
230	0x3fa4bb89	1.2869731
231	0x3de1f55a	0.11033125
232	0xbe443a1d	-0.19162793
233	0x3f3abf59	0.72948223
234	0xbf1d826d	-0.6152714
235	0xbf4f9314	-0.810838
236	0x3fcf1b55	1.6180216
237	0xbfad387a	-1.353286
238	0xbfa90113	-1.3203453
239	0xbd4e137d	-0.050311554
240	0xbf88e3b8	-1.0694494
241	0xbfb064f8	-1.3780813
242	0x3ff04a8b	1.8772749
243	0xbe9f87a2	-0.31158167
244	0xbe7cf423	-0.24702506
245	0xbf74a008	-0.9555669
246	0x3f0548cb	0.520642
247	0x3e8f467b	0.2798346
248	0xbdc33d41	-0.09533168
249	0x3e8be4c5	0.27322975
250	0x3e8d05e4	0.27543557
251	0xbea93297	-0.3304641
252	0x3f713fd6	0.9423803
253	0xbf037803	-0.51355
254	0x3fb98c9c	1.4496036
255	0xbfa6f220	-1.3042641

gamma f4 [128]
0	0x3ee7fedb	0.45311627
1	0x3f95aec8	1.1693964
2	0x3f21c555	0.6319173
3	0x3eef3084	0.46716702
4	0x40049525	2.071603
5	0x3f095857	0.5365042
6	0x3f0a474f	0.5401506
7	0x3f190901	0.59779364
8	0x3f1e83f5	0.619201
9	0x3f0562a2	0.52103627
10	0x3fcecfff	1.6157225
11	0x3efb1f48	0.49047303
12	0x3efc65a3	0.49296293
13	0xbd9609d9	-0.07326097
14	0x3ed3c2ff	0.41359708
15	0x3f21c9d7	0.6319861
16	0x3e842f21	0.25817207
17	0x3fae503e	1.3618238
18	0x3e913f0d	0.28368416
19	0x3fab3408	1.3375254
20	0x3e808f70	0.25109434
21	0x3fac7e8f	1.3476123
22	0x3ed1cefc	0.4097823
23	0x3f0baffc	0.54565406
24	0x3ef9dca7	0.48801157
25	0x3f83a64d	1.0285126
26	0x3f21077e	0.6290206
27	0x3f06af6a	0.5261141
28	0x3f989cd5	1.1922861
29	0x3f9012f8	1.1255789
30	0x3f035e7c	0.51316047
31	0x3f3393fd	0.7014769
32	0x3f2e835b	0.6816918
33	0x3f122ab8	0.57096434
34	0x3f7e5f14	0.9936383
35	0x3fa91b0f	1.3211383
36	0x3f015feb	0.50536984
37	0x3fa6b425	1.3023726
38	0x3f0281d2	0.5097934
39	0x3f2251be	0.6340598
40	0x3f926c42	1.1439288
41	0x3ef9277e	0.48662943
42	0x3ee9c92c	0.45661294
43	0x3f54e24f	0.8315782
44	0x3f265d3d	0.6498602
45	0x3f00d201	0.5032044
46	0x3f084c1c	0.53241134
47	0x3f7b8048	0.98242617
48	0x3f8d2082	1.1025546
49	0x3e97b8c2	0.29633147
50	0x3ec889dc	0.39167678
51	0x3f958217	1.1680325
52	0x3ff74fd7	1.932124
53	0x3f06df94	0.52684903
54	0x3f114d76	0.5675882
55	0x3f999592	1.199877
56	0x3fadc5b1	1.3575956
57	0x3f054dfc	0.5207212
58	0x3f3918c0	0.7230339
59	0x3e910e88	0.283314
60	0x3f95fd4f	1.1717929
61	0x3f964138	1.1738653
62	0x3ef4ccdc	0.47812545
63	0x3f2a34ee	0.66487014
64	0x3f1378fc	0.5760648
65	0x3fb5d9a7	1.4207047
66	0x3f82e6d8	1.0226698
67	0x3fa17167	1.2612733
68	0x3ebe8c8e	0.3721661
69	0x3fa8e4f4	1.3194871
70	0x3f1ca49b	0.6118867
71	0x3fc733f0	1.5562725
72	0x3ee4f2fe	0.44716638
73	0x3ef1c5ca	0.47221214
74	0x3efc7f06	0.4931566
75	0x3f05cc55	0.5226491
76	0x3f821881	1.0163728
77	0x3f0c6e37	0.54855675
78	0x3f137e07	0.5761418
79	0x3f15be2c	0.58493304
80	0x3fa24f85	1.2680517
81	0x3fa2af58	1.2709761
82	0x3f3a59a3	0.72793025
83	0x3f960af2	1.172209
84	0x3f9c4f4c	1.22117
85	0x3eb0bfa3	0.34521207
86	0x3fa6d1a2	1.3032725
87	0x3f21fa7c	0.63272834
88	0x3f98ce86	1.1938026
89	0x3f1d18ff	0.61366266
90	0x3fa312fa	1.2740166
91	0x3e72ae83	0.23699383
92	0x3fc07d5b	1.5038255
93	0x3fae3588	1.3610086
94	0x3fa70dfa	1.305114
95	0x3eb2908b	0.34875903
96	0x3e5b6b33	0.21427612
97	0x3f826d4a	1.0189602
98	0x3f95d435	1.1705385
99	0x3f3b7e87	0.7323994
100	0x3f9abdea	1.2089207
101	0x3fa406bd	1.2814556
102	0x3ee757cb	0.45184168
103	0x3f26c69d	0.6514681
104	0x3e72d1f2	0.237129
105	0x3e84e21e	0.25953764
106	0x3f15ff92	0.58593094
107	0x3fade4ea	1.3585484
108	0x3f8a34b0	1.0797329
109	0x3f1f691d	0.62269765
110	0x3f0e28d3	0.5553104
111	0x3e80a5f5	0.25126615
112	0x3eee5ec6	0.4655668
113	0x3f18c552	0.59676087
114	0x3e8e48c5	0.27789894
115	0x3f96164c	1.1725554
116	0x3f7169a4	0.9430182
117	0x3f10bf02	0.56541455
118	0x3f2d3bf6	0.6766962
119	0x3fb38661	1.4025384
120	0x3f737ccb	0.95112294
121	0x3f174f71	0.5910559
122	0x3f0da125	0.5532401
123	0x3f7c07c7	0.9844937
124	0x3f1bd97a	0.6087872
125	0x3f9a1eb3	1.2040619
126	0x3f214011	0.6298838
127	0x3f9a1578	1.2037802

beta f4 [128]
0	0xbf261674	-0.6487801
1	0x3e5e3b49	0.21702303
2	0xbeb3b0c0	-0.35095787
3	0xbea4764a	-0.32121497
4	0x3e5ffe91	0.21874453
5	0xbef12459	-0.47098044
6	0xbf209e11	-0.6274119
7	0xbef50551	-0.4785562
8	0xbec57070	-0.38562346
9	0xbf0f0793	-0.5587093
10	0x3f16216d	0.58644754
11	0xbf2dc586	-0.6787952
12	0xbee6e822	-0.45098978
13	0xbf4b5fe2	-0.7944318
14	0xbf2c494f	-0.6729936
15	0xbe9ff09c	-0.31238258
16	0xbf1b833c	-0.6074712
17	0x3e6e4d2e	0.23271629
18	0xbf0a9beb	-0.5414416
19	0x3e811bf0	0.25216627
20	0xbf1305d4	-0.5743077
21	0x3eb268c6	0.3484556
22	0xbeed2631	-0.463182
23	0xbeea15d5	-0.45719782
24	0xbf0cd610	-0.55014133
25	0x3e5a1b61	0.21299507
26	0xbeddcec7	-0.4332182
27	0xbf01da2c	-0.5072353
28	0x3eb00b64	0.3438369
29	0x3d958920	0.07301545
30	0xbf0401be	-0.5156516
31	0xbeb304ba	-0.34964544
32	0xbe3e38b8	-0.18576324
33	0xbef37cea	-0.4755624
34	0xbd983569	-0.07432062
35	0x3e970b37	0.29500744
36	0xbeb43b12	-0.35201317
37	0x3ec7dd5c	0.3903607
38	0xbecde1b9	-0.40211275
39	0xbea340a3	-0.3188525
40	0x3dfd8379	0.12378592
41	0xbefbb4a4	-0.49161255
42	0xbee32173	-0.44361457
43	0xbe46a4f3	-0.1939886
44	0xbea980b1	-0.33105996
45	0xbecf2bea	-0.4046319
46	0xbec66945	-0.3875219
47	0xbd902e72	-0.07040109
48	0xbe88c6e5	-0.26714244
49	0xbf3b0df8	-0.7306819
50	0xbf060d05	-0.52363616
51	0x3e6850fe	0.22687146
52	0x3f7313a4	0.94951844
53	0xbed85cf8	-0.4225843
54	0xbeea09c7	-0.45710585
55	0x3ea9434a	0.3305915
56	0x3eadf3a3	0.33974943
57	0xbf013125	-0.50465614
58	0xbebe3cd9	-0.37155798
59	0xbf5585c8	-0.8340726
60	0x3e2db52f	0.16963647
61	0x3e483684	0.19552046
62	0xbee65ce7	-0.44992754
63	0xbed44de9	-0.4146569
64	0xbebb4249	-0.3657401
65	0x3f2b0393	0.6680233
66	0xbd980008	-0.07421881
67	0x3eb67408	0.356354
68	0xbf364ec9	-0.71213967
69	0x3e9ff330	0.31240225
70	0xbec39c18	-0.38205028
71	0x3f2eae2e	0.6823453
72	0xbee77a6b	-0.45210585
73	0xbedf8090	-0.43652773
74	0xbf039851	-0.5140429
75	0xbec7adea	-0.38999873
76	0x3f14b860	0.58093834
77	0xbefd5d74	-0.49485362
78	0xbed50f16	-0.41613072
79	0xbece4b8e	-0.4029202
80	0x3ea7b4a8	0.32755017
81	0x3e909ee5	0.28246227
82	0xbed24504	-0.4106828
83	0x3ecbf115	0.39832368
84	0x3e6dc75e	0.23220584
85	0xbf372349	-0.71538216
86	0x3cc5f5bf	0.024165032
87	0xbecc6d38	-0.39927077
88	0x3e513100	0.20428848
89	0xbec260d7	-0.37964508
90	0x3ed4693d	0.4148654
91	0xbf270153	-0.65236396
92	0x3eed932a	0.4640134
93	0x3eb56542	0.35428816
94	0x3e2b9ce3	0.16759066
95	0xbf4c8a05	-0.798981
96	0xbf0fc7ee	-0.56164443
97	0x3ecb880d	0.39752236
98	0x3ecead28	0.40366483
99	0xbede4eef	-0.43419597
100	0x3e85e4a7	0.2615101
101	0x3ecf7a31	0.40522912
102	0xbf033d7d	-0.512657
103	0xbeb83749	-0.3597968
104	0xbf034c40	-0.51288223
105	0xbf73101f	-0.94946474
106	0xbed2847b	-0.411167
107	0x3ed47add	0.41499987
108	0x3eab065f	0.33403298
109	0xbed29204	-0.41127026
110	0xbecff5df	-0.40617272
111	0xbef9f862	-0.48822314
112	0xbee771b3	-0.45203933
113	0xbee36ec2	-0.4442044
114	0xbf3a6dfd	-0.7282408
115	0x3e282853	0.16421632
116	0x3eb812a1	0.35951713
117	0xbee472fe	-0.44618982
118	0xbebc3991	-0.3676267
119	0x3df194e3	0.11795976
120	0x3dd9f9e2	0.106433645
121	0xbed7ec1a	-0.4217232
122	0xbebf4afc	-0.37361896
123	0x3e5f0bcb	0.21781842
124	0xbe6b7d03	-0.22996907
125	0x3d47fe20	0.048826337
126	0xbe964da7	-0.2935612
127	0x3e5e001e	0.21679732

running_mean f4 [1, 128, 1, 1]
0	0x41c71a9a	24.887989
1	0xc2259e2c	-41.404465
2	0xc237f810	-45.99225
3	0xc1071a9f	-8.443999
4	0x422f18bc	43.774155
5	0xc213d1d8	-36.954926
6	0x410c87c2	8.783144
7	0xc27702be	-61.752678
8	0x411572a9	9.340493
9	0x42b882e2	92.25563
10	0x41aeeda0	21.866028
11	0x41c38e44	24.444466
12	0xc1da3947	-27.277967
13	0xc042bcfe	-3.0427852
14	0x41ceaa94	25.83329
15	0x42294a6a	42.32267
16	0x410e6d07	8.901618
17	0xc06687bb	-3.6020343
18	0x41f78da8	30.944168
19	0xc20c3a27	-35.05679
20	0x4082e979	4.091
21	0xc1dc47fc	-27.535149
22	0x4160a056	14.0391445
23	0xc111c01c	-9.109402
24	0xc28ea8ed	-71.32993
25	0xc2176f6c	-37.85881
26	0xc11fce18	-9.987816
27	0xc24420e4	-49.03212
28	0xc1f57f79	-30.687243
29	0xc156e44f	-13.430739
30	0x41f3a932	30.457615
31	0xc19108f4	-18.129372
32	0x40fd22a4	7.9104786
33	0xc28f8e62	-71.77809
34	0x4161fb37	14.123832
35	0x418a94a4	17.322578
36	0xbfbc0909	-1.4690257
37	0xc1b5c2ec	-22.720177
38	0xc1cbceaf	-25.47592
39	0xc0f28744	-7.579012
40	0x41101a09	9.006356
41	0xc23ab6e6	-46.67861
42	0xc28a312a	-69.09602
43	0x4137a16d	11.476911
44	0x41bb4691	23.409456
45	0xc2787a76	-62.11959
46	0x4222eee3	40.733288
47	0x41cdccab	25.724936
48	0x41a12b7a	20.146229
49	0x41f72a9f	30.895811
50	0x41b43a66	22.528515
51	0x4082968b	4.080877
52	0x4198f214	19.118202
53	0xc079ac9a	-3.9011598
54	0xc202a5e4	-32.662003
55	0xc19651a6	-18.789867
56	0x427291ea	60.642494
57	0xc24d0886	-51.258324
58	0x401fc53d	2.4964135
59	0x4214447e	37.066887
60	0x4197f98b	18.996847
61	0x41ab0d0b	21.381369
62	0xc230d001	-44.20313
63	0xc291b0ef	-72.84557
64	0xc1bac986	-23.3484
65	0x41c7318e	24.899197
66	0xc28cf4bc	-70.478
67	0xc26bf5b6	-58.989952
68	0x4196a0b1	18.828463
69	0xc09da2c0	-4.926117
70	0x41c5acca	24.70937
71	0x419fdfa8	19.984207
72	0xc2af9f9e	-87.81175
73	0xc27b3fa0	-62.812134
74	0x41053625	8.325719
75	0xc15989d0	-13.596146
76	0xc15e321c	-13.887234
77	0xc2477432	-49.863472
78	0xc0343e01	-2.8162844
79	0x4127e698	10.493797
80	0xc2663fad	-57.562183
81	0x41d1b6ab	26.214193
82	0xc106e389	-8.430551
83	0xc191e404	-18.236336
84	0xc2593238	-54.29904
85	0x42845354	66.16275
86	0xc26e0a85	-59.510273
87	0xc0de0f31	-6.9393544
88	0xc2932413	-73.57046
89	0xc1bf96fe	-23.948727
90	0xc1a669e0	-20.801697
91	0x4126c556	10.423178
92	0xc1f530c2	-30.648808
93	0x423899dc	46.150253
94	0xbff234c6	-1.8922355
95	0x41797f65	15.593602
96	0x408ba2a8	4.3636055
97	0xc21af9d3	-38.74397
98	0xc29e1a58	-79.05145
99	0xc195c85c	-18.722832
100	0xc1bcce04	-23.600594
101	0xc22c71be	-43.111076
102	0xc29bfb06	-77.99028
103	0xc1c7a106	-24.953625
104	0x41d5fbb2	26.747898
105	0x423df434	47.48848
106	0xc2bde500	-94.947266
107	0xc24b3eae	-50.81121
108	0xc1bf5bbd	-23.919794
109	0xc15e0cf4	-13.878162
110	0x4032c498	2.7932491
111	0x4143a074	12.226673
112	0xc2a6d066	-83.40703
113	0xc277e52b	-61.973797
114	0x4250538c	52.08159
115	0x40fd6161	7.918137
116	0x40cfdc96	6.495677
117	0xc2a151a1	-80.65943
118	0x40803776	4.00677
119	0x41749918	15.287376
120	0x4211e77c	36.47606
121	0xc2ab9c72	-85.80556
122	0x420793ca	33.894325
123	0xc1a2acb0	-20.33432
124	0xc197c2ba	-18.970081
125	0x41c32b8e	24.396267
126	0xc2a02ee4	-80.09158
127	0xc2101063	-36.016003

running_var f4 [1, 128, 1, 1]
0	0x44b7d495	1470.6432
1	0x45d8a2a4	6932.33
2	0x45ab42e8	5480.3633
3	0x45daaad2	6997.3525
4	0x4601d834	8310.051
5	0x457d5ac9	4053.674
6	0x4494c64b	1190.1967
7	0x454630c7	3171.0486
8	0x459dcfa9	5049.9575
9	0x45638f3b	3640.952
10	0x4695c8c1	19172.377
11	0x4495ed4b	1199.4154
12	0x455c63ce	3526.2378
13	0x457ab97f	4011.5935
14	0x45e309a1	7265.2036
15	0x45be481d	6089.014
16	0x4448256c	800.5847
17	0x45c415b6	6274.714
18	0x453edb1d	3053.6946
19	0x457fa4d8	4090.3027
20	0x437b92e8	251.57385
21	0x44c093e4	1540.6216
22	0x459775d1	4846.727
23	0x43c7d181	399.63675
24	0x45ab9f67	5491.9253
25	0x4649f07e	12924.123
26	0x4634af19	11563.774
27	0x45568343	3432.2039
28	0x452464a9	2630.2913
29	0x44c9aefa	1613.468
30	0x4507a269	2170.1506
31	0x460fc8e4	9202.223
32	0x4612c48f	9393.14
33	0x458bb58e	4470.6943
34	0x4514edab	2382.8542
35	0x45d891bc	6930.217
36	0x45a710da	5346.1064
37	0x44f653cd	1970.6188
38	0x45d58770	6832.9297
39	0x45cb3de3	6503.736
40	0x44ad1c05	1384.8756
41	0x45625cd7	3621.8025
42	0x459b9991	4979.196
43	0x453eb3ea	3051.2446
44	0x45b96b22	5933.3916
45	0x46197a1f	9822.53
46	0x45ccbbbe	6551.468
47	0x45a9f810	5439.008
48	0x45e14be2	7209.4854
49	0x4526ae5c	2666.8975
50	0x44a767bf	1339.2421
51	0x458f1b50	4579.414
52	0x467efd22	16319.283
53	0x45fac70c	8024.881
54	0x458c130d	4482.3813
55	0x457bc91f	4028.57
56	0x464adb9e	12982.904
57	0x45c4f178	6302.1836
58	0x45b4cfce	5785.9756
59	0x4506a51a	2154.3188
60	0x45385557	2949.3337
61	0x45b5ccb3	5817.5874
62	0x45619afe	3609.687
63	0x46aa8dbe	21830.871
64	0x45f6591b	7883.138
65	0x468bc81b	17892.053
66	0x446b58e7	941.3891
67	0x4541a5ca	3098.3618
68	0x45731e2d	3889.886
69	0x455c46ab	3524.4167
70	0x45cc36fd	6534.8735
71	0x463d27f9	12105.993
72	0x459b723c	4974.2793
73	0x45aae273	5468.306
74	0x44a7256b	1337.1693
75	0x45efd3e8	7674.4883
76	0x45198ff6	2456.9976
77	0x455e6b20	3558.6953
78	0x45e88660	7440.797
79	0x45de059c	7104.701
80	0x4615b1da	9580.463
81	0x43942543	296.2911
82	0x462b4a3f	10962.562
83	0x458c78c1	4495.094
84	0x45ecf6df	7582.859
85	0x4538afe8	2954.9941
86	0x460c56ff	8981.749
87	0x4639b16b	11884.3545
88	0x46104f56	9235.834
89	0x45c109b8	6177.215
90	0x4520ff28	2575.9473
91	0x443304a6	716.07263
92	0x44ffc895	2046.2682
93	0x44652c82	916.69543
94	0x4603045f	8385.093
95	0x454f11e0	3313.1172
96	0x443ca899	754.63434
97	0x456d1389	3793.221
98	0x45f3a726	7796.8936
99	0x464c6318	13080.773
100	0x458fb6dd	4598.858
101	0x45ba8ebf	5969.8433
102	0x45e59043	7346.0327
103	0x45fd1843	8099.0327
104	0x44896a99	1099.3312
105	0x450e9e2c	2281.8857
106	0x46adcb21	22245.564
107	0x45849357	4242.4175
108	0x45b5059e	5792.702
109	0x458cf9e7	4511.238
110	0x4615aec3	9579.69
111	0x44b6ed36	1463.4128
112	0x45ab0540	5472.6562
113	0x45b762ce	5868.3506
114	0x451c9559	2505.3342
115	0x45104838	2308.5137
116	0x45cd9868	6579.051
117	0x466a5135	14996.302
118	0x45f82326	7940.3936
119	0x455867b1	3462.4807
120	0x4599c682	4920.8135
121	0x46362de3	11659.472
122	0x4538b01c	2955.0068
123	0x45f2bf24	7767.8926
124	0x46133d67	9423.351
125	0x44940d86	1184.4226
126	0x45821eda	4163.8564
127	0x45c5938a	6322.4424

weight f4 [2, 128]
0	0x3ef001be	0.4687633
1	0x3f03cf30	0.5148802
2	0xbd85ed5d	-0.06539414
3	0xbf4ff29a	-0.81229556
4	0xbf9fff9a	-1.2499878
5	0xbfa214b0	-1.2662563
6	0xbf53602d	-0.8256863
7	0xbf525b2f	-0.82170385
8	0xbf81bfad	-1.013662
9	0x3e06e25e	0.1317229
10	0xbffe6180	-1.9873505
11	0x3f4f5ba0	0.80999184
12	0xbfa17590	-1.2614002
13	0x3de91fd9	0.113830276
14	0x3eacf60c	0.3378147
15	0xbf1e630b	-0.6186988
16	0x3f5cb972	0.8622047
17	0x3f16c239	0.5889011
18	0x3d39fa50	0.045404732
19	0xbd7ab9ff	-0.061212536
20	0x3f4824e3	0.78181285
21	0xbf81cf8e	-1.0141466
22	0x3ead7e79	0.33885553
23	0x3e821846	0.25409144
24	0xc0319b7e	-2.7751155
25	0x3fc3c266	1.5293701
26	0xc02bc2f9	-2.6837752
27	0xbfa1bb58	-1.2635298
28	0xbe9456cd	-0.28972474
29	0xbe56eba3	-0.20988326
30	0x3f912485	1.133927
31	0xbf571064	-0.84009385
32	0xbe1e3304	-0.15449148
33	0xbf523814	-0.8211682
34	0xbf44c7f6	-0.76867616
35	0x3eeb5011	0.45959523
36	0xbeeefc7b	-0.46677002
37	0xbfb18524	-1.3868756
38	0xbe23b859	-0.15988292
39	0xbf3a97a3	-0.7288763
40	0xbee3473f	-0.44390294
41	0xbe4c4cab	-0.19951122
42	0x3f2fd0b0	0.68677807
43	0xbf167a82	-0.5878068
44	0xc0040e20	-2.0633621
45	0xbe0b0ed2	-0.13579872
46	0xbea87be3	-0.32907018
47	0xbf21f5d7	-0.63265747
48	0xbf2451af	-0.6418714
49	0xbe4416ca	-0.19149318
50	0x3fc55464	1.5416379
51	0x3e831c4d	0.2560753
52	0xbf6af1e3	-0.9177534
53	0x3e4ce674	0.20009786
54	0xbf1a37bc	-0.60241294
55	0x3f0ac601	0.5420838
56	0xbfa96bb1	-1.323599
57	0xbfc2663d	-1.5187451
58	0xbfe50c36	-1.7894351
59	0x3ff7d7eb	1.9362768
60	0xbe3c0990	-0.18363023
61	0xbeda3c63	-0.42624196
62	0x3eb1600f	0.346436
63	0x3f3ccda9	0.7375131
64	0xbe89c3ac	-0.26907098
65	0xc00410b9	-2.0635207
66	0xbd4b11ee	-0.049577646
67	0x3f79f722	0.9764272
68	0x401ecf51	2.4814036
69	0xbf0bd84f	-0.54626936
70	0xbf0a7a13	-0.5409252
71	0xbfb64dc2	-1.424248
72	0xbeed44f0	-0.46341658
73	0x3eae6ddc	0.3406819
74	0xbdd0d09a	-0.101960376
75	0xbf7dddbc	-0.99166465
76	0x3f9bdeba	1.2177346
77	0xbf86068c	-1.0470748
78	0xbf8d80bf	-1.1054915
79	0xbf4df031	-0.8044463
80	0x3fb2cb4d	1.3968292
81	0xbf8dd905	-1.1081854
82	0xbfa0b750	-1.2555943
83	0xbe8d786d	-0.2763094
84	0x3eb21741	0.34783366
85	0x3fe4caba	1.7874367
86	0xbe3d940e	-0.1851351
87	0xbfd3809f	-1.6523627
88	0x3ebffb79	0.37496546
89	0xbf5a47b4	-0.8526566
90	0x3f0c5e01	0.5483094
91	0xbadb1dfa	-0.0016717308
92	0xbeb1240f	-0.34597823
93	0xbfa541fa	-1.291076
94	0x3e792ad9	0.24332751
95	0x3f83b7d5	1.0290476
96	0x3e105e06	0.14098367
97	0x3daa7cb1	0.08324564
98	0x3f4305a3	0.76180476
99	0x3f6baafc	0.92057776
100	0xbe007808	-0.12545788
101	0x3f6fcf95	0.9367612
102	0xbfcfbf30	-1.6230221
103	0xbec04fc4	-0.37560856
104	0x3f2370f6	0.6384424
105	0x3f00695d	0.5016077
106	0x3eb466ed	0.35234776
107	0x3ebba93d	0.36652556
108	0x3f60e5ad	0.8785046
109	0xbf6c41a7	-0.9228768
110	0xbf6a1450	-0.91437244
111	0x3e80e0e1	0.2517157
112	0xbf04c9dd	-0.5187052
113	0xbeac69df	-0.33674523
114	0x3edebfa6	0.4350559
115	0xbefaa7ba	-0.4895609
116	0x3f7926ca	0.9732481
117	0x3e20d63c	0.15706724
118	0xbfb29760	-1.3952446
119	0xbf4c90e5	-0.7990859
120	0xbee844ca	-0.45364982
121	0xbf0c717a	-0.5486065
122	0xbede8f2a	-0.434686
123	0x3e7abd87	0.24486361
124	0xbf389257	-0.72098297
125	0xbf429446	-0.760075
126	0xbdeff859	-0.117172904
127	0x3f1a3206	0.6023258
128	0xbe285cbc	-0.16441625
129	0xbf140b4d	-0.57829744
130	0xbdad4a73	-0.08461466
131	0xbf9300d8	-1.1484632
132	0xbf2a957b	-0.6663434
133	0x3fa4e852	1.2883399
134	0xbf95d9e4	-1.170712
135	0x3eb76f85	0.3582727
136	0xbe11eda4	-0.14250809
137	0x3e92cb57	0.2867076
138	0xbfb5c09f	-1.4199408
139	0x3d1647a1	0.036689404
140	0x3f47c6f1	0.78037935
141	0xbd538952	-0.05164463
142	0x3e0cd324	0.13752419
143	0x3d454a65	0.04816665
144	0x3f0e97e6	0.5570053
145	0xbf6fd903	-0.9369051
146	0x3e47dbd1	0.19517447
147	0xbfc7800a	-1.558595
148	0x3f32bcff	0.69819635
149	0xbfa63230	-1.2984066
150	0x3f51030c	0.81645274
151	0x3e20860a	0.15676132
152	0x3f9c7f3e	1.2226331
153	0xbfef51f1	-1.8696882
154	0x3f0d61fe	0.5522765
155	0x3e813556	0.25236005
156	0xbfd11da9	-1.6337177
157	0xbf550ad4	-0.8321965
158	0x3f58e7f5	0.8472894
159	0xbe62d925	-0.22153147
160	0xbe732d4f	-0.23747753
161	0x3e0148d1	0.12625434
162	0xbeb526b6	-0.35381097
163	0xbf84fadd	-1.0389057
164	0x3e515f5f	0.20446537
165	0xbfbf222b	-1.4932302
166	0x3c73d472	0.014882194
167	0xbe670d6d	-0.22563715
168	0xbf62e8b8	-0.8863635
169	0x401a2197	2.4083002
170	0x3fbfdd7a	1.4989464
171	0xbec74632	-0.38920742
172	0x3f1cde35	0.6127656
173	0x3db67080	0.089081764
174	0x3fc5515f	1.5415457
175	0xbeb1465d	-0.34623995
176	0xbec7adaa	-0.38999683
177	0xbf660e21	-0.8986531
178	0x3f7fb45c	0.9988458
179	0xc0247910	-2.569889
180	0xbf33bb08	-0.7020726
181	0x3f79c43b	0.9756505
182	0x3e310f88	0.17291081
183	0xbf48ee08	-0.78488207
184	0xbf7552a4	-0.95829225
185	0x3dc1250f	0.094308965
186	0xbc46504b	-0.012104104
187	0xbe11ed4e	-0.14250681
188	0xbf949eb4	-1.1610932
189	0xc0013ee3	-2.0194633
190	0x3fe63acf	1.7986697
191	0x3f8490e6	1.035672
192	0xbcf6935a	-0.03009956
193	0xbfc8695d	-1.5657154
194	0xbec0d5e4	-0.37663186
195	0xbfc4d857	-1.5378522
196	0x3f9f9de6	1.2470062
197	0xbf35d099	-0.7102142
198	0x3f7f9866	0.99841917
199	0xbfbb018d	-1.4609848
200	0x3d7f4465	0.062321085
201	0x3f353840	0.70788956
202	0xbe840d1f	-0.2579126
203	0x3f38a650	0.7212877
204	0xbfcfee7e	-1.6244657
205	0x3f2ae2b4	0.6675217
206	0x3f0e2aab	0.55533856
207	0x3d1bb66b	0.038015764
208	0xbfbb9d6d	-1.4657418
209	0xbf81a8e5	-1.0129668
210	0xbe4a9cd0	-0.19786382
211	0xbfda2aaa	-1.704427
212	0xbfd3425e	-1.6504629
213	0xbcfa9404	-0.030588157
214	0xbee9c164	-0.45655358
215	0x3df90f31	0.12161101
216	0xbf35ea8c	-0.71061015
217	0x3c8114ae	0.015756931
218	0xbfb76b8c	-1.4329696
219	0xbdd9bcf6	-0.106317446
220	0xbf55ec84	-0.8356402
221	0xbf9efbe2	-1.2420619
222	0xbf5484ac	-0.8301494
223	0x3f85611b	1.0420259
224	0x3e71b4aa	0.23604074
225	0xbf1628bb	-0.586559
226	0xbea23573	-0.31681404
227	0x401986fb	2.3988636
228	0xbf87902f	-1.0590876
229	0xbf5cc460	-0.86237144
230	0x3ebb6882	0.3660317
231	0xbf983fac	-1.1894431
232	0x3f1eb198	0.61989737
233	0xbe461b55	-0.19346364
234	0x3f04be9a	0.51853335
235	0xbf9f9649	-1.2467738
236	0xbfd8b228	-1.6929369
237	0x3ec15f54	0.37768042
238	0x3f74f49e	0.95685756
239	0x3eeb45d8	0.45951724
240	0x3d9e37cb	0.077254854
241	0x3f68732e	0.9080075
242	0xbc8b217c	-0.01698374
243	0xbfd1983f	-1.6374587
244	0xbf0bacab	-0.54560345
245	0x3fdffbe2	1.7498744
246	0xbe1cf74f	-0.15328716
247	0xbf0816f8	-0.5316005
248	0xbff4538e	-1.9087999
249	0x3e5bd812	0.21469143
250	0x3fd3581f	1.6511267
251	0xbf584594	-0.8448117
252	0xbf8856de	-1.065151
253	0xbed115fc	-0.40837085
254	0xbe780cb1	-0.24223591
255	0xbf8c342b	-1.095342

bias f4 [2]
0	0x3f8f2ac7	1.118493
1	0xbf976f95	-1.1830927
