chapter2/test_train/model_2.pth (torch_old, 391077 bytes, 17 tensors)

weight f4 [32, 3, 3, 3]
000000 2b 55 50 3f 59 92 79 3d 61 42 c3 be c6 1d 83 3f
       0.81379956 0.060930584 -0.3813658 1.0243461
000010 ff 46 73 be 0b ee 34 3f 09 32 55 bd 4a 64 c9 3f
       -0.23757552 0.70675725 -0.05204967 1.5733731
000020 d6 17 5a bf d4 9f 7d be 1a ff d6 bd f9 ef 42 3e
       -0.8519262 -0.24768001 -0.104978755 0.19036855
000030 d9 b4 f0 be 3b af 5b bf 0a 8d 16 bd ab a3 69 3f
       -0.47012976 -0.85814255 -0.0367556 0.9126536
000040 b3 d6 4c bf 79 24 a5 be 8c fa 2c bf 18 ab 49 bf
       -0.80015105 -0.3225439 -0.67569804 -0.78776693
000050 8e 6b 0a c0 6d b6 84 bf 3b 15 3e c0 4e a3 e3 3e
       -2.1628146 -1.0368172 -2.9700458 0.4446053
000060 90 ac e6 be 36 7c 0f c0 60 b1 e7 bd dc 35 03 bf
       -0.4505353 -2.2419562 -0.113131285 -0.5125406
000070 b6 72 49 3f ea 09 51 3f c9 da 07 c0 9a 46 25 bf
       0.7869066 0.8165575 -2.1227286 -0.64560854
000080 db 87 0c 3e 12 38 e7 3f 22 4b be bf cf b7 0e 3f
       0.137237 1.8063986 -1.4866679 0.5574922
000090 a3 80 80 3e 91 1a e1 bd 09 48 04 3f 44 c5 93 bf
       0.25098142 -0.10991395 0.51672417 -1.1544576
0000a0 a8 bd d9 bf bb 70 91 bf e0 81 73 3c c0 1f ce bf
       -1.7011003 -1.1362528 0.014862508 -1.6103439
0000b0 27 f2 5a bf 37 06 5b bf 06 41 41 be 45 8b 85 3f
       -0.85525745 -0.8555636 -0.1887246 1.0433127
0000c0 47 c9 c7 bd 93 a5 8e bd 93 06 dc 3c f4 b1 94 3d
       -0.097551875 -0.069651745 0.026858604 0.07260504
0000d0 50 cb b2 bd da 7b 04 c0 88 cb 07 bd 88 86 24 3f
       -0.08730185 -2.0700593 -0.033153087 0.6426778
0000e0 b6 5b 9f 3f 03 f4 dd 3f 39 cb 93 3f b4 44 f8 3f
       1.2449863 1.7340091 1.1546394 1.9395967
0000f0 4d f5 8d 3e 1c bd 29 3f 22 61 8c 3d 33 e2 43 3d
       0.27726212 0.66304183 0.06854464 0.047823142
000100 00 3b 81 3f dd b7 9b bf d1 af 71 3f 0a 40 93 3f
       1.009613 -1.2165486 0.944089 1.1503918
000110 ca d3 88 bd 52 22 88 3e df 59 79 3f e8 7a 3d be
       -0.066810206 0.26588684 0.9740276 -0.18503916
000120 57 09 51 3f ef 13 77 bf ff b5 e1 3f ec 35 7c be
       0.81654876 -0.9651479 1.7633666 -0.24629945
000130 e6 d5 ca be c3 02 74 3f d4 8f ed bc aa 56 04 bf
       -0.39616317 0.95316714 -0.028999247 -0.5169474
000140 24 f8 94 3f 34 13 ef be 36 1b 2c 3f 8c 84 1b 3f
       1.1638227 -0.46694338 0.6722902 0.60749125
000150 a3 3a 8c 3f 88 6f 9b 3f 7c a0 b2 bf bf 91 a0 3f
       1.0955395 1.2143412 -1.3955226 1.2544478
000160 68 c2 2f 3e 40 59 98 3f 58 40 17 3e c4 75 0b 40
       0.17164004 1.1902237 0.14770639 2.1790628
000170 49 be 8c 3f 5e a3 91 3f 7d 81 25 3f 3c dd 1d 40
       1.099557 1.1377981 0.6465071 2.466628
000180 ef a0 4c 3f b4 b3 b7 3f c5 c3 79 3f 27 65 86 be
       0.79933065 1.4351716 0.97564346 -0.26249048
000190 9c 27 5c 3f 13 fa 4b be db 20 ac be 3a ed e2 bf
       0.8599794 -0.19919614 -0.33618817 -1.7728646
0001a0 46 f6 b2 3f 2a da 91 be fa e3 c3 3f a5 26 97 bf
       1.3981407 -0.28486758 1.5303948 -1.1808668
0001b0 b2 44 33 be f9 3b 8c bf 7a 58 f7 3e 46 e5 1e 3e
       -0.17506674 -1.0955802 0.4830969 0.15517148
0001c0 37 62 5e 3f 69 b5 91 bf 88 54 98 bf dd 33 d6 bf
       0.86868614 -1.1383487 -1.1900797 -1.6734577
0001d0 bc de d6 3f 04 8c 07 3e 23 06 57 3f aa 78 09 c0
       1.6786723 0.13237005 0.8399374 -2.1479897
0001e0 5f 3a ad be 4a 2c 05 40 d8 d5 e3 3f 77 86 f5 bd
       -0.33833596 2.0808282 1.7799635 -0.11988538
0001f0 cf e1 ed be d2 26 05 3f 8e 85 fa be 0a a7 ac be
       -0.4646134 0.5201236 -0.4893002 -0.3372119
000200 3f b7 01 40 07 7c 1f bf e1 e8 c3 3f f4 0c 71 40
       2.0268095 -0.62298626 1.5305444 3.7664156
000210 cf 9f 35 3f 8a 76 54 3f 20 ad 12 3f 42 21 00 c0
       0.70946974 0.82993376 0.5729542 -2.00203
000220 8b 5f 8f 3f 6d b8 4f bf 1e 0b ab bf 34 1e 88 be
       1.1201032 -0.81140786 -1.3362768 -0.26585543
000230 f7 15 bd bf 7b cc 90 3e 81 ce 9f 3f 85 ef 88 be
       -1.4772328 0.28281006 1.2484895 -0.2674524
000240 f0 29 06 bf 88 c0 09 3d 77 91 26 3f 69 75 df 3d
       -0.5240774 0.033630878 0.6506571 0.10911066
000250 16 21 d4 bf b9 e0 aa 3f 31 04 b2 bf 9d d2 97 be
       -1.6572597 1.334983 -1.3907529 -0.29652873
000260 6d 40 3b bf 36 40 53 c0 9b 20 1a 3e e7 8e c2 be
       -0.7314518 -3.3007941 0.150515 -0.3799965
000270 5e 19 68 bf 0d cc bd bf 32 82 bc be 8b 5c 9c 3f
       -0.9066371 -1.4827896 -0.3681808 1.2215742
000280 e0 80 bf bf a5 54 e5 3e 19 ed a5 bf bd 44 27 bf
       -1.4961205 0.4479114 -1.2962981 -0.6533926
000290 46 4b f5 3d 99 79 2a 3f 5e c7 3f 3e c1 c2 bb 3e
       0.11977248 0.66591793 0.18728396 0.36672023
0002a0 2e e0 0c c0 93 82 9b bf c9 da fe 3e bb ca 26 be
       -2.2011828 -1.2149223 0.49776295 -0.16288273
0002b0 6d 5d 0b 3f 8a 8b 8f bf 32 73 b7 3f 22 d8 9f bf
       0.5443943 -1.1214459 1.433203 -1.2487833
0002c0 85 9d 4f bf 31 70 53 bf 89 12 19 3e 16 2a d2 3f
       -0.8109973 -0.82593066 0.14948477 1.6419094
0002d0 f1 cd 2d c0 99 52 a9 3e dc ed 95 bf b6 ce 9b bf
       -2.7156947 0.3307083 -1.1713214 -1.2172458
0002e0 c5 8f 07 bf f1 3a 04 c0 b7 e4 07 be 73 3e 79 bf
       -0.5295375 -2.0660975 -0.13270842 -0.97360915
0002f0 fa 0b cb bf 48 60 0e c0 77 49 d3 be 39 59 f5 3f
       -1.586303 -2.2246265 -0.41266987 1.9167854
000300 df 7f 39 3f 89 81 b9 3e 43 c2 f1 be 80 94 b7 3e
       0.7246074 0.3623164 -0.47218522 0.35855484
000310 71 f3 c5 be b8 fb 32 3f 5e 11 a5 3f 68 3e b1 bf
       -0.38662294 0.6991534 1.2895925 -1.384717
000320 c9 b3 66 bf ed 0f 31 c0 90 b4 b3 3f 3f d7 0b bf
       -0.9011808 -2.766597 1.4039478 -0.54625314
000330 b0 5a a4 bf b8 c8 86 3e ad 77 a1 3e e8 59 78 bf
       -1.2840176 0.2632501 0.31536618 -0.97012186
000340 23 f3 b5 3f 5e 2d 10 c0 84 5f 89 be ec 83 c8 3e
       1.4214824 -2.252769 -0.26830685 0.39163148
000350 90 fb 1d c0 9b 25 13 bf 21 18 df be e2 9d 67 bf
       -2.4684792 -0.57479256 -0.43573096 -0.90475285
000360 66 1d b4 be 80 6c b6 be 2a 7e 47 bf 2b 5a c6 3c
       -0.3517868 -0.35629654 -0.77926886 0.024212917
000370 16 9a 77 3f e6 46 51 3f 21 70 33 bd aa b7 3d bf
       0.9671949 0.8174881 -0.043808106 -0.74108374
000380 32 b9 97 3e c8 f8 ec 3d 57 11 88 3f 7a 0b 51 be
       0.2963348 0.11570889 1.0630292 -0.20414534
000390 4b 11 b0 bf 59 e5 fb 3e d4 10 98 bf d2 fc 71 be
       -1.3755277 0.49198416 -1.1880136 -0.236316
0003a0 c9 13 74 3e 90 99 f0 bf 2a 79 90 bf 9e 6b 91 3e
       0.23835672 -1.8796864 -1.1286976 0.28402418
0003b0 28 d1 3a be bb ff d8 3e c4 94 34 c0 d6 5c 7a bf
       -0.1824385 0.42382607 -2.82158 -0.97797906
0003c0 a0 99 84 bf 9f 11 a9 bf 7b 50 be bf c6 6d 12 40
       -1.0359383 -1.3208503 -1.4868311 2.28795
0003d0 15 c7 78 3f 64 03 a8 be a9 67 a6 3f d6 c1 10 40
       0.97178775 -0.32815087 1.3000385 2.2618308
0003e0 e1 63 de 3e 6f 7d 98 bf 3f ce 7c bf 36 3a 1d 40
       0.43435577 -1.1913279 -0.98752207 2.456678
0003f0 68 1b 81 bb a8 92 c5 be 6f 25 4e 3f cf e9 97 3f
       -0.0039400347 -0.38588452 0.8052587 1.1868228

gamma f4 [32]
000000 eb 9a b2 3f e1 99 1c 3f 4f 40 ca 3d f1 02 9a 3f
       1.3953527 0.611723 0.09875547 1.2032148
000010 37 59 22 bd 7a 45 01 40 67 57 02 40 3c 53 86 3f
       -0.039635863 2.0198655 2.0365846 1.0494151
000020 f0 87 c4 3f f7 7e b0 3f 83 69 2b 3f a8 47 a8 3f
       1.5353985 1.3788747 0.66957873 1.3146868
000030 e8 97 55 3f 3e 3b 8f 3f 1b f1 83 3f 9f 73 b7 3f
       0.83434916 1.1189954 1.0307955 1.433216
000040 95 a5 b6 3f ea 02 9e 3f b3 83 19 3f 57 b2 06 3f
       1.4269282 1.2344639 0.5996658 0.52615875
000050 cf de 5b 3f 60 ee ac 3f 4d 89 08 3f ce 05 81 3f
       0.85886854 1.3510246 0.53334504 1.0079896
000060 f2 02 bd 3f 94 ea cf 3f 50 b2 92 3f fc 04 c5 3f
       1.4766524 1.6243463 1.1460667 1.5392146
000070 a1 b5 37 3f f7 19 a2 3f 91 00 76 3e 15 bf 91 3f
       0.7176152 1.2664174 0.24023654 1.1386439

beta f4 [32]
000000 4c b4 d9 3e fd fa bc be 81 42 0a bf 35 2b b4 3e
       0.42520368 -0.3691024 -0.54007727 0.35189214
000010 81 80 1e 3f 84 45 11 3e a1 5b 2e 3e b8 37 88 3e
       0.6191483 0.14186674 0.17027141 0.2660501
000020 ab 4e 37 be 82 f4 59 3f 8e d8 9a bd 49 aa c1 bd
       -0.17901103 0.85138714 -0.07560836 -0.094563074
000030 02 1b d0 bd d5 3a da 3e ec 7d ab be 4d 68 1c 3e
       -0.10161401 0.4262301 -0.33494508 0.15274163
000040 c9 6d 0b 3f 4d ee d9 be 44 02 d0 be 3b 16 6f be
       0.54464394 -0.42564622 -0.4062673 -0.23348324
000050 95 7a 31 3f 26 1e f4 3e eb d9 00 3f 71 bf 1c 3f
       0.6932767 0.4767925 0.50332516 0.61229616
000060 6e b4 92 3d e0 3b 34 be 27 e4 96 3d c9 97 1c 3d
       0.071633205 -0.17600965 0.07367735 0.03823069
000070 cc c2 93 3e 81 85 64 be b9 0c 3c bf c9 3f 7f 3d
       0.28859556 -0.22316553 -0.73456913 0.06231669

running_mean f4 [1, 32, 1, 1]
000000 0a 6f 70 c0 89 81 58 c0 93 75 9c 40 da 6e b4 40
       -3.7567773 -3.3829062 4.8893523 5.6385317
000010 76 da 57 40 d4 55 94 c0 da d2 ac c0 1a 7c 65 c0
       3.3727088 -4.635477 -5.4007387 -3.5856996
000020 af 1e 90 c0 80 09 e4 40 0e 95 94 40 a6 38 95 c0
       -4.5037456 7.1261597 4.643195 -4.663165
000030 5e ea 27 c0 d9 7f f9 40 1a b0 67 c0 f8 11 91 40
       -2.6236796 7.7968564 -3.6201234 4.5334435
000040 46 ae ec 40 ce 83 9f c0 f6 93 66 c0 a6 4d 0c 41
       7.3962736 -4.9848394 -3.6027808 8.768957
000050 3e a4 45 c0 18 30 13 41 bd 56 e3 40 3a ce b6 40
       -3.0881495 9.199242 7.104338 5.712674
000060 24 30 45 c0 36 ed 8c c0 f8 21 3e 40 69 38 ad 40
       -3.0810633 -4.4039564 2.9708233 5.413136
000070 38 c7 96 40 4c 4a 5f c0 9a c6 03 c0 7a ac 9e c0
       4.7118187 -3.4889097 -2.0589967 -4.9585543

running_var f4 [1, 32, 1, 1]
000000 02 ef 9a 40 17 b5 67 40 7c a9 de 40 81 3a 16 41
       4.8416758 3.6204278 6.958189 9.389283
000010 fd 19 83 40 f9 7a d6 40 c1 76 12 41 a8 a2 87 40
       4.0969224 6.7025113 9.153993 4.2386055
000020 25 75 d3 40 f8 a9 73 41 f7 28 d7 40 ec f2 d7 40
       6.60805 15.228996 6.7237506 6.7484035
000030 20 fb 18 40 96 a8 91 41 3f 3d 76 40 95 16 be 40
       2.3903275 18.207317 3.8474882 5.9402566
000040 f9 dc 7e 41 ba 5c ea 40 44 db 89 40 fc 9c b2 41
       15.928948 7.323819 4.308016 22.326653
000050 55 b1 4e 40 bc 82 c5 41 f1 b3 67 41 c1 2f 1c 41
       3.2295735 24.688835 14.481431 9.761659
000060 6d 6b 39 40 d4 47 c5 40 d3 b4 26 40 b7 45 11 41
       2.8971817 6.165018 2.6047866 9.07952
000070 93 6d e3 40 22 57 66 40 78 d9 b8 3f 6d b6 eb 40
       7.1071258 3.5990682 1.4441366 7.366019

weight f4 [64, 32, 3, 3]
000000 2b 9b 7f 3e b4 49 72 3f 3b 0b a6 be 23 99 c0 be
       0.24961536 0.9464371 -0.32430443 -0.37616834
000010 44 61 59 3f 24 f6 b7 3f 85 7c f6 3f 83 84 8b 3d
       0.8491404 1.4371991 1.925675 0.06812384
000020 75 9b f1 3f 69 0e 9b 3d 49 22 bd 3f e2 17 af 3e
       1.8875567 0.07571108 1.4776088 0.3419791
000030 ce 88 1f bf 85 ce 84 3e bf 12 eb be 21 d6 26 be
       -0.6231812 0.25938812 -0.4591274 -0.16292621
000040 f6 70 18 3f b5 24 83 3f 8a 02 5d 3f f5 5f 0c bf
       0.59547365 1.0245577 0.86332 -0.5483392
000050 31 59 d7 bd 68 e5 90 be af 98 61 bf a9 d5 00 3f
       -0.10515059 -0.28300023 -0.881236 0.5032602
000060 08 d4 84 3f be 80 7b 3c 6d 9d 36 bf f0 a6 86 3f
       1.0377207 0.015350519 -0.7133396 1.0519695
000070 da 6c c4 3f 4d fa 97 bf c9 0a 67 3e 47 c5 34 c0
       1.5345719 -1.1873261 0.22562708 -2.8245409
000080 7a 67 bd 3e 3f 39 8c bf 79 83 56 be 13 e4 ba bf
       0.3699301 -1.095497 -0.2094859 -1.4600853
000090 16 54 1f 3f 6e ac cb bf f1 ca 2a be 3b 51 03 bf
       0.6223768 -1.5911996 -0.16678979 -0.5129582
0000a0 05 fb b4 3f 9a f4 70 3f 7a 9f df bf 74 e3 4e 3f
       1.4139105 0.9412323 -1.7470543 0.80815816
0000b0 fd f2 ce 3f a5 42 ba 3f 44 e8 4e 3f e4 89 a7 3f
       1.6167904 1.4551588 0.8082316 1.3088956
0000c0 88 2a 0c be 92 80 a6 3f 06 26 04 3f d4 66 c1 3f
       -0.136881 1.3007987 0.5162052 1.5109506
0000d0 a3 d6 c6 3f 88 26 ac be 02 4c 14 bf e6 f2 db bd
       1.5534252 -0.33623147 -0.5792848 -0.107396886
0000e0 e6 a5 9b 3f ca 25 6b 3f a7 ca 0e 40 66 83 a3 3f
       1.2160003 0.91854537 2.231119 1.2774475
0000f0 15 e7 d3 3f 53 23 33 40 a0 bf 21 3e f1 36 c5 be
       1.6554896 2.799031 0.15795755 -0.3851848
000100 e5 07 01 3f a4 f5 09 3e 56 c7 fa be d9 b7 94 3f
       0.5040267 0.1347261 -0.48980206 1.1618606
000110 de fb 18 bc d0 20 b7 3f d1 30 d8 be 62 f8 06 40
       -0.009337394 1.4306889 -0.42224744 2.10891
000120 61 8a 31 3f 97 55 f0 bd 28 3c 40 3f f5 43 55 bd
       0.69351774 -0.11735075 0.7509179 -0.052066762
000130 c5 27 10 40 30 20 e9 3e b4 82 03 40 e5 4d 9d 3f
       2.2524273 0.4553237 2.0548525 1.2289397
000140 3c d8 21 40 19 49 01 3f 25 be db bf a6 41 79 bc
       2.528823 0.50502163 -1.7167403 -0.015213406
000150 48 bc 6e 3f 3e bd cb 3f fe cd 75 bf 27 76 ec bf
       0.93256044 1.5917127 -0.96017444 -1.8473557
000160 df d2 c4 3d 8e 92 f1 be 3d 12 e4 3e 4b ea b5 bd
       0.09610533 -0.47182125 0.44545165 -0.088825785
000170 41 eb 52 3f c5 e7 23 bf d7 84 20 3f cc c1 74 3f
       0.8239022 -0.6402553 0.627027 0.9560821
000180 4c 10 aa 3f 2b 58 e3 be 28 ad 1e 3e ca a1 b7 3f
       1.3286223 -0.44403204 0.15495741 1.4346249
000190 b6 b6 d4 3f ff ce e4 3e 4a 2f 0a 3f 3a e5 e1 3f
       1.6618259 0.44689175 0.5397841 1.7648079
0001a0 c2 26 0e 40 b0 7c b8 be 4b 27 0e 40 bc a1 e5 3f
       2.2211156 -0.3603263 2.2211483 1.7939982
0001b0 34 7b 43 bf 49 cf 90 3f 8a cd d8 3e 02 b4 5a 3e
       -0.7635987 1.1313258 0.42344314 0.2135773
0001c0 67 db 45 be 92 81 9b 3f e7 01 8f 3f 4c 50 b8 3f
       -0.19321977 1.2148917 1.1172456 1.4399505
0001d0 6b bd c4 3f d6 29 cc 3d 5b 1f 21 bf 9a 7c 14 bf
       1.5370306 0.09968917 -0.6293847 -0.58002627
0001e0 a8 17 90 3e 40 59 4f be cd 83 cc be 04 f9 e0 3d
       0.28143048 -0.2024889 -0.39944306 0.10984996
0001f0 43 23 98 be 14 3a 10 3e 72 e0 81 be a3 c4 b3 3e
       -0.29714403 0.14084655 -0.2536655 0.3511096
000200 63 de ba 3e 1c 86 2e bf fe f8 8b 3d e0 5d 48 3e
       0.36497793 -0.68173385 0.06834601 0.1956706
000210 4c df b7 be 01 d6 8f bf 32 d7 48 bf 97 ad 97 bf
       -0.3591255 -1.1237184 -0.7845336 -1.184985
000220 c1 e7 01 c0 ce 7f 46 bf 36 32 d4 bf f8 af 79 bd
       -2.0297701 -0.77538764 -1.6577823 -0.060958833
000230 e4 6c 43 3e 9e 16 1e 40 e1 d8 43 be fc f4 aa bf
       0.19084507 2.4701304 -0.19125701 -1.3356013
000240 45 9a d3 be b1 aa 0f bf 7c e6 a1 bd bb 02 bf be
       -0.41328636 -0.5611983 -0.079052895 -0.3730677
000250 ff 43 13 40 78 37 91 be 04 40 f8 be 8f 74 2a bf
       2.3010252 -0.28362632 -0.4848634 -0.66584104
000260 ce 16 7e 3f 19 54 da 3f 25 d4 e5 3e 17 3c c3 3f
       0.9925355 1.7056915 0.44888416 1.5252713
000270 8b 69 f4 be 7e 5e d9 be ab f4 31 3f 59 f3 89 bf
       -0.47736773 -0.42454904 0.6951396 -1.0777389
000280 00 db 0d 3f 3a 68 b3 3f 8d 05 a5 3f 22 ab 86 be
       0.5541229 1.4016182 1.2892319 -0.2630244
000290 0f c3 ec 3e ca 78 f9 bf b2 e8 9f 3f 1c 3a 30 3f
       0.46242568 -1.9489987 1.2492888 0.6883867
0002a0 e2 3d 00 be fe 29 ed be a0 93 d6 be 1e f6 31 bf
       -0.12523606 -0.463211 -0.41909504 -0.6951617
0002b0 84 f2 52 3f f6 1e 6e 3e d7 c8 0d 40 47 ba d8 be
       0.824013 0.23253998 2.2153833 -0.42329618
0002c0 d4 c6 18 3f 1a d5 36 be c6 b7 15 3f 8e 83 86 3f
       0.5967839 -0.1785473 0.5848354 1.0508897
0002d0 02 f4 e1 3e af 63 50 3f a3 4f 4a bf 1d 39 75 3f
       0.44131476 0.81402105 -0.79027766 0.9579027
0002e0 e5 a3 86 3e 87 20 4b bf 62 8d 24 c0 f0 48 63 bf
       0.26296917 -0.7934651 -2.5711293 -0.8878317
0002f0 f0 ba b8 bf af c2 c9 bf 0e a4 3c be 55 93 97 3e
       -1.4432049 -1.5762538 -0.18421957 0.29604593
000300 77 9d 11 bf 2c c2 8e bf 8f 24 8c bf 37 8e 29 bf
       -0.568809 -1.1153007 -1.0948657 -0.6623263
000310 00 4b 49 bf 30 17 36 3f d0 bf 07 bf 86 51 e2 be
       -0.78630066 0.7112913 -0.5302706 -0.44202822
000320 75 6a 0a 40 35 dc dd 3f 1b 37 c6 3f a6 52 a5 bc
       2.1627476 1.7332827 1.5485567 -0.020181011
000330 78 b0 99 3e b6 28 2f 40 c3 41 f1 3f 69 b4 c3 3e
       0.30017447 2.7368598 1.8848194 0.3822358
000340 d0 19 bf 3f 9b 84 91 3f a8 97 36 be 53 50 01 3f
       1.4929752 1.1368593 -0.1783129 0.5051319
000350 a5 ee dd 3e 51 1a a1 bf 43 91 09 bd d9 59 bb be
       0.43346134 -1.2586156 -0.033585798 -0.36591986
000360 38 0e dc 3f a8 0d 07 c0 bb 84 0d 3f 12 2e b9 bc
       1.7191839 -2.1102085 0.55280656 -0.022604976
000370 30 88 e7 be 19 f0 c1 3f e4 00 05 40 2e fa 31 bf
       -0.4522109 1.5151397 2.0781794 -0.6952237
000380 02 e6 06 3e 12 c1 d9 be 6b b9 9f 3e 73 9b 5f be
       0.13173679 -0.42530113 0.3119615 -0.21836643
000390 06 0e 54 be d6 05 ef 3e bc f6 c3 3f f9 b3 72 3e
       -0.20708475 0.4668414 1.5309672 0.23701467
0003a0 e5 73 02 be 30 2b c3 3f 00 a1 32 bf d6 cf e7 3d
       -0.12739523 1.5247555 -0.69776917 0.113189384
0003b0 02 f2 aa 3f 43 58 1e c0 64 4d 0c bf b6 80 c1 3e
       1.3355105 -2.474137 -0.5480559 0.3779351
0003c0 6b 53 cb bf cb ab 2e 3f 80 06 7a be 17 94 30 bf
       -1.5884832 0.68230885 -0.24416542 -0.6897597
0003d0 46 f7 e5 bf b3 8d a3 be d1 be 30 40 c2 7d e1 be
       -1.7966087 -0.31944045 2.7616465 -0.44041258
0003e0 aa 1e d1 3e 81 1d d4 be 0e 6e 9a bf cb 97 37 bf
       0.40843707 -0.4142876 -1.2064836 -0.7171599
0003f0 70 56 c3 3f 82 27 e4 3f 6a 20 21 be 45 38 8d 3e
       1.5260754 1.7824557 -0.15735021 0.27581993

gamma f4 [64]
000000 13 ba af 3f de ad 9a 3f dd 8f 54 3f 19 30 8c 3f
       1.372866 1.208431 0.8303202 1.0952178
000010 f0 ac ba 3f 4d ea 96 3e e9 0a c3 3f 69 99 2b 3f
       1.4584026 0.29475632 1.5237705 0.6703096
000020 cc e1 01 3f ea 34 eb 3f eb 1c 4a 3f 7f 03 c8 3d
       0.50735164 1.8375523 0.78950375 0.09766292
000030 2e 4e e9 3f 26 26 24 3f 40 db a0 3f f3 29 67 3f
       1.8226984 0.6412071 1.256691 0.90298384
000040 a3 83 d6 3f ff 25 26 3f 2a 16 97 3f 47 32 b3 3e
       1.6758922 0.6490173 1.1803639 0.34999296
000050 70 1f b0 3f 5e 9d 58 3f 80 b4 a1 3f d4 9e 09 3f
       1.3759594 0.84615123 1.2633209 0.5375798
000060 f0 03 9c 3f 3a 3a 48 3f 40 0d 98 3f 62 2b 3d 3f
       1.2188702 0.78213847 1.1879044 0.7389432
000070 1d f5 a7 3f 33 d6 5e 3f 36 88 70 3f 5b 9c 8a 3f
       1.3121678 0.8704559 0.9395784 1.0828966
000080 82 b6 a9 3f 24 c2 1d 3f 7d 88 57 3f eb af 03 40
       1.3258822 0.6162436 0.8419264 2.0576122
000090 9c 6a cb 3f fa 6c b8 3f 85 e9 09 3f e9 5a e3 3f
       1.589191 1.4408257 0.5387195 1.7762119
0000a0 ed 06 b2 3f 80 c4 a2 3f a1 31 08 40 25 27 38 3f
       1.3908364 1.2716217 2.128029 0.7193473
0000b0 96 db 92 3f 8c 2d 98 3f e7 92 90 3f ab 86 86 3f
       1.1473262 1.18889 1.1294831 1.0509847
0000c0 57 43 d6 3f 48 4a b5 3f 5e e4 58 3f 7f f3 83 3f
       1.67393 1.4163294 0.8472346 1.0308684
0000d0 fd fb cf 3f 30 5d bf 3f 0c e0 bf 3f 9f 19 c6 3f
       1.6248776 1.4950314 1.4990249 1.5476569
0000e0 92 3e 3c 3f b1 ca 91 3f 0b 17 2f 3f 26 0b 81 3f
       0.73532975 1.1389982 0.68394536 1.0081527
0000f0 f2 a8 0d 3f 93 9f 52 3f 39 85 a9 3f f2 ce 80 3f
       0.55335915 0.8227474 1.3243781 1.0063155

beta f4 [64]
000000 09 05 0e be 3d a2 12 bd 98 fd 2a 3f 8e 30 61 bf
       -0.13869108 -0.035799254 0.66793203 -0.87964714
000010 c6 88 83 3e 8f c6 32 bf 38 e7 05 bd 25 32 51 bf
       0.25690287 -0.69834226 -0.03269121 -0.8171714
000020 af 64 39 bf 08 8d 1b 3d b0 de 93 bf 6a 7e 25 3e
       -0.72419256 0.037976295 -1.1552334 0.16161504
000030 61 d5 25 bc 18 3e 85 bf c5 73 36 be fa 55 0e be
       -0.010121674 -1.0409575 -0.178176 -0.13899985
000040 f0 92 22 3e ed c8 9f be f3 75 cd be d8 0b e9 be
       0.15876365 -0.31207982 -0.4012905 -0.4551685
000050 ac 31 65 3c 25 8e a8 be c4 d1 39 3d e5 0c 21 bf
       0.0139888935 -0.32920948 0.045366064 -0.629103
000060 a9 fb 63 3d 5d d2 cf 3d b3 9e ed 3e 74 a1 32 bf
       0.055659924 0.101475455 0.4641014 -0.6977761
000070 c3 bb 11 3f 49 38 f7 be c4 46 67 be e0 d1 a2 3b
       0.56927127 -0.4828513 -0.22585589 0.0049688667
000080 49 ab 70 bd 37 82 ca be fa 14 c3 3c d1 99 49 3e
       -0.0587571 -0.3955247 0.023813713 0.19687583
000090 5d 81 10 3f 60 85 00 bf 88 ab d4 3e 7a 72 05 3f
       0.5644739 -0.50203514 0.41537118 0.521278
0000a0 4d 81 d3 bd 2e 27 24 3e f5 e3 66 3f 4b d1 25 3f
       -0.103273965 0.16030571 0.90191585 0.6477248
0000b0 7e 9f af be e7 33 15 bf 58 45 c5 be d4 05 90 be
       -0.3430137 -0.5828232 -0.38529468 -0.28129447
0000c0 f2 7c d8 3d 3a 9d b9 3d b2 56 87 be 41 71 5a be
       0.105707064 0.09063192 -0.2643333 -0.21332265
0000d0 fc e9 31 3d 8a af d6 be aa 49 0c 3f 4f 3c 0e 3f
       0.043436036 -0.419308 0.547999 0.55560774
0000e0 5a 46 22 bf b7 83 87 3d 61 25 30 bf ef e1 bf be
       -0.633886 0.066169195 -0.68807036 -0.3747706
0000f0 72 d0 06 bf 49 8d 3a bf b5 d0 fb bb e0 e5 f3 3e
       -0.5266181 -0.72871834 -0.007684792 0.47636318

running_mean f4 [1, 64, 1, 1]
000000 e4 31 46 42 fc 7e 5a c0 db e8 28 c2 01 74 26 41
       49.54872 -3.4140005 -42.227398 10.403321
000010 6a d5 48 c0 82 4f 50 c1 76 df 3b 41 cc f2 1a c2
       -3.1380258 -13.019411 11.742056 -38.737106
000020 5f b8 47 c2 ab b1 86 41 dd 38 0d c2 66 1b 51 c1
       -49.93005 16.836752 -35.30553 -13.069189
000030 a4 31 0d 41 09 c9 86 41 03 e8 f1 41 4c b4 20 41
       8.824619 16.848162 30.238287 10.044018
000040 44 b7 46 bf 02 fd 3f c1 6a e3 2b 42 04 9b 38 c1
       -0.7762339 -11.9992695 42.972084 -11.537846
000050 78 5f 1c 42 31 11 d0 41 8f 31 51 41 2c f5 55 c2
       39.09323 26.008394 13.074599 -53.489426
000060 38 14 e7 c1 4e ee 65 c2 40 d7 7d c1 2c e4 87 c2
       -28.884872 -57.48272 -15.865051 -67.94565
000070 93 1d d6 c1 3c 31 3b 42 46 4b 54 3f ee 8c 3f c1
       -26.76444 46.79808 0.8292736 -11.971907
000080 92 5d c3 41 6e 28 81 c2 7a 71 73 41 e4 9c 02 41
       24.420689 -64.578964 15.215204 8.163303
000090 47 d3 81 c2 71 f0 c2 41 e4 69 6f c2 01 8f 9e 41
       -64.91265 24.367403 -59.85341 19.819826
0000a0 97 ef 72 42 6b 40 37 42 eb 7e 8f 40 8a ca 93 41
       60.733974 45.81291 4.484243 18.473896
0000b0 86 c6 55 41 43 f6 a7 41 6c 17 2a 42 68 d7 fa 41
       13.360968 20.995245 42.522873 31.355179
0000c0 1e 7c 11 c1 2a 43 39 42 d8 2d 55 c2 dd c5 7d c1
       -9.092802 46.31559 -53.29477 -15.860806
0000d0 1a e9 db 40 78 bb 69 c2 fe 93 5f c0 36 39 52 42
       6.872205 -58.433075 -3.4934077 52.55587
0000e0 50 3e 9d c1 72 0c f1 41 02 80 9f c1 a5 83 e4 41
       -19.655426 30.131077 -19.937504 28.56428
0000f0 2d 62 3f c2 34 fc 85 c1 79 09 53 41 a3 97 22 41
       -47.845875 -16.748146 13.189813 10.162021

running_var f4 [1, 64, 1, 1]
000000 73 7b 2b 45 ca 94 91 45 49 63 e4 44 4f 2d e5 44
       2743.7156 4658.5986 1827.1027 1833.4159
000010 0c 8b 9d 45 02 2d f5 45 44 bc 19 45 91 96 a6 44
       5041.381 7845.626 2459.7666 1332.7052
000020 d6 44 48 44 e0 07 8d 45 fb 3f 97 44 76 87 10 45
       801.07556 4512.9844 1209.9994 2312.4663
000030 8c 11 2c 45 47 f0 f0 44 90 c8 9c 44 d8 75 6e 45
       2753.0967 1927.5087 1254.2676 3815.3652
000040 16 64 a2 45 46 12 dd 44 b6 5e e2 44 5a aa 54 45
       5196.5107 1768.571 1810.9597 3402.647
000050 39 6c cc 44 6f ae 85 44 e4 8a 00 45 9d 6d 00 45
       1635.382 1069.451 2056.6807 2054.8508
000060 0c 18 77 45 a2 92 ea 43 98 3b 85 45 8f a4 6e 45
       3953.503 469.14557 4263.449 3818.285
000070 d2 97 cc 45 0d b9 b0 45 71 aa 04 46 b4 e5 e5 44
       6546.9775 5655.1313 8490.61 1839.1782
000080 d6 60 e3 44 cc 45 a8 44 c4 45 22 45 ba 58 dc 45
       1819.0261 1346.1812 2596.3604 7051.091
000090 d9 00 49 44 53 25 06 45 9e 37 69 44 b9 9d 91 45
       804.01324 2146.3328 932.869 4659.7153
0000a0 02 86 d4 44 e3 25 34 45 07 ab 73 45 11 64 c6 45
       1700.1877 2882.368 3898.6892 6348.5083
0000b0 67 07 a1 44 8d 8a d9 44 e3 a0 ac 44 2f 04 a7 44
       1288.2313 1740.3297 1381.0277 1336.1307
0000c0 c8 9a 75 45 2e 2f d9 44 47 68 0d 45 46 f5 84 45
       3929.6738 1737.4744 2262.5173 4254.659
0000d0 60 c5 b1 45 76 55 d2 45 f1 31 23 45 68 c5 9c 45
       5688.672 6730.6826 2611.1213 5016.676
0000e0 ec d2 8c 44 fb d8 1b 45 0b 20 0d 45 54 21 a3 45
       1126.5913 2493.5613 2258.0027 5220.166
0000f0 be 06 3c 44 d5 a5 67 44 cb ff 81 44 42 6b 52 45
       752.10535 926.5911 1039.9935 3366.7036

weight f4 [128, 64, 3, 3]
000000 1a 52 49 bf 0f fa 24 3e 32 91 04 c0 7d 9b 05 c0
       -0.786409 0.16111015 -2.071362 -2.0876153
000010 fa a4 de bf 99 39 4a c0 c2 c7 a1 bf 3f 8a 14 c0
       -1.7394097 -3.1597655 -1.2639086 -2.3209379
000020 f5 ff 28 c0 c0 3b 38 bf 2d 3b fb 3e 32 4b 69 3f
       -2.6406224 -0.7196617 0.49068585 0.91130364
000030 91 8e 1d bf 5d 7e 6e 3f e5 b2 97 3f c7 ca 21 40
       -0.61545664 0.93161565 1.1851469 2.5280015
000040 b4 ac 41 bf 5a cc a2 bf 06 27 a0 3f 11 1e 78 3f
       -0.7565415 -1.2718613 1.2511909 0.9692088
000050 bc 9d 27 3f f7 cd 87 3f e3 89 fc 3f 7d 5c ae 3f
       0.6547506 1.060973 1.972958 1.3621975
000060 83 c7 bc 3d 04 3e 11 40 89 cd 2a 3f 80 7b 05 3f
       0.09217741 2.2694101 0.6671987 0.5214157
000070 80 36 f8 3f 9a 34 3d bf d7 84 4c bf ff ee 26 bf
       1.9391632 -0.7390839 -0.798902 -0.6520843
000080 19 89 b2 be e6 1d 12 40 62 88 33 bf 2b 80 c0 3f
       -0.34870222 2.2830749 -0.7012998 1.5039114
000090 3d ef 57 3f 92 ba 61 3d e2 a4 04 40 95 e5 fa 3e
       0.84349424 0.055109568 2.0725636 0.49003282
0000a0 52 00 b2 3f bc 56 b9 3f a5 8c 30 3f 97 05 bb 3f
       1.3906348 1.4479594 0.68964607 1.4611081
0000b0 12 98 7d 40 9d 01 5a 3f f6 1e 54 be a9 a7 8f bd
       3.9624066 0.8515871 -0.20714936 -0.070144005
0000c0 5c 64 7a 3f 1c 14 16 bf 2e 0a 9e bf c3 4a 16 3e
       0.97809386 -0.58624434 -1.2346857 0.14676957
0000d0 de 23 9f bf c0 c8 c6 3f d3 b1 40 be 57 a0 94 bf
       -1.2432821 1.5530014 -0.18817835 -1.1611432
0000e0 fe 39 ec bf d2 0d 49 bf 3b 5c 83 3f 18 f6 ad 3f
       -1.8455198 -0.78536713 1.0262522 1.3590727
0000f0 7b 73 bd 3f 52 b8 01 3d be ee b8 be b0 35 5f bf
       1.4800867 0.031669922 -0.36119646 -0.87191296
000100 af 13 b8 bf a9 17 79 3f 82 21 e7 be 83 76 b1 be
       -1.4381007 0.9730173 -0.45142752 -0.3466073
000110 08 81 b5 bf d2 eb 63 bf 43 e5 99 bf 2e 79 9e bf
       -1.4180002 -0.8903171 -1.202309 -1.2380731
000120 31 82 36 bf e5 a5 fe bd c7 76 99 bf 99 0f 4c 3f
       -0.71292406 -0.124339856 -1.1989373 0.797113
000130 20 86 14 bf 65 5b 5f bf f9 00 46 be 4a 33 87 3f
       -0.5801716 -0.8724883 -0.19336309 1.0562527
000140 cd e0 2a bf f3 88 85 bf 43 23 50 3d 7e d3 1a 40
       -0.6674927 -1.0432419 0.05081488 2.4191585
000150 31 be ce be 36 09 8c bf 37 e3 30 3f ee 4f e2 3e
       -0.4037948 -1.0940311 0.690967 0.44201607
000160 92 02 05 3f 74 06 0f 3f 7c 11 6e bf 95 1f 73 bf
       0.51957047 0.5586922 -0.9299543 -0.94970065
000170 ae bf 94 3e 46 d4 92 bf 26 44 0d 3e 80 db 28 3f
       0.2905249 -1.1471031 0.13795528 0.6595993
000180 fe 62 b7 3e ab 17 ed bf 38 0c 84 3f f6 a5 56 bf
       0.35817713 -1.8522848 1.0316229 -0.83846986
000190 db aa 88 3f 70 4d 71 3f aa d2 10 bf 13 33 86 3f
       1.0677141 0.94258785 -0.5657145 1.0484337
0001a0 7c 99 11 40 69 df 02 40 0c 0f 83 3f aa f8 e3 3f
       2.274993 2.0448859 1.0238967 1.7810261
0001b0 a9 08 32 be 00 92 07 bf d1 5f 07 3f 72 bd bd 3f
       -0.17386116 -0.52957153 0.5288058 1.4823439
0001c0 81 c8 2f bc 08 ee 77 bd ab 09 33 3f 45 6b 5a 40
       -0.010728956 -0.06052974 0.6993663 3.4127972
0001d0 08 66 9b 3f e7 9d ea bf f1 bd 2d bc 64 da 06 40
       1.2140512 -1.8329438 -0.010604368 2.1070795
0001e0 e8 df 47 be 01 de 00 3f 12 5a a5 3e bd a6 cd be
       -0.19519007 0.5033875 0.3229528 -0.40166274
0001f0 0e 84 ac 3f f4 91 2e 40 46 d0 56 bf 6f f8 77 bf
       1.34778 2.7276583 -0.8391155 -0.96863455
000200 42 e2 8e bf f8 9f 20 c0 b1 e7 1e c0 55 ce d9 be
       -1.1162798 -2.5097637 -2.4828913 -0.4254023
000210 b6 90 7b bd cf f3 b7 bf 92 21 2c c0 4b 72 0f bf
       -0.061417304 -1.437128 -2.689549 -0.5603377
000220 ed 2b a9 be 5e 0f 6e 3f 57 a1 3c bf ea 47 94 bd
       -0.33041325 0.929922 -0.73683685 -0.07240279
000230 11 d7 48 3f 55 9a 4e 3e 78 95 b0 3e 5d dd a3 3f
       0.78453165 0.2017606 0.34489036 1.280193
000240 38 f5 08 40 b2 13 cf 3f 89 83 41 3e 2a 3f 12 40
       2.139967 1.6177886 0.18897833 2.2851052
000250 4c ef 03 3f 3d 66 03 40 55 82 d3 3f 77 3b b6 3f
       0.51537013 2.0531151 1.6524149 1.4236897
000260 b5 61 51 3f 81 77 f3 bf c2 c7 36 c0 50 bd 3e c0
       0.81789714 -1.9020845 -2.8559422 -2.9803047
000270 56 2e 15 c0 74 58 9f bf 2e da 64 bf e8 44 1d bf
       -2.3309531 -1.2448869 -0.89395416 -0.6143327
000280 6e 83 20 c0 ee 63 f4 bf 3f 03 a9 bf 9a bd 07 c0
       -2.5080218 -1.9092996 -1.3204116 -2.1209474
000290 d7 f4 2d 3f ff e1 66 c0 05 f5 f6 bf 69 ce 61 3f
       0.6795172 -3.6075437 -1.9293524 0.8820558
0002a0 57 2b 4d 3e 77 e9 cc bf e9 5b cd bf 31 9c a2 3e
       0.20036064 -1.6008748 -1.6043674 0.3175979
0002b0 77 c7 03 bf 58 8d ec be 6e 0d a9 be 06 a5 2f bf
       -0.51476234 -0.46201587 -0.3301806 -0.6861118
0002c0 04 c4 d2 bf 61 18 b4 3f f2 ff f7 3e 6d f7 96 bd
       -1.6466069 1.406994 0.48437458 -0.073714115
0002d0 24 db 1d bf 98 9a 23 be 33 ff 4b c0 ef e4 18 c0
       -0.6166251 -0.15976942 -3.1874511 -2.388973
0002e0 29 ed 10 3f 91 ff 4e c0 42 4b 0b bf da e5 84 bf
       0.5661188 -3.2343485 -0.5441171 -1.0382645
0002f0 15 0a 4f bf 1d 03 9a bf 45 7f c3 3a 54 f4 27 bf
       -0.8087476 -1.20322 0.0014915249 -0.6560719
000300 bc 7f b6 3e 90 c8 88 bf 19 fc 62 be 6e 53 ef bd
       0.3564433 -1.0686207 -0.2216648 -0.11685835
000310 c8 87 8a 3e fd c5 99 3e 86 21 a3 bf c0 80 a5 bf
       0.27056718 0.30033866 -1.2744606 -1.2929916
000320 37 d6 2d c0 e8 80 2f 3f dd 8a 4f bf 82 74 f8 be
       -2.7161996 0.6855607 -0.81071264 -0.48526388
000330 79 c3 fc bf 56 63 18 c0 aa be 28 c0 4d ec a5 3e
       -1.9747154 -2.381063 -2.6366372 0.32406846
000340 56 75 aa bf 39 2a 03 3f 4d 49 dd be 9a 34 6e bf
       -1.3317058 0.512363 -0.43219987 -0.93049014
000350 51 a8 47 bf f6 5f 7d 3f 79 d8 ba 3f bf 5d cf bc
       -0.77991205 0.9897455 1.4597312 -0.025313256
000360 cb ce 1f 3f fe c0 a6 bc f4 2a fa be 2c a6 00 40
       0.62424916 -0.020355698 -0.48860896 2.0101423
000370 9e f9 3f 3f e2 1b 05 40 e1 56 97 3f 06 ab 50 3f
       0.7499026 2.0798268 1.1823388 0.8151096
000380 58 fd de 3f 8a 1d d1 3f cf 54 c4 3f be 44 c7 be
       1.7421064 1.633714 1.5338382 -0.38919634
000390 7a 02 05 40 1a 50 56 bf 08 e9 c2 3f 78 60 63 3e
       2.0782762 -0.83715975 1.5227365 0.22204769
0003a0 09 9c 0b be 8e 33 31 3f 1b 88 27 be d9 ce f0 3d
       -0.13633741 0.6921929 -0.16360514 0.11758203
0003b0 09 e6 1f 40 3c 27 eb be df 06 2f bd a6 c5 88 3f
       2.4984152 -0.4592837 -0.042731162 1.0685318
0003c0 a6 9b 86 be 1f 8f 5d be f9 52 38 40 99 87 9f be
       -0.26290625 -0.21636628 2.8800642 -0.3115814
0003d0 19 f4 7c be 0c a0 74 bf d2 48 05 3f 82 46 8f 3e
       -0.24702491 -0.9555671 0.5206424 0.2798348
0003e0 80 3d c3 bd cf e4 8b 3e eb 05 8d 3e aa 32 a9 be
       -0.095332146 0.27323005 0.27543578 -0.33046466
0003f0 8a 40 1d bf cc ca 07 c0 64 b9 8a be 20 7c 36 c0
       -0.61426604 -2.1217527 -0.27094567 -2.851326

gamma f4 [128]
000000 90 25 26 3f 55 ff ad 3f e4 01 d4 bd 26 9d f2 3e
       0.64901066 1.3593546 -0.10351923 0.4738552
000010 0d 23 f8 3f ce 6c 03 3f 7e a5 0d 3f a9 a7 10 3f
       1.9385697 0.513379 0.55330646 0.5650583
000020 20 cf a7 be 9f 44 fc 3e 3a 5f fe 3f 38 45 3c 3f
       -0.3277521 0.49271104 1.9872811 0.7354312
000030 40 9d df 3d e9 27 96 bd 06 64 d4 3e 9e 68 92 3d
       0.10918665 -0.07331831 0.41482562 0.071488604
000040 b4 99 59 be 48 9a b3 3f 7f 96 d3 3c af bb b5 3f
       -0.2125004 1.4031458 0.025828598 1.4197901
000050 4d c6 f8 be fb 61 ac 3f ed 67 38 3e dd 21 4a be
       -0.4858879 1.3467401 0.18008395 -0.1973948
000060 3f 2f e4 3e c9 37 89 3f a1 a4 e1 be 86 95 fe 3e
       0.44567296 1.0720149 -0.44070914 0.49723452
000070 42 f4 8e 3f 78 0b 8f 3f b9 3a 55 3e a7 0e 4f be
       1.1168292 1.1175375 0.20823182 -0.20220433
000080 bb 5f 2e 3f 53 5a 05 3f f0 1a 77 3f 0a 6c 55 3f
       0.68114823 0.5209095 0.9652548 0.8336798
000090 19 83 1c 3d 9f ca a8 3f 0b f4 c1 3e ce dd 80 be
       0.038210962 1.3186835 0.37881503 -0.25169224
0000a0 59 ae 93 3f ac f1 e4 3e 0e 7a e3 3e 42 74 86 be
       1.1537582 0.4471563 0.44429058 -0.26260573
0000b0 5c 8f 3e be 62 4a 00 3f dc 11 85 bd 56 04 7a 3f
       -0.18609375 0.501135 -0.06497547 0.97662866
0000c0 2f 7c 24 be 25 db 99 3e 71 aa 7f be e7 3e 95 3f
       -0.16062997 0.30050007 -0.24967362 1.1659821
0000d0 12 00 88 3f 6c fb 9b 3d e9 f4 be 3e 20 e8 96 3f
       1.0625021 0.07616314 0.37296227 1.1789589
0000e0 46 fd 9c 3f 35 32 3d 3f 47 ae dd be 72 58 98 3e
       1.2264793 0.73904735 -0.43297026 0.29754978
0000f0 ea 36 97 3f 1a 97 96 3f e8 d8 ef 3e e8 19 2a 3f
       1.1813633 1.1764863 0.46845174 0.6644578
000100 b3 93 c1 be 1b d9 e5 3f 70 c5 55 3f 20 25 90 3f
       -0.37807998 1.795688 0.8350439 1.126133
000110 7c b8 c0 3e c9 85 aa 3f 5f ac 9a bb cb c5 de 3f
       0.3764075 1.3322078 -0.0047202553 1.7404112
000120 d0 f8 da 3e e5 19 de 3e 23 eb 82 3f b2 ca a6 bd
       0.42767954 0.4337913 1.0228008 -0.0814413
000130 ea 7e f0 3d 35 0a f8 3e 8c 77 27 be 00 e4 b8 bd
       0.11742957 0.48445287 -0.16354197 -0.090278625
000140 6b 3c b0 3f f6 e7 a2 3f a3 0f b8 be 31 32 8d 3f
       1.3768438 1.2727039 -0.3594943 1.1030942
000150 32 6d ab 3f 90 6c 3e 3e 97 84 89 3f 5f 66 bb be
       1.3392699 0.18596101 1.0743588 -0.3660154
000160 11 5c c6 3f c0 a4 8f bd a4 9e 9a 3f be 81 3d 3e
       1.5496846 -0.070138454 1.2079663 0.18506524
000170 be 7e c7 3f 5f ba ad 3f 8f 4c ae 3f 28 92 b2 3e
       1.5585554 1.3572501 1.3617114 0.34877133
000180 7d a2 54 3e a3 4f 59 3f f3 60 b5 3f 0b 60 3b 3f
       0.2076511 0.8488714 1.4170212 0.73193425
000190 2b c5 97 3f 5d 46 a8 3f 6c d8 eb 3e 2b 8c 20 3f
       1.1857046 1.3146473 0.46063554 0.6271388
0001a0 5e ad 7f 3e ef e1 84 3e f4 e1 15 3f 78 32 a5 3f
       0.24968478 0.25953624 0.585479 1.2906027
0001b0 9d d3 ca 3f 4b e6 1d bd 08 10 4e bd 89 0d ec be
       1.5845829 -0.038549703 -0.050308257 -0.46104077
0001c0 ee df db 3e 85 79 15 3f 4b b7 94 3e 80 eb 97 3f
       0.42944282 0.5838855 0.2904609 1.1868744
0001d0 8c fc 8e 3f ae 63 10 3f cb 5f c5 be 19 41 93 3e
       1.1170821 0.564021 -0.38549647 0.28760603
0001e0 14 4d 80 3f a5 ce 14 3f 92 b5 11 3d b6 9b 9c 3f
       1.0023522 0.58127815 0.03557355 1.2235019
0001f0 c8 9e 17 3f 10 38 98 3f a9 4f 27 3f af d4 a9 3f
       0.59226656 1.1892109 0.65355927 1.3268031

beta f4 [128]
000000 65 30 ed be a0 3e 2c 3f 6e 4a 85 bf 65 00 a3 be
       -0.46325985 0.6728306 -1.0413339 -0.31836239
000010 83 74 ce be 75 55 01 bf 6a 03 1e bf bf 3a 08 bf
       -0.40323266 -0.5052102 -0.6172396 -0.5321464
000020 e0 83 97 bf fa 6d 15 bf 63 b4 29 3f d5 aa e6 be
       -1.183712 -0.58370936 0.66290873 -0.4505221
000030 ba 13 4b bf 88 62 4b bf 3d 10 2c bf a9 d2 4e bf
       -0.79326975 -0.7944722 -0.6721228 -0.8079019
000040 8c e3 a8 bf ee 17 3a 3f 26 d8 17 bf b3 35 18 3f
       -1.3194442 0.72692764 -0.5931419 0.5945694
000050 68 42 aa bf 37 a6 ef 3e 86 2d 19 bf 9c e0 8c bf
       -1.3301516 0.468065 -0.5983509 -1.1006045
000060 59 97 19 bf f8 0e 42 3f c7 de 9f bf be 8d 0b bf
       -0.59996563 0.7580409 -1.2489861 -0.54513156
000070 3f a6 12 3f 9d cf 79 3e 25 ac 67 bf 87 37 81 bf
       0.5728492 0.24395604 -0.90497047 -1.0095071
000080 c9 81 3b be 11 19 0b bf f4 42 35 be 03 87 66 3f
       -0.18311228 -0.54335123 -0.17701322 0.9004976
000090 1a 81 29 bf de d7 10 3f ae e2 05 bf 33 23 71 bf
       -0.6621262 0.5657939 -0.5229901 -0.94194335
0000a0 3b 91 5b 3e 55 38 0a bf 9d 72 ea be 78 68 57 bf
       0.2144212 -0.53992206 -0.45790568 -0.8414378
0000b0 30 e7 8e bf 8d b2 d0 be ee 61 3a bf 4b 8f f3 bd
       -1.1164303 -0.40761223 -0.7280568 -0.11892565
0000c0 96 0b ab bf 43 6b 3a bf 36 ec a1 bf ed e2 bc 3e
       -1.3362911 -0.7281992 -1.2650211 0.3689188
0000d0 2e aa 12 be 9e 93 39 bf 53 1e 39 bf 3f 62 3a 3f
       -0.14322731 -0.7249087 -0.72311896 0.7280616
0000e0 a6 bd 50 3d 64 cc 95 be 9e dd a8 bf 34 dd 53 bf
       0.050962113 -0.292575 -1.3192632 -0.82759404
0000f0 32 12 9c 3e 2e 05 95 3e e5 b6 ec be ea a6 d4 be
       0.30482632 0.29105514 -0.46233287 -0.41533595
000100 6b 84 8e bf 63 8f 43 3f ce 89 a3 be 58 66 67 3f
       -1.1134161 0.76390666 -0.31941074 0.9039054
000110 97 95 35 bf 44 08 db 3e 47 60 4a bf d9 17 46 3f
       -0.7093138 0.42779744 -0.7905316 0.7738014
000120 be da f1 be 15 e0 f8 be 7d 79 dd bd a2 fa 69 bf
       -0.472372 -0.4860846 -0.10814188 -0.9139806
000130 22 29 97 3f 2d 26 16 bf ed 80 89 bf 7b 66 6e bf
       1.1809428 -0.58652 -1.074247 -0.9312512
000140 7e 7d 78 3f 7c b4 91 3e 0f 4f a6 bf 41 74 6a 3f
       0.97066486 0.2845801 -1.2992877 0.9158364
000150 da 25 50 3f 87 2c 81 bf e5 14 83 be 35 f1 92 bf
       0.81307757 -1.0091714 -0.2560188 -1.147986
000160 df 26 42 3f 92 fa 6a bf e1 c6 55 3f 13 ca 87 bf
       0.7584056 -0.9178859 0.8350659 -1.0608543
000170 96 a8 39 3f 14 5c a0 3e 37 62 18 3f a3 89 4c bf
       0.72522867 0.3132025 0.59524864 -0.79897517
000180 94 2e 10 bf 65 09 c3 3e 0c 56 d6 3e 3b d8 de be
       -0.5632107 0.38093105 0.41862524 -0.43524346
000190 c5 6a 33 3f d2 f1 77 3f 95 39 01 bf 43 94 ca be
       0.7008479 0.96853364 -0.5047849 -0.3956624
0001a0 b7 96 02 bf 3a 10 73 bf 29 cd d2 be 9e c1 69 3f
       -0.5101122 -0.94946635 -0.4117215 0.9131106
0001b0 52 95 55 3f ff 5c 70 bf c4 0c 58 bf 90 4c 2d bf
       0.8343097 -0.938919 -0.8439448 -0.6769495
0001c0 0c a3 f9 be e0 36 ef be fc 12 39 bf 33 18 8d 3e
       -0.48757207 -0.46721554 -0.7229459 0.27557525
0001d0 6b 05 06 3f a5 99 e5 be e7 64 a5 bf c4 61 86 bf
       0.5235202 -0.44843784 -1.2921418 -1.0498586
0001e0 09 30 00 3f 02 51 e0 be 21 b5 38 bf 9b f6 5d 3f
       0.50073296 -0.43811804 -0.7215138 0.86704415
0001f0 96 4e 76 be fd b1 c8 bd 76 1d 86 be bf 5e 0c 3f
       -0.24053416 -0.097995736 -0.26194352 0.5483207

running_mean f4 [1, 128, 1, 1]
000000 4b 4a 62 c2 ea fc b5 c2 a0 24 0e c3 37 b1 fb c0
       -56.57255 -90.99397 -142.14307 -7.8653827
000010 ee 9f 58 42 a6 05 0c c2 3b f9 22 40 f0 8a 6b c2
       54.15618 -35.005516 2.5464618 -58.88568
000020 b3 b1 31 41 d6 2c a2 42 fc 53 42 42 8a 89 a9 c2
       11.105884 81.08757 48.582016 -84.76863
000030 5a b1 92 c2 49 bc 2a c0 9c 45 a4 41 9c ef 72 42
       -73.34639 -2.667742 20.533989 60.733994
000040 a0 0d 78 c1 4e b4 78 c2 ca ff f9 41 8c ad 42 c2
       -15.503326 -62.17608 31.249897 -48.66948
000050 24 a5 a4 c1 aa bf f0 c1 ae 43 8c 41 62 9e 5e c2
       -20.580635 -30.093586 17.533047 -55.65467
000060 e4 cb 86 c2 44 f0 a8 c2 b8 f8 dc 3f 8e 6b 3f c2
       -67.398224 -84.46927 1.7263403 -47.855034
000070 62 28 2d c2 66 f6 88 c1 89 b5 eb 41 dc e5 9d c0
       -43.289436 -17.120312 29.46364 -4.934309
000080 52 25 c2 c0 ac 08 8f c2 ab ac 84 41 25 d1 0a c3
       -6.0670557 -71.51694 16.58431 -138.81697
000090 09 d5 09 bf f7 2a 92 c1 fa b3 20 c2 00 52 f8 c0
       -0.5384069 -18.270979 -40.17576 -7.76001
0000a0 59 03 33 41 4b 6f 3d c2 26 43 87 c2 50 62 3c 41
       11.188317 -47.358685 -67.63115 11.774002
0000b0 86 41 dc 41 16 11 7d c2 14 91 32 42 08 7b d9 41
       27.531994 -63.266685 44.641678 27.185074
0000c0 3a d9 a9 42 42 62 d8 41 28 c4 90 c1 12 66 1d c0
       84.92427 27.047977 -18.09578 -2.4593549
0000d0 36 60 a7 42 cb bc bc c1 0a 4d 34 c2 60 2a 4d c2
       83.68791 -23.592184 -45.075233 -51.29138
0000e0 65 93 9c 42 d6 7b 23 40 22 ea 90 41 e9 18 0c 42
       78.28788 2.5544333 18.114323 35.024326
0000f0 73 14 a5 40 6b e9 86 41 b2 8e 0b c2 95 c7 a3 c2
       5.1587462 16.863974 -34.88935 -81.88981
000100 e6 72 9d c2 a0 26 43 42 9c 7d cd c2 92 e5 cf c2
       -78.72441 48.78772 -102.74533 -103.94838
000110 f8 50 3f 41 9a 37 29 c1 ed 6a 00 42 8c 60 12 42
       11.957268 -10.576075 32.10442 36.594284
000120 7c 46 99 c2 32 0e 6b c2 52 9f 35 42 9d 34 68 c1
       -76.637665 -58.763863 45.405586 -14.512845
000130 0c ac ea c1 0c 8e 44 c2 7a ce 95 c0 90 78 22 c0
       -29.334007 -49.138718 -4.6814547 -2.5386086
000140 53 19 ee c2 14 67 3d 42 e8 c1 7b 40 a3 f2 62 c2
       -119.04946 47.350662 3.93371 -56.73695
000150 c2 50 e0 c2 5b 1a 7b 42 9e 63 0d 42 03 dd 1e c1
       -112.15773 62.775738 35.347282 -9.928958
000160 29 04 ff c2 1f 69 f6 c1 99 7f 8f c2 f8 40 03 c3
       -127.508125 -30.801329 -71.749214 -131.25378
000170 8c a4 e7 42 86 5e 74 41 ae 0b 1b c2 d5 88 27 41
       115.82138 15.273077 -38.761406 10.470906
000180 00 5f a2 40 62 1f 10 c2 82 40 b8 c2 22 d4 e4 c1
       5.0740967 -36.030647 -92.12599 -28.60358
000190 a4 f1 25 c2 87 63 b4 c2 02 07 92 c2 84 8d db c1
       -41.485977 -90.19439 -73.01369 -27.4441
0001a0 f8 74 de 41 7c 5b 2e 42 0f 29 cb c2 6e 68 e2 c2
       27.807114 43.58934 -101.58019 -113.203964
0001b0 01 4e f2 c2 f6 92 9d c1 c3 35 cd 40 dc 7a 2e 41
       -121.15235 -19.696758 6.4128127 10.904995
0001c0 8a 0b 9c c2 ec d1 82 c2 1e f2 4f 42 7a 4f 1e c0
       -78.02254 -65.41 51.986443 -2.4736009
0001d0 66 ca 09 c2 58 ea ad c2 32 fa de 41 9e be 55 42
       -34.447655 -86.9577 27.872166 53.43615
0001e0 6c c2 08 42 9a 03 b1 c2 a9 05 02 42 35 c3 84 c2
       34.189865 -88.507034 32.505527 -66.38126
0001f0 70 40 ce c1 e6 24 c7 40 49 4c 9d c2 19 5d f9 c2
       -25.781464 6.223254 -78.648994 -124.68183

running_var f4 [1, 128, 1, 1]
000000 4b 1d 8e 47 4b 71 64 46 eb 69 b3 45 4e 19 dc 45
       72762.586 14620.323 5741.2397 7043.163
000010 ad a3 bc 46 e8 79 2f 45 47 b1 c1 44 1e 14 26 45
       24145.838 2807.6191 1549.5399 2657.2573
000020 68 30 91 45 8e 80 2c 45 c2 b9 8b 46 2a 21 66 47
       4646.051 2760.0347 17884.879 58913.164
000030 e1 38 3f 45 70 4c 67 45 cc b8 97 45 63 bd a4 45
       3059.555 3700.7773 4855.0996 5271.6733
000040 1a 97 f2 44 81 09 68 46 0b 97 16 45 be 6b b1 45
       1940.7219 14850.376 2409.4402 5677.468
000050 41 f0 a4 46 7d 1b d0 44 05 bc 8c 45 3e 94 23 47
       21112.127 1664.859 4503.5024 41876.242
000060 4a a1 3a 45 6b c8 57 46 55 b9 22 46 77 25 ec 44
       2986.0806 13810.1045 10414.333 1889.1708
000070 b3 e5 dd 45 c6 03 31 45 13 24 6d 46 cc 50 e5 45
       7100.7124 2832.2358 15177.019 7338.0996
000080 54 56 05 46 c1 34 6f 45 72 f6 39 45 21 a3 3b 47
       8533.582 3827.297 2975.4028 48035.13
000090 2c 9d 9f 45 d4 a8 e1 44 f4 f8 37 45 01 f8 9a 45
       5107.6465 1805.2759 2943.5596 4959.0005
0000a0 fd e7 35 43 e4 4b 03 45 e9 0f 40 45 5a 5f 5e 46
       181.9062 2100.7432 3072.9944 14231.838
0000b0 bf 1c 99 45 5d 35 08 46 ed c0 c3 45 83 30 6f 45
       4899.5933 8717.341 6264.1157 3827.032
0000c0 2e 56 e4 45 97 ba cc 44 dc 93 d3 45 70 3b 89 45
       7306.7725 1637.8309 6770.4824 4391.4297
0000d0 88 e1 7f 46 3e 48 75 45 61 f4 1c 45 86 18 00 46
       16376.383 3924.5151 2511.2737 8198.131
0000e0 00 04 38 46 70 28 40 46 b2 4d d1 45 cb 0a 79 44
       11777.0 12298.109 6697.712 996.16864
0000f0 d6 d6 4b 45 2f 0f 8a 45 6d 95 02 45 c0 d7 b2 46
       3261.4272 4417.898 2089.339 22891.875
000100 36 c2 4b 45 cb a0 9a 46 d6 50 c4 45 53 7f 41 46
       3260.1382 19792.396 6282.1045 12383.831
000110 09 60 3d 45 54 9b 87 44 ae 1b d8 45 2c a8 5e 46
       3030.0022 1084.854 6915.46 14250.043
000120 0f 5f 21 45 e1 44 1f 45 27 3d d6 46 28 3d a7 45
       2581.9412 2548.305 27422.576 5351.6445
000130 f1 4c 86 46 0e 92 d5 44 85 cb b1 45 ba f1 71 45
       17190.47 1708.5642 5689.44 3871.108
000140 49 71 9c 46 9d 86 11 44 39 98 06 46 49 20 bb 45
       20024.643 582.10333 8614.056 5988.0356
000150 92 01 86 46 b9 1d 26 47 82 6f 6b 47 ce 74 12 46
       17152.785 42525.723 60271.508 9373.201
000160 91 de b4 46 23 19 2b 45 32 62 3b 46 67 57 0f 46
       23151.283 2737.571 11992.549 9173.851
000170 8d 7a 8f 47 c3 a1 47 45 8e d1 33 46 68 6f 26 45
       73461.1 3194.11 11508.389 2662.963
000180 5c c9 f1 43 bd 77 23 46 cf 07 c8 46 97 1f 39 46
       483.57312 10461.935 25603.904 11847.897
000190 f5 7b c3 45 f6 8f 20 46 38 ff 50 45 61 c2 0b 46
       6255.4946 10275.99 3343.9512 8944.595
0001a0 6e ff 15 44 ee 6b b0 44 03 85 a8 46 49 0e 9d 46
       599.9911 1411.3728 21570.506 20103.143
0001b0 9d 22 4a 47 f5 63 13 45 78 39 fb 45 ae a6 89 44
       51746.613 2358.2473 8039.1836 1101.2087
0001c0 d8 d8 24 45 58 dc c3 45 5f c7 a2 44 11 47 06 45
       2637.5527 6267.543 1302.2303 2148.4417
0001d0 24 b1 e8 46 f6 ac 58 46 9f 89 00 46 60 2e ce 44
       29784.57 13867.24 8226.405 1649.4492
0001e0 23 c9 aa 44 78 32 34 46 87 75 2c 45 c4 4d 24 46
       1366.2855 11532.617 2759.3455 10515.441
0001f0 59 53 11 46 7f 4b da 45 68 71 35 45 14 bf bb 46
       9300.837 6985.437 2903.088 24031.54
